best_model.pth (torch, 203881 bytes, 18 tensors)

gru.weight_ih_l0 f4 [144, 4]
00000000: 0e18 213e 5887 793d 3cef f5bd ac26 723d
00000010: 969d cd3d 918e 7b3d cebb 123e 17b5 b5bd
00000020: c939 41bc 116c 103e b846 3dbd 3b7b cf3d
00000030: f29f 5c3d e0cc 6bbd 68c7 8ebc c2e3 143e
00000040: 6775 38bd 4713 823d 726a 9fbd 8e03 fa3c
00000050: d641 e9bd 06ac 0b3e 4149 e5bc ce95 85bd
00000060: 34c6 723d 973b d73d 9601 8d3d 0682 ec3b
00000070: 2d08 fbbd a394 6abd 1b18 10be a31e 29bd
00000080: 02db d8bb 57af 003e d41d e93d 41ae 23be
00000090: 210f 61bd 50e5 1a3d a3db 123d 3db8 e83d
000000a0: 7ef5 153e ca89 15be b89c 8bbb f43d 063e
000000b0: 199a e4bd 97c9 50bd 3468 0cbc 536c 023e
000000c0: 2293 ca3c 726d 61bb f307 083e fa2d 15bd
000000d0: 1e9e f9bd a7fe fb3b 0af8 273d eacc 1abe
000000e0: b436 a23d a9a3 dbbc 603d f0bd f8a0 58bd
000000f0: 4021 2cbd 1185 103b e51c ed3d 511d 5cbd
00000100: 6f58 33bd c181 05be 5676 f83d cb58 003c
00000110: 7db7 743d 7f42 dfbb 41eb 59bd 3b6b cdbc
00000120: bbbc 03be 2050 bbbd 1066 ffbc 4fa6 55bd
00000130: 611a 8eba ea10 a7bd 46e9 d5bd 71df d23d
00000140: 396c 0dbe 5180 f03d 4df3 f93c a1dc f5bc
00000150: 3704 a23d 489c f03c f230 8d3b a318 8a3c
00000160: 12b4 083e e19e a7bd 5fb8 a3bb 8aec 3c3e
00000170: 16d7 3a3c a456 4fbc 625a ce3d e03f 6c3d
00000180: ffd6 69bd 09ad ed3d 6c22 b5bd c8a4 983c
00000190: 129f 9dbd 5e4b 223d 5134 163a c42f 263d
000001a0: a310 ce3d 0771 5abd 60aa 193e 5bf3 e3bd
000001b0: a4a1 f5bd 042d c93d ed23 e53d f0fc 143e
000001c0: 1b54 7fbd ed98 e33d d95c 91bc 22c0 cbbd
000001d0: 87cf c53c 9e2d 023e 5b5e c03c 5e8c a53d
000001e0: aafb c3bd cd44 e93d 52d7 083e 5b1e 53bd
000001f0: f0a9 c8bd d5ed 2bbe ada3 d63c 13ea 17be
00000200: bb11 073d f789 a03d b776 463d 8b21 00be
00000210: d248 fdbd 9aea d63d 73c5 a7bd 889a c9bc
00000220: ec90 c3bd 8c89 14bd a2db ff3c ae70 dbbd
00000230: 23f3 c83d 56ef 3c3d 9f26 d43d 6f50 6ebd
00000240: a02a 10bd e53c 8a3d db33 8ebd 1aaa 053e
00000250: 10b3 91bc 9df2 063d b164 1f3d d9cc e7bd
00000260: 9f11 98bd 4a5d 713c 49e5 77bd e532 d1bd
00000270: 083b 043e a8af 1fbc 1330 8dbd 76de 263e
00000280: 2f74 e2bd 4f01 40be 435f a0bd 537b 8d3d
00000290: 64d9 dfbd 5f58 b9bd 5dd4 20bd 74cf 62bc
000002a0: ff6c 063e e9c1 0cbe 8ae9 49bd 1ce3 43bd
000002b0: b53e 98bd 9c71 97bd efea 17bd beff 88bd
000002c0: 5734 863d 8965 28bd 6033 ddbd 503c 123e
000002d0: e475 063d f518 a5bb eaba 893c 2287 1abd
000002e0: 02d6 fd3d 1bca f03d 25a3 e23c 16e0 cb3d
000002f0: 9076 173d 6dec 223e 8200 abbd fcd9 b8bd
00000300: e1b8 44bd e7c4 0f3e accc 993c a5df 063d
00000310: 8675 723e 7173 a33c 6dd7 f1bd f7ad 87bd
00000320: 1c01 03bc 9d41 f0bc 2c2c 08be 902b a0bd
00000330: a807 21bd b077 433e 9623 06bd 6e42 293e
00000340: 3ba4 223e 5286 233e dd9e 493d 448f 903e
00000350: c32f e53d 90d0 2cbd d5cf 8cbd 9464 df3b
00000360: 4d60 573e ef1b ac3d 180c 713d 94f5 063e
00000370: 15b1 0e3e 58af e7bc bc01 9c3c c5b8 433d
00000380: 3b27 2dbb ecf3 833e 3647 893e 4d26 403e
00000390: 0c8f 33bc 7750 c43c 0349 833b 7561 75bd
000003a0: 1018 023e e1a5 4abd 666f afbc 9fe1 643d
000003b0: 4558 9d3e 8c46 d5bd 01cd 843d 533b 35bd
000003c0: 7400 263e 83f6 73be 13db 0dbe 9c00 3c3b
000003d0: 5c47 7cbd 9920 4c3d 13bd fb3d 43d7 cebd
000003e0: 1889 1b3e 2318 273e 0414 2cbd df72 513e
000003f0: 7baf 183e d627 a6bd 3842 423d 82ca 44bd
0.15731832 0.06092009 -0.12008521 0.05911891 0.10039823 0.06141526 0.14329454 -0.08872431
-0.011793562 0.14103724 -0.04621002 0.10130926 0.053863473 -0.05756843 -0.017429069 0.14540008
-0.04503384 0.06351333 -0.07783975 0.030519273 -0.1138951 0.1363984 -0.027989032 -0.065227136
0.059271052 0.10509413 0.06885068 0.0072176484 -0.12257419 -0.057270657 -0.14071696 -0.041288983
-0.0066179046 0.12566887 0.113826424 -0.15984441 -0.05494607 0.037816346 0.035853993 0.11363266
0.14644429 -0.14603344 -0.0042606257 0.1310957 -0.11162204 -0.0509735 -0.008569766 0.12736635
0.024728362 -0.003439751 0.13284282 -0.0364208 -0.121883616 0.007690269 0.041008033 -0.15117231
0.0792059 -0.026811438 -0.11730456 -0.052887887 -0.042023897 0.002205197 0.11577777 -0.053738896
-0.04378551 -0.13037778 0.12131946 0.00783367 0.0597453 -0.006813347 -0.05320287 -0.025075546
-0.12864964 -0.09146142 -0.031176597 -0.052160557 -0.0010841602 -0.08157523 -0.10444884 0.10296524
-0.13810815 0.117432244 0.030511523 -0.03001243 0.0791096 0.029371396 0.0043088133 0.01685745
0.13349941 -0.081846006 -0.004996344 0.18449607 0.01140382 -0.012654934 0.10075833 0.057678103
-0.057089802 0.116052695 -0.08844456 0.018633261 -0.07696356 0.039622657 0.00057298417 0.040572897
0.10061767 -0.053330448 0.15006399 -0.11130401 -0.11993721 0.09823039 0.11188493 0.14549613
-0.06233607 0.11113153 -0.017744469 -0.09948756 0.024146808 0.12712714 0.023482492 0.080834135
-0.095694855 0.11390076 0.13363388 -0.05154262 -0.09798038 -0.16789944 0.026201094 -0.14835386
0.032975893 0.07838815 0.04845306 -0.12512796 -0.12367405 0.104939654 -0.08191957 -0.024609819
-0.09549126 -0.036263987 0.031232659 -0.10714851 0.09812 0.046126686 0.10358929 -0.058182176
-0.0351969 0.06749896 -0.069434844 0.1305317 -0.017785579 0.032946218 0.038914386 -0.113183685
-0.07425236 0.0147317145 -0.060521398 -0.102147855 0.12913144 -0.00974647 -0.06893935 0.162958
-0.110573165 -0.18750499 -0.0783067 0.06908288 -0.10930136 -0.090500586 -0.039265025 -0.013843406
0.13127516 -0.13745846 -0.049294986 -0.04782401 -0.074338354 -0.07394716 -0.037089285 -0.06689404
0.06552952 -0.041112456 -0.10800815 0.1428082 0.032827273 -0.0050383755 0.01681276 -0.03772653
0.123943344 0.117572986 0.027665684 0.099548504 0.036978304 0.15910502 -0.08349706 -0.09025952
-0.048027877 0.14039956 0.018774353 0.032928128 0.23677644 0.019952508 -0.11808667 -0.06624978
-0.00799587 -0.029328162 -0.132981 -0.07820809 -0.039313942 0.19088626 -0.03274878 0.16529247
0.15882961 0.15969208 0.04922377 0.28234303 0.111907504 -0.04219109 -0.06875578 0.00681741
0.2103283 0.084037654 0.058849424 0.13179618 0.13934739 -0.028281853 0.019043796 0.04778363
-0.0026421088 0.25772035 0.26812142 0.1876461 -0.010959398 0.02396415 0.0040065064 -0.059907395
0.12704492 -0.0494746 -0.021415424 0.05587923 0.30731407 -0.104138464 0.06484414 -0.04424603
0.1621111 -0.23824506 -0.13853101 0.0028686887 -0.06159149 0.049835775 0.122919224 -0.10099652
0.15189016 0.16317801 -0.042011276 0.20453976 0.1491069 -0.08113067 0.047426432 -0.04804469

gru.weight_hh_l0 f4 [144, 48]
00000000: 7f7d c4b9 6628 86bd ac49 fb3d 4b3c cb3d
00000010: ed52 fb3d 8981 7dbb 4abb 123d d8da 243e
00000020: da33 81bc 9a7d 0f3e b855 113e 1802 683c
00000030: 6295 12bc dd3c 27bd 3423 a6bd bd31 e7bc
00000040: 7b99 97bd a013 0d3e 3221 84be b212 babd
00000050: e20a 193e 1aeb 2e3d 7561 453c f241 153e
00000060: 65fc efbd fccb ac3c 04db e13b 6285 c1bd
00000070: 807a 433d 119f 09be 8837 8dbd 28e1 aabd
00000080: 5e35 b2bc 3a08 903d efdd f5bd 288a a0bc
00000090: 7d23 f33d 1cab 7fbd c6fe 953c 2084 04be
000000a0: c169 9ebd 5687 8abd e94b 4c3d 8725 9bbd
000000b0: 289d 20bd 6227 903d bed6 bb3d bdb7 053e
000000c0: b2c5 75bd de08 9bbd 15cb abbd 65cf 043e
000000d0: 0492 d7bd 355a e33d babd 613d b9dc 95bd
000000e0: 57a8 a43c 072d 863d 9518 26bc 2d7a 103d
000000f0: 6df9 3bbd ddbf 88bd ab7e f23d f738 953d
00000100: 49d3 613c 32c4 9b3d 752d bbbc 0b86 453d
00000110: c663 95bd 21b4 30be 2432 173d 8e1c eebd
00000120: 5edc 6f3d 2ec8 d4bd 28a1 033e 7dcd 15bd
00000130: 6002 e9bd fe69 84bd 2138 92bd 28e6 c13d
00000140: 6d4c cabd 4abe f13d ac7e f53d 52c0 dfbd
00000150: 7890 1cbe f699 a1bc bdec a13c 8854 7a3c
00000160: 1e10 203e 8c54 8dbd 48a0 fd3b ef80 5abd
00000170: 7b89 013e 117c c0bd c1e2 4b3b a6ff 40bd
00000180: 22c9 233c 1542 9dbd 5625 0dbe 29d7 c63d
00000190: 5c25 b6bd f5df d6bc f9b9 213e 844e cbbb
000001a0: 61f3 08bd 54f4 ae3d 8866 97bd 0823 ae3a
000001b0: 49f8 51bd 7547 993d ede1 aebd 2877 29bd
000001c0: 9b57 09be 2a35 c1bd a4ec 423e e613 e23d
000001d0: 3695 86bd b342 783d c3df e6bb 4f92 bdbc
000001e0: 0cfa 85bd 1661 e5bd e467 053e fd07 63bd
000001f0: c41a 21bd 3d91 0a3e e22b 2f3d a296 05be
00000200: b4e5 5ebd d3bd 013e 16cb 6a3d 9a76 0c3d
00000210: 5286 6fbc de59 823d b4e8 6eba 4896 c93c
00000220: 85d1 283e e508 f7bd 87c5 c03d a32a e73d
00000230: 5931 d5bd 0749 00be 493c 723d 026d d83d
00000240: 6bbd 303c 22c4 b8ba 460d 1c3e 0ca1 e5bd
00000250: 5af2 7abd dfcc 8f3c b72f a53d 7c8d a43d
00000260: dbb5 78bc 7e09 71bd 4af3 a43d 7543 1fbd
00000270: 5c8d 023e 6cf5 33bd 60a4 8abd 9299 333d
00000280: 2886 753d db79 e23d d418 883d 4286 9ebd
00000290: a197 b4bc 919b 8b3d 8fdd 043e 4cec b6bd
000002a0: bca1 d73b e3b4 0bbe 0039 81bc f35e 123e
000002b0: 547f bb3b c9e3 9ebd 6a72 ef3a 27f1 62bd
000002c0: 28b4 e5bd 400d fdbd dcc9 68bc 6fc8 cf3d
000002d0: 1a9b 083e 2caa ba3d b685 123e ebdd 11bd
000002e0: 4203 92bd 201d c43d 10cb 993c 3615 013e
000002f0: f10b aabd c04e ccbc f739 d93c 0b67 113e
00000300: 3d9b 673c 8e9d 093e 8b26 35bd 9456 5dbd
00000310: acb0 a5bc 02e4 5bbd 21f6 9e3d ab15 f6bd
00000320: ded7 40bd 4854 ea3d 76eb 1bbd cf9c e23d
00000330: 6079 443d 34f7 063e 2130 1d3d 01e4 b23d
00000340: 9dca 66bd e1ff d8bb 6d21 15be 58d8 863d
00000350: d8c4 b1bc 1c06 48bc 5a65 89bd c859 0bbe
00000360: 7d33 19bd 5467 66bd 5175 0a3e 4c9d 29bd
00000370: cc70 143d adf1 6cbd 54b0 89bc 59c6 2c3d
00000380: 971e b23d f85f 033e 1f27 3e3b bbe6 043c
00000390: 9cd1 53bd 1c48 d93d 14c4 dcbb e346 65bd
000003a0: de69 7f3d 1848 0c3e 1bbe 8abd 5d37 bebd
000003b0: e41a 87bd 58f7 abbd c8d0 3fbd 2106 9a3d
000003c0: 7351 8ebd 4579 843c f302 f63d 78e9 883d
000003d0: ff0e d23d d2fa cd3d 03bf 25bd 5462 16bc
000003e0: 47b0 e43d 01f3 42bd b531 653d b007 2dbe
000003f0: 352e e93c a558 2b3d 3d38 aebd 367c 0cbe
-0.00037477535 -0.06550674 0.12269911 0.09923609 0.12271676 -0.0038681945 0.035823144 0.16099107
-0.015771795 0.14012757 0.14192855 0.014160655 -0.008946748 -0.040829528 -0.08112183 -0.02822196
-0.07402321 0.13777018 -0.25806576 -0.09085597 0.14945558 0.04270468 0.012047161 0.14575937
-0.11718062 0.021093361 0.006892564 -0.09449269 0.047724247 -0.13439585 -0.06895357 -0.083437264
-0.021753963 0.07032819 -0.12005221 -0.019597128 0.11872003 -0.062419042 0.018309962 -0.12941027
-0.07735015 -0.067640945 0.04987708 -0.07575517 -0.039212376 0.07038762 0.09171818 0.13058372
-0.06000299 -0.07570051 -0.08388344 0.1296974 -0.10525897 0.1110119 0.055112578 -0.0731749
0.020099802 0.06551557 -0.010137697 0.035272766 -0.045892168 -0.0667722 0.11840566 0.07286256
0.013783284 0.07605781 -0.022848824 0.048223536 -0.07294421 -0.17256214 0.036913052 -0.1162654
0.058559768 -0.10389744 0.12854445 -0.036572922 -0.11377406 -0.06465529 -0.07139612 0.09467727
-0.09877858 0.11803873 0.11987051 -0.10925354 -0.15289485 -0.019726735 0.019766206 0.015278943
0.15631148 -0.06900892 0.0077400543 -0.053345617 0.12650101 -0.09398664 0.0031110498 -0.047118805
0.009996684 -0.0767862 -0.13783774 0.09709007 -0.088938445 -0.026229838 0.15793599 -0.006204428
-0.03343523 0.08542696 -0.07392603 0.0013285587 -0.051262174 0.074843325 -0.08539186 -0.041373402
-0.13412325 -0.09433968 0.19035584 0.110389516 -0.065714285 0.060610484 -0.0070457174 -0.023141054
-0.06541833 -0.11200158 0.13027912 -0.05542754 -0.039332166 0.13531967 0.04276646 -0.13045743
-0.05441828 0.12670068 0.057322584 0.034292795 -0.014619427 0.06364797 -0.0009113655 0.024607792
0.16486175 -0.12062243 0.09412675 0.11287429 -0.10409803 -0.12527858 0.059139524 0.105676666
0.010787348 -0.0014096538 0.15239438 -0.11212358 -0.06126628 0.017553745 0.080657415 0.080347985
-0.0151800765 -0.058846943 0.08054216 -0.03888269 0.12749237 -0.043935224 -0.06769633 0.043847628
0.059942394 0.11058398 0.066453606 -0.077404514 -0.022044959 0.06816781 0.12975143 -0.08931789
0.0065805595 -0.13643222 -0.01577425 0.14294033 0.005721966 -0.0775829 0.0018268351 -0.055405762
-0.11216003 -0.12356043 -0.014208283 0.101456515 0.13340417 0.09114489 0.14308819 -0.035612028
-0.07129528 0.09575868 0.018773586 0.12605748 -0.08303059 -0.024939895 0.026516898 0.14199464
0.014136133 0.13439009 -0.04422621 -0.054037645 -0.020225845 -0.053684242 0.07761789 -0.120158516
-0.047080867 0.114418566 -0.03806635 0.11065065 0.047967315 0.13180238 0.038375977 0.087348945
-0.05634557 -0.0066223 -0.14563532 0.06584233 -0.021700308 -0.012208488 -0.067087844 -0.13608468
-0.03740262 -0.056250885 0.13521315 -0.041409776 0.036240384 -0.057847667 -0.016807713 0.042181347
0.08697241 0.12829578 0.0029015017 0.008111651 -0.05171357 0.10609457 -0.0067372415 -0.055975806
0.062356822 0.13699377 -0.06774541 -0.092879035 -0.06596926 -0.083967865 -0.04682997 0.075207
-0.06949129 0.016171107 0.12012281 0.06685156 0.102567665 0.10057606 -0.040465366 -0.009178717
0.11166435 -0.047595028 0.055955607 -0.16897464 0.028464416 0.041832585 -0.0850682 -0.13719258

gru.bias_ih_l0 f4 [144]
00000000: 5717 febd 0793 113e 972e 94bd ae47 e63c
00000010: 54ec 0abe f6e4 d93d 71d5 ec3d 3de3 fabc
00000020: 2810 a7bc b15a 27bd e78f fd3d d3ce 053e
00000030: ed99 10be 9173 753d 6201 0abe f85a fbbd
00000040: 7eac febd 59fc a2bd 13ce e13d f63b d5bd
00000050: 2086 63bd 3393 0ebe ee34 2b3d 858a 12be
00000060: 56bf 1cbd a97a babc 3827 363d 7396 d33d
00000070: d9c7 53bd 0973 d4bd 51ca c43d 1946 cdbd
00000080: f76d 8abd 8d4b 44bd f74c aa3d 487f e03d
00000090: 1c69 98bd 971d 1cbe fa88 8bbd 764a cfbc
000000a0: 8252 f3bd cb43 b53b d83a 453d 4056 b8bd
000000b0: a321 ddbd ad79 a13c ead7 94bd 0e62 f0bc
000000c0: e06f 073e 7479 51be 68df 37bc 34d6 2cbe
000000d0: 497e 133e 318f 323d 4ac9 e8bc a6a8 a2bd
000000e0: c8b5 a43d d32c b8bd 6137 0bbe aa7d 9abd
000000f0: d12e 08bd ce71 a6bd ba59 b03c d8b7 e3bc
00000100: fbaa 0e3d 2cfd 3dbb bc39 0cbd 95e8 2d3d
00000110: 0804 6abe 7321 173a c5d5 73bc 7fa1 93bd
00000120: d778 8fbd 355e 203d 795b 8fbd 7904 1fbe
00000130: cca4 28bc e808 6cbc 6e63 4fbe e80a a7bd
00000140: 910b 4cbd 2d0d 0b3d 1415 eebb 0346 ce3d
00000150: 0924 8a3d e675 8c3d ff50 7abd 57f0 643d
00000160: 6fce 843b c371 4ebd b0b8 b13d 8713 86bd
00000170: cbdf c6bd b604 68bd f71d 8e3d fdfa e23d
00000180: 9454 153d 3555 57bd 3ae3 503c 19d2 843d
00000190: f387 023e 1bc4 ce3d 2161 08be b90f 4b3d
000001a0: 2f3d a8bd 267c fdbd 61b9 93bd 5845 9abd
000001b0: 631b da3d 4341 2abd 07af c2bd 29e8 e1bd
000001c0: 6fed 213e e55f d4bd b144 34bd d82b 23bd
000001d0: 10ee ea3b 744f 15bc 2735 dabd 737a 893d
000001e0: ff28 8fbd ea2c 593d 8b9c 6d3d 23cb 48bd
000001f0: 4a57 083e 805b 3c3d 0d39 ac3d 1feb e5b8
00000200: 23ad 56bd 727b 133d e9d4 1a3d 31c5 b33d
00000210: b2ad d0bd 6b4d 1a3d 01c3 c9bb 3ab0 94bc
00000220: cf77 dbbd 4085 bebd eae1 39bd f406 b63d
00000230: f644 5b3c 09b4 26bd 62f7 fdbd 761c 4ebd
-0.124067955 0.14216243 -0.07235449 0.028110351 -0.13566715 0.10639374 0.11564148 -0.030625934
-0.020393446 -0.040857974 0.12380963 0.13067178 -0.14121218 0.059924666 -0.1347709 -0.1227321
-0.12435244 -0.07958288 0.11025634 -0.10411827 -0.055547833 -0.1392334 0.041798525 -0.14310654
-0.03826841 -0.022763567 0.044470996 0.1033143 -0.05170426 -0.10373504 0.09608901 -0.10023136
-0.067592554 -0.047923613 0.08315461 0.10961777 -0.07441923 -0.15245663 -0.068132356 -0.02530406
-0.118809715 0.005531763 0.04815182 -0.09000826 -0.10797431 0.01971134 -0.07267745 -0.029343631
0.1322627 -0.20456487 -0.011222698 -0.16878587 0.14403643 0.04359359 -0.028416295 -0.079423234
0.080424845 -0.089929245 -0.13595344 -0.075435 -0.033247773 -0.08127175 0.02152716 -0.027797624
0.03483103 -0.0028990014 -0.034234747 0.042458136 -0.228531 0.0005765177 -0.01488251 -0.07208537
-0.0700547 0.039152343 -0.06999869 -0.1552905 -0.010293197 -0.01440642 -0.20252773 -0.08156377
-0.049815718 0.033948112 -0.0072656963 0.100719474 0.067451544 0.06858425 -0.0611124 0.05589327
0.004052929 -0.05040146 0.086778045 -0.06546693 -0.09710654 -0.056645118 0.06939309 0.110830285
0.036457613 -0.052571494 0.0127494875 0.064853854 0.12747173 0.10095998 -0.13318302 0.04957554
-0.08214795 -0.12377195 -0.072130926 -0.075327575 0.10649755 -0.041566145 -0.0950604 -0.11030609
0.1581323 -0.10369853 -0.04401082 -0.039836735 0.0071694925 -0.009113181 -0.10654669 0.067128085
-0.06990241 0.05302135 0.05801062 -0.04902185 0.13314548 0.0459857 0.08409319 -0.00010963366
-0.05241121 0.0360064 0.037800703 0.08777846 -0.1018938 0.037671488 -0.0061572795 -0.018150438
-0.10716211 -0.09302759 -0.045381464 0.08888045 0.013383141 -0.04069904 -0.124007 -0.05032011

gru.bias_hh_l0 f4 [144]
00000000: 4aa4 1f3d d78d 68bb 48c5 c4bc 45eb 0dbe
00000010: 72e7 e43d d975 c8bd 2d75 073c 9f02 f3bd
00000020: ce1e 3bbd 2787 903d 886c 41bd 5499 d9bd
00000030: 1902 c13b f093 00be ea5b 11be c611 2a3c
00000040: 8844 23be 89ca e93c 5415 cfbd d3cf a0bd
00000050: 2183 8ebd cb7f cbbd d3b6 0f3e 7cd9 8bbd
00000060: 8009 fbbd c3a0 27be 1f3c edbd 70ad 123d
00000070: 5d17 bbbd 57cb dcbd 7c07 e03b 6caa 903d
00000080: bbcc 51bd 6663 f43d fb05 debd 7213 0fbe
00000090: cc87 bd3d 3b61 4f3d 932d cdbd 2ac5 853d
000000a0: cd1c d13d 6784 0e3e 339b a9bd d40f 13be
000000b0: 081c 46bd 5741 d83d 6015 c2bd 2a21 5abc
000000c0: e98a 153d fabb a7bd 3372 abbd 5733 2dbe
000000d0: 2578 52bd 93cc 0a3e 6308 3ebe 4a1f 02be
000000e0: cef3 c3bd 025c 503d 955f 2ebe 4df8 15be
000000f0: 504d b0bd 9b99 f03c 98a8 debd 3a1b 56be
00000100: 6dd1 0dbe 4f3a f6bc bb41 60be f773 c63c
00000110: fc0e 1bbd 1602 8a3d 4773 4c3d abb0 87bd
00000120: c967 ad3d 5a65 0a3e c6fa d5bd 3a0a 9c3c
00000130: 26fb 70be 0d9c 1abe 1144 f03c 3efd 96bc
00000140: 0b87 703d 7c92 f2bd 2418 14be 14f5 253e
00000150: 8d8a 16be 71ea 27bd 73f0 25be 9137 903c
00000160: fa18 7e3c 4fdd 78bb 6637 213b 5cd8 e03d
00000170: 7373 b5bd e7ce c93c b9af fcbb f939 bf3d
00000180: 6d1f 003d 4d6b d83d 6e54 3bbd 411a 843d
00000190: 44dd a1bd 03b7 c4bd b277 b43d 1350 b53d
000001a0: 96d8 d5bb 93b7 02be a8ee 753d c871 c2bd
000001b0: 548d 733b e0f5 edbd 454d 563a b340 5bbd
000001c0: 3e76 89ba 1d2d d93d 0d5d 9ebc ae93 13be
000001d0: fff7 85bd b23f c5bd ce68 493d 8cb7 e73c
000001e0: 1004 c23d 5a4f 813d c322 9cbd 8ded 97bc
000001f0: 5888 3a3d 3cdf de3d 1bdf 8f3d 08c8 073e
00000200: 0e48 873d 42b6 bcbd b684 6fbd 58d0 533d
00000210: 1310 073e 8026 12bd 2c41 28bc 3aa1 b0bd
00000220: 06c2 6e3d 0655 153e a7a2 6a3d c3b0 0a3d
00000230: f218 ab3d dd94 9dbd ccc2 c2bd 61e6 d5bd
0.038975038 -0.0035484934 -0.024019852 -0.1385928 0.11176957 -0.09788103 0.008267683 -0.11865734
-0.045683675 0.07057028 -0.047222644 -0.10624948 0.0058901426 -0.12556434 -0.14195219 0.010380214
-0.15944111 0.02853896 -0.1011149 -0.07852139 -0.069586046 -0.09936484 0.14034586 -0.06828591
-0.12257671 -0.1636992 -0.11583733 0.035809934 -0.091353156 -0.107809715 0.0068368297 0.070637554
-0.051220637 0.11933021 -0.108409844 -0.13972262 0.09254417 0.050629836 -0.10018458 0.06531747
0.102105714 0.13917695 -0.08281555 -0.14361507 -0.048366576 0.105593376 -0.09476733 -0.013313571
0.03650943 -0.081901506 -0.08371391 -0.16914116 -0.05138411 0.13554601 -0.18557887 -0.12707248
-0.095679864 0.050868995 -0.17028649 -0.146455 -0.08608496 0.02937012 -0.108720005 -0.20908824
-0.13849421 -0.0300571 -0.21900074 0.024225218 -0.037856087 0.06738679 0.049914625 -0.066254936
0.08467061 0.13515225 -0.10448222 0.019047845 -0.23533306 -0.15098591 0.029329332 -0.018431302
0.058722537 -0.11844346 -0.14462334 0.16206771 -0.1470129 -0.040995065 -0.16205005 0.017604621
0.015508885 -0.0037973707 0.002459967 0.10978767 -0.08859911 0.024634792 -0.0077113775 0.09337229
0.03127997 0.10567341 -0.045734815 0.0645032 -0.07903531 -0.09605219 0.088118926 0.088531636
-0.006526063 -0.1276534 0.060042053 -0.09494358 0.0037163096 -0.116191626 0.0008174966 -0.0535285
-0.001048751 0.10604308 -0.01933148 -0.14411804 -0.06541442 -0.096312895 0.049172215 0.028285764
0.09473431 0.06313963 -0.07623818 -0.01854589 0.045540184 0.10882422 0.07024976 0.132599
0.0660554 -0.092144504 -0.058476172 0.051712364 0.13189726 -0.035681248 -0.010269444 -0.086245015
0.058290504 0.14583215 0.057284024 0.03385998 0.08354367 -0.07694409 -0.09509811 -0.10444332

gru.weight_ih_l1 f4 [144, 48]
00000000: b1af 31bc 54d3 7ebc ee30 073e 5cf3 c63d
00000010: 2535 453d 0401 03be 359d 04bd 9d1a c23d
00000020: ce64 6c3d cd0e e03d 1b4b c0bd ff0d 013e
00000030: 984e 0dbe fb78 113e 17fa e9bd 99cd ef3d
00000040: a605 18be 83c2 7cbd c2e8 9fbc 0d30 093d
00000050: ff5c 53bc 03cb 003d 2c8e 64bd a49f 7b3d
00000060: ce5a 7cbc edbf 10be 44d3 c43d 60d0 0e3e
00000070: fd1a c2bd 8a7a 743d 31d6 aabd c8c1 ffbd
00000080: 56b8 bf3d 236d 73bd 8d1a 043e 9950 ec39
00000090: 4986 913d e3ef 86bd 5ee8 c43c efc0 183d
000000a0: 1f68 c6bd 1cde 153d 0365 cc3c ea95 cbbd
000000b0: 4b4a 03be 04e2 bb3c f7aa 80bc ce18 34bd
000000c0: b61d dc3d f05f f63c 2d5c 92bd ef61 4b3d
000000d0: 9727 dabd 2cb0 44bd b6ee 473e fd04 a63d
000000e0: 6932 0abd 6b3b 07bd a422 a23d a569 493d
000000f0: 361c babd 9c00 f4bd afca 85bc d515 293c
00000100: 353a 0c3e 2ff6 12bd ff90 e1bc dd92 bb3d
00000110: 0b93 3e3e 2e4f f63d e708 363e f94d 1abc
00000120: 4e4d 5bbd fe3e 4cbe db63 f1bd 3089 423a
00000130: 819a 863d 11fd 6d3d 14d6 003e 66cf 20be
00000140: 292d e0bd 3cd1 c6bd 9758 b7bd dc08 7dbd
00000150: 5a10 febc f52e 8d3c c3ea 1abe 8f8d 3bbc
00000160: 712b ee3d 41ae 8bbd 9476 093d 3efa 263d
00000170: 59de c43c 724e a5bd e338 093e 45d9 453d
00000180: 566f e0bd 3b92 d43d 1284 9dbd ac2c cd3d
00000190: e35d 58bd 753f 3ebd 9b24 28bd e8f3 c23d
000001a0: 9a12 8fbd 7707 8a3d 6265 0a3e cce5 55bd
000001b0: 8c56 943d 88a7 e43d 8978 323e d2e9 8dbd
000001c0: c78f 31be 4dc8 d3bc 1f49 6cbd bf75 d9bd
000001d0: ddf9 14be 5cc8 02bd 93d3 f2bd 906c 8fbb
000001e0: a515 42bd 5889 e5bd 3d26 6a3d 22d9 f3bd
000001f0: 93bc c0bd a5c4 fb3d c926 e3bd e190 29be
00000200: 177b 913d a421 15bc 5d18 a4bd 392d 213d
00000210: d9dd 993d 01a8 6f3d 9b0a 0d3c ac32 073e
00000220: 5053 333e 8eb9 b2bd 62b4 d8bd 46dc 4ebd
00000230: 0e3b 4b3c b1f6 f43d ca17 40bd e392 3e3c
00000240: b6e2 d2bd cf22 41bd c675 113e 7edc 5dbd
00000250: 6167 013e 8d49 413c d662 913c 34dc 853d
00000260: a805 95bd bed5 1e3e dd82 59bb bba7 073e
00000270: 281e 9abc 4a2c c8bd fff5 0ebd 795c 093d
00000280: 83b6 21be 6f27 19bd cab3 983d 4cbf 803d
00000290: 9e14 d4bd 8000 34bd ce82 ec3d 243e 55bd
000002a0: 0189 a43a c440 40bd 2d74 533d c702 04be
000002b0: e71f aa3d bc63 99bd 08f8 90bd e39b dfbc
000002c0: 1c0a bdbd 8ed1 05bd 876a e9bd d583 9a3b
000002d0: 0108 c5bd 0e5c 67bd 3684 81bd af8d b53d
000002e0: f8ae f93c 3c12 413c a861 da3d 374d 51bd
000002f0: e9d1 dabd c545 e03d aa94 d5bd 8ba2 a43d
00000300: 706a 953d 1896 2fbe 9632 0dbe 1168 f5bd
00000310: 96f0 03bd 0a8f f5bd 9c09 f13d 463c 853d
00000320: 76b5 dbbd 99a6 ba3a a8a2 10be 20eb 293d
00000330: 4d29 c23d 720a c43c 28aa d03d 46b1 44bd
00000340: 034f 963d be37 12be 6de7 c4bd bee7 eb3b
00000350: ef9a f3bd 5dcb f6bd a355 923d 85fe 723d
00000360: 985a f43c 03c5 c4bc 50d2 ca3d fb62 adbd
00000370: dadc 413d f3ad 173e 7e33 b43c 03c0 373c
00000380: 4aac d6bd 49cb 253e b615 213e af2b 453d
00000390: cbd8 25bd e56d ffbd e2e3 fc3d 8ea1 d0bd
000003a0: dd73 d43a 148e 2bbe 624e 86bd c02e c8bd
000003b0: d8a7 fe3c 4ab9 6cbd bd3b ea3d d2b9 7f3d
000003c0: dfab cebc 6b04 6cbd 7b5b 053e d341 f0bd
000003d0: 0a24 fdbb a73a d3bd c362 8b3d c49d 81bd
000003e0: 4a1c c6bb bdde 813d 71b2 d8bd 53f6 063d
000003f0: 12bc a5bd 4447 c6bd c4d0 aa3d 0e86 0e3e
-0.010845111 -0.015553314 0.13202259 0.09714386 0.048146386 -0.12793356 -0.032376487 0.09477732
0.057713322 0.10940323 -0.09389325 0.12602995 -0.13799512 0.14206307 -0.11424654 0.117091365
-0.14845905 -0.06170894 -0.019520167 0.03349309 -0.01290059 0.031443607 -0.05579965 0.061431542
-0.015402509 -0.14135714 0.09610608 0.13946676 -0.09477804 0.059687175 -0.08341635 -0.12488133
0.09361331 -0.059430253 0.12900753 0.00045073478 0.07105691 -0.065887235 0.024036583 0.03729337
-0.09687828 0.036588773 0.02495051 -0.09940703 -0.1282131 0.022934921 -0.015706522 -0.043968968
0.107478544 0.030075043 -0.071464874 0.049653944 -0.106520824 -0.048019573 0.19524655 0.0810642
-0.03373948 -0.03301565 0.079167634 0.049173016 -0.09087412 -0.11914179 -0.016331999 0.010320147
0.13694079 -0.03587931 -0.02753496 0.09158871 0.1861078 0.12026821 0.17776833 -0.009418004
-0.05354052 -0.19945905 -0.11786624 0.0007420955 0.06572438 0.05810267 0.12581664 -0.15704116
-0.109461136 -0.09707877 -0.08952444 -0.061776027 -0.031013656 0.017234305 -0.15128617 -0.011447324
0.116293795 -0.06820346 0.03356035 0.040765993 0.024031805 -0.08071603 0.13400607 0.048302907
-0.10958736 0.10379454 -0.07691206 0.10018286 -0.052823912 -0.046447236 -0.041050535 0.09519178
-0.0698597 0.06739705 0.13515237 -0.052221105 0.0724307 0.111647666 0.17428793 -0.06929363
-0.17340003 -0.025852347 -0.05768692 -0.106181614 -0.1454844 -0.03192936 -0.11856761 -0.0043769553
-0.047383923 -0.11207837 0.057165373 -0.11906649 -0.09410968 0.12293366 -0.11091382 -0.16559173
0.07103556 -0.009102259 -0.080124594 0.03934977 0.07513017 0.05850983 0.008608486 0.13202924
0.1751225 -0.08726798 -0.1058128 -0.050503038 0.012404216 0.11961115 -0.046897687 0.0116317
-0.10297148 -0.047152337 0.14205083 -0.054165356 0.12637092 0.011797321 0.017747324 0.06536141
-0.072764695 0.15511224 -0.0033189573 0.13247578 -0.018813208 -0.097740725 -0.03490257 0.033535454
-0.15792279 -0.037391122 0.07456167 0.06286487 -0.10355495 -0.04394579 0.115483865 -0.052061215
0.0012553037 -0.046936765 0.051624466 -0.12891684 0.08306866 -0.07489726 -0.07078558 -0.027296012
-0.09230444 -0.03267055 -0.113972716 0.0047154226 -0.09620667 -0.056484275 -0.06324045 0.088649146
0.03047894 0.011784133 0.10663158 -0.05109903 -0.106845684 0.109508075 -0.10428746 0.08038815
0.07295692 -0.171471 -0.13788828 -0.1198274 -0.032211863 -0.11990173 0.11769411 0.06505637
-0.1072797 0.0014240324 -0.14124548 0.041484 0.09480534 0.023930762 0.10188705 -0.048020624
0.07339289 -0.14279076 -0.096144535 0.0071992567 -0.118947856 -0.12050507 0.0714524 0.05932476
0.029828355 -0.024019724 0.09903395 -0.08466145 0.04732976 0.1481245 0.02199721 0.011215213
-0.1048208 0.16190828 0.15730938 0.048137363 -0.040489953 -0.124721326 0.12348153 -0.10187064
0.0016208846 -0.16753417 -0.06557919 -0.09774542 0.031085894 -0.057793893 0.114371754 0.06243307
-0.025228439 -0.0576214 0.13023178 -0.11731305 -0.0077252435 -0.103139214 0.06805947 -0.063289195
-0.006045853 0.06341312 -0.1058091 0.032949757 -0.08092512 -0.096815616 0.083406 0.13918325

gru.weight_hh_l1 f4 [144, 48]
00000000: c372 61bd 0210 15bd 6e4b 9abc 04f8 f63c
00000010: fd79 09be 9bbc 39bc f800 caba 407f 7b3c
00000020: 58e5 74bd b5c8 c6bd e873 b7bd 1604 95bd
00000030: 48b9 723d 245f b93c 039c 013d 47c5 c13c
00000040: 2cbd 603c 1e31 98bc c9a6 b4bd f6e8 ea3d
00000050: 383b 953d 8c2d e2bd 91b2 b83d 2567 103e
00000060: 1d09 893d 704b 5f3d 178f e33c d19f 863b
00000070: 04e6 58bd dd97 8fbb ee8b 1e3e 168f 53bd
00000080: f661 cdbc e16b 823d d050 07bd 4b74 653d
00000090: f11e d1bd 4855 613d 568f b53b df7b afbd
000000a0: 8b64 d6bd 939c 393d a8cd c53d 7182 abbb
000000b0: 88f7 043e 7b59 083e d137 723d 66e8 79bd
000000c0: e5d9 cf3c aa92 083e 008f 923d b6be e23d
000000d0: 2b02 9dbc f488 13be 05a7 333e 82cb e13c
000000e0: bc3e 4b3d eb13 4b3d 493f 353e 23f2 123d
000000f0: fa04 67bd c280 a03d 8b58 2ebe 5ed8 50bd
00000100: 6174 0d3e 7f2d 293e 736b c73d a6f6 9ebd
00000110: 0a13 2abc c4df 403e e1fd 3abe 47a6 d43d
00000120: 6216 f03d ec1d 283e 92f9 c53d 8873 b73d
00000130: 1079 03be 78e7 443d 4533 afbc d2b0 08bd
00000140: 4a38 6a3d c94b 81bc 389e f9bd 999b 383e
00000150: 268d 9f3c e22c b93c 3485 6ebd f941 3cbe
00000160: 9207 62ba 06d3 38bd 0ad3 20be 11c5 b2bd
00000170: da63 25bc f816 ed3c fc86 013d aa1c 823d
00000180: 87a1 633d 6dc9 2abd f066 86bd ca91 08bc
00000190: aebd 29be 3831 be3d a03f 15be c95e b9bd
000001a0: b414 853b fee8 2f3e dcf3 313c 0508 ca3d
000001b0: ffc9 acba b9a8 9c3d ac62 3d3c 0fb6 2cbd
000001c0: af45 0bbd 8cee fabc 6195 363c 8263 a0bd
000001d0: f522 cc3d 18ac e53c e77e ab3d f3f0 ae3c
000001e0: 47b1 893d 550a a93d ff1e 213b d408 ea3d
000001f0: 26e9 a23b 0f83 123e b18e 8d3d ab12 27be
00000200: 4e62 7b3b aefe eabd e7c8 063e 23f4 1fbd
00000210: ff62 233c f134 a53d 6e29 c63d 0923 9c3d
00000220: 9d94 06be 984d e1bc 4bd3 f03d 1c3a b03c
00000230: bae7 9cbd 9dda 0e3e f0ee fe3c 0421 e63c
00000240: 8ea0 0cbe 2e2e 91bd 3f24 95bc 8c1a e43d
00000250: 06ad d33d 390e 98bd 00a7 323c 73e5 b3bb
00000260: ddd2 0bbe 7b10 0f3e 83f0 63bd f39f 8ebd
00000270: 5ae0 21bd 880c 073e ec78 b53d c4c5 123c
00000280: a03f 48bd 2670 d9bc bdbf 9fbc c3f8 39bb
00000290: 5c68 11be 9889 bc3d c3b8 cc3c 9a8f 093e
000002a0: 6fb3 143e 1622 95bc 12d2 c3bd ffa6 eebd
000002b0: 900a 053d a9e1 8ebd 3615 02bd ffe3 e4bd
000002c0: 7239 ebbd 36ee 233c 41e7 4e3d 077c ff3c
000002d0: 093f 63bc e677 62bd 6ed8 823d 257f 803d
000002e0: 74e9 b6bd 78a1 bc3d 2156 ba3d afe2 e1bd
000002f0: aa03 b33d 3ca1 e03b f899 623c e9c1 06bc
00000300: cd6a b53d e0c8 2fbd a171 d23d c8f6 a93d
00000310: ecb7 d13c 5a0a 7d3d 0fd3 d7bd 2e00 1cbe
00000320: 0226 563d 9df5 603a 8454 053d 8deb cb3d
00000330: a0ce fb3d 81c9 59bd 0a7f 2d3c 430f 8ebc
00000340: 60d2 313d 91dc 09be f364 81bc 8446 18be
00000350: 27cd 24bb eca1 933d a980 7cbd 51eb 583a
00000360: 51b7 213d df7b b8bd c4f3 38bd c648 783d
00000370: 2891 a03c 5ae0 cd3d 0cce b1bd d385 36bd
00000380: ab11 d43d 1948 b33d 0b00 473d 68cf 20bd
00000390: 43db ff3d 2459 13bd 9ab4 d43d 1f26 bb3c
000003a0: 740f 8f3c 7756 153e 54ee 5bbd 728d ffbd
000003b0: d28d 463d 8baf d3bb ec60 a63d 895f ff3d
000003c0: cf1f 963b 1252 1a3e 181d 2bb8 7be2 5abd
000003d0: f95b 8dbc 81a5 53bd 5b6c a43d 6394 de3d
000003e0: c3ac 91bd c1bd b23c cde8 09bc 8d72 b33d
000003f0: 447a b03d 700f 18bd f3c7 5c3d cfc5 92bd
-0.055041086 -0.03639222 -0.018834796 0.03014756 -0.13425441 -0.011336471 -0.0015411666 0.015350163
-0.05978903 -0.097062506 -0.08957654 -0.0727617 0.05925873 0.022628374 0.031642925 0.02365364
0.013716977 -0.018578108 -0.08820874 0.11470215 0.07286686 -0.110438436 0.09018434 0.14101847
0.06691191 0.054515302 0.027778191 0.004108407 -0.052953735 -0.004382117 0.15483066 -0.05165013
-0.025071125 0.063682325 -0.033036053 0.05601911 -0.1021098 0.05501297 0.0055407686 -0.085685484
-0.10468396 0.045315336 0.096583664 -0.0052340557 0.1298505 0.13315384 0.059135262 -0.061012648
0.025372455 0.13337198 0.07156181 0.110715315 -0.019166073 -0.14407712 0.17544182 0.02756286
0.049620375 0.049579542 0.17699923 0.03587545 -0.05640123 0.078370586 -0.17025964 -0.050987594
0.13813926 0.16521262 0.09737291 -0.07761888 -0.010380516 0.1883536 -0.1826091 0.103832774
0.11723019 0.16417664 0.096667424 0.08957583 -0.1283915 0.04807231 -0.021386752 -0.033371754
0.057182588 -0.015783207 -0.12188381 0.18028106 0.019476485 0.02260441 -0.0582325 -0.18384542
-0.0008622344 -0.045123123 -0.15705505 -0.08728994 -0.010094607 0.028941616 0.03162287 0.063531235
0.055573966 -0.041696 -0.065626025 -0.00833554 -0.16576263 0.092867315 -0.14575052 -0.09051282
0.004061306 0.17178723 0.010861363 0.09864811 -0.0013182758 0.07649369 0.01155917 -0.042165812
-0.034002002 -0.030631326 0.011144013 -0.078314796 0.09967605 0.028036162 0.08373814 0.021355128
0.06723266 0.08253924 0.0024585126 0.11427465 0.004971641 0.14307807 0.06911982 -0.16315715
0.0038358155 -0.114743575 0.13162576 -0.039051186 0.009972333 0.080667384 0.09675871 0.0762387
-0.13142629 -0.02750282 0.11759051 0.021512084 -0.07661386 0.13950582 0.031119794 0.028091915
-0.13733122 -0.07088886 -0.01820576 0.11137876 0.10335736 -0.07424588 0.010904074 -0.005489999
-0.13654657 0.1397113 -0.05564929 -0.06964102 -0.0395206 0.13188374 0.08860955 0.008958284
-0.048888803 -0.026542734 -0.019500608 -0.0028377033 -0.14199966 0.092059314 0.024990445 0.13433686
0.14521573 -0.01820473 -0.09561552 -0.11652946 0.032480776 -0.06976635 -0.03175851 -0.11176299
-0.11485566 0.010005524 0.05051351 0.03118707 -0.013870009 -0.055290125 0.06388937 0.06274251
-0.089312464 0.09210485 0.09098459 -0.110295646 0.08740933 0.006855158 0.013830654 -0.008224943
0.08858261 -0.04291618 0.10275579 0.08299023 0.025600396 0.06177745 -0.10538303 -0.15234444
0.05228234 0.0008581521 0.032551304 0.09957037 0.1229527 -0.053170685 0.0105893705 -0.017341262
0.04341352 -0.13463046 -0.015795207 -0.1487065 -0.0025146694 0.072086185 -0.061646137 0.0008274811
0.039481465 -0.090080015 -0.045154348 0.060616277 0.019600466 0.10052557 -0.086818784 -0.04456122
0.103549324 0.08753986 0.048584025 -0.039260298 0.12492993 -0.035973683 0.103860095 0.022845326
0.017463423 0.14583765 -0.053694084 -0.124781504 0.048475094 -0.0064601353 0.08123955 0.12469394
0.0045814286 0.1507037 -4.0796673e-05 -0.053438645 -0.01725577 -0.05167151 0.0802848 0.10868146
-0.0711303 0.021818997 -0.00841732 0.08762083 0.0861707 -0.037124097 0.053901624 -0.07166635

gru.bias_ih_l1 f4 [144]
00000000: e635 bfbd 4ed4 f1bd 41e0 f5bb ad3d c7bd
00000010: a7ae a53c 2a7b 43bb 8a4a 80bc 9ef5 11bd
00000020: 91a2 c5bd d7ff f53d d42c eebd ce18 8e3c
00000030: f42f 44bd 157e 823d 13f2 aabb d2ef 173d
00000040: 3776 153c edee 493d e666 373d dbe7 c1bc
00000050: 570a 19be 198b 86bd f580 14be a683 be3d
00000060: 8cb1 223d df63 d6bd e74a ecbd f94b af3d
00000070: 167c 893c 4905 00be a6c4 fabd 4fac bfbd
00000080: 6d47 9bbd e689 83bd ce46 1bbe f17e 9bbd
00000090: 3e3b 3fbc c23d d73d 91e7 eabd 2fc5 29bd
000000a0: 66e2 57bd 6810 c73d 7ddf 5c3d d537 d7bd
000000b0: e456 f33d 0139 0cbe 064f 19be c57f 013e
000000c0: 6691 f13d 36d2 f83d b85a 933c 6dda 183e
000000d0: 2636 b5bd 5e3e a53d fb2c 363c 2126 743d
000000e0: a0cc 45bd f06d 233e 5b73 cdbd cce4 e0bb
000000f0: f6be e6bd 2665 92bd 1e0b 2fbe eba5 553e
00000100: 12fb 033d 39c1 27be e33a 3a3d f9c4 25be
00000110: b4d7 403d 3bea 87bc 7687 0abe 454e b8bd
00000120: 92a0 293d 1e35 14be f197 923c 04fa fabb
00000130: d945 04be 8471 cebd 318e a2ba a148 06be
00000140: 7e7c 3bbe 3fd6 c83d 0b46 fb3d e614 ccbd
00000150: 7773 e6bd 7dbc a0bd 038c 123e 2043 143d
00000160: 89f7 23be a2e9 fb3c 7890 3dbd 2996 50bb
00000170: c590 fdbc bc89 1fbe 8f54 0bbe 1260 ad3d
00000180: 28ba a4bb c16c bdbd ad44 cebd abda 61bd
00000190: d5aa 093e 9d46 2f3d a327 e4bd 98c0 f03c
000001a0: 27ec f23c 8dfb 29bc 03b4 81bc 15e9 f0bc
000001b0: 811c cdbd fd10 873d ea95 e43d 089f f7bd
000001c0: 3995 933d 4ea5 f83c 1087 113b 8281 bf3d
000001d0: 86e9 eb3d 1c6e b2bd 97bc 4c3d 0ce2 d3bd
000001e0: 1aab d5bb 1e73 873d 147c e6bc 424e 9dbd
000001f0: f99b 583d d2a9 a33d c61e 57bd 1baa abbd
00000200: 89a5 a8bd 17bd f43c 7392 133b d55e 70bd
00000210: 971f 83bd 5019 ee3d 496e e53c 067a 923d
00000220: d75e 4d3d ef76 70bd 7ec2 9b3c 003f c13d
00000230: 24f8 c73c 9d94 113b 7d39 4f3d f1ec a5bd
-0.09336452 -0.11808072 -0.00750354 -0.097285606 0.020224882 -0.002982805 -0.015660543 -0.03563463
-0.09650148 0.12011688 -0.11629644 0.017345812 -0.047897294 0.063717045 -0.005216846 0.037093945
0.009122423 0.049300123 0.044775866 -0.023670128 -0.1494535 -0.065694995 -0.14502318 0.09302454
0.039720103 -0.10468268 -0.11537724 0.085594125 0.016782802 -0.12502016 -0.12244539 -0.09359037
-0.07581983 -0.064227864 -0.15163729 -0.075925715 -0.011671839 0.10509826 -0.11469949 -0.041447815
-0.052706145 0.09719926 0.053924073 -0.10508696 0.118818074 -0.1369362 -0.14971551 0.12646396
0.11795311 0.121494696 0.017987594 0.14927073 -0.088482186 0.08068536 0.011119123 0.059606675
-0.04829085 0.15959907 -0.10031768 -0.006863212 -0.11266892 -0.07148199 -0.17094085 0.20864074
0.03222186 -0.16382302 0.045466315 -0.1618842 0.04708071 -0.016591182 -0.13528237 -0.08999304
0.041412897 -0.14473388 0.017894717 -0.0076591987 -0.1291727 -0.10080245 -0.0012401995 -0.13113643
-0.18309209 0.09806489 0.12269219 -0.099649236 -0.11252492 -0.07848451 0.14311223 0.036196828
-0.16012396 0.030751053 -0.046280354 -0.0031827784 -0.03095282 -0.15579885 -0.13606475 0.084655896
-0.0050270744 -0.09249259 -0.100716926 -0.05514018 0.13444073 0.04279195 -0.111403726 0.02938871
0.029653622 -0.010374916 -0.015832907 -0.029408017 -0.10015202 0.06595037 0.11161406 -0.1209088
0.07206196 0.03035226 0.0022205748 0.093508735 0.115191504 -0.08712408 0.04998454 -0.103458494
-0.006520641 0.06613754 -0.028135337 -0.07680942 0.052883122 0.07991375 -0.052519582 -0.083820544
-0.08234698 0.029875321 0.002251771 -0.05868419 -0.0640251 0.11625922 0.02800669 0.071521804
0.050139274 -0.058707174 0.01901364 0.094358444 0.024410315 0.0022213825 0.050591934 -0.081018336

gru.bias_hh_l1 f4 [144]
00000000: 6598 f6bd e647 d0bd 4fcd efbd cc07 16be
00000010: bdd6 bdbd 50ff 09be bebe 063e 0d12 b23c
00000020: f2e3 f73d 21bf fdbd 79c9 e53b 2511 9b3d
00000030: 7a90 b73d bc95 c93c 37b6 89bd 99c3 0abe
00000040: 4b86 a43b 997e fb3d 769e 993d 6cf9 fabd
00000050: f9f1 a8bd c20e dc3d 9671 283c 5e2a 0d3e
00000060: 4969 963d 0819 12bd b4fe e13d cf9c 16be
00000070: d040 01be 0c35 b8bb af5c 0e3c 5b8e 553c
00000080: 0e5a aab7 2c29 07be adb5 40bc a79e b53d
00000090: 9230 143d 49e2 17bd 0ae6 bd3c 5ace 113c
000000a0: 22c1 bc3d 6ed2 df3b 4c8b 6e3d dc4b 43bd
000000b0: 12be 0b3e b685 dbbd f7cf f6bd dcc8 883c
000000c0: 387c 6dbb 41a7 bf3d cd10 5c3e 5802 e73c
000000d0: 05da aebd 5121 823c ba3a 583c c616 0e3e
000000e0: 5778 d33d 3f4d d93a 368f 053e 9fac 37be
000000f0: 1b59 bfbd 19b0 fcbd 2189 833d 75f9 493e
00000100: fe8b e7bc 0b5a 6abe 65b6 26be 1538 943c
00000110: 10c3 763d 597e 273e fb71 483c 7a6b 90bd
00000120: 7647 83bd a668 953c f0aa 763d 12c8 153e
00000130: 085b e1bc c6be 313d 1821 ecbd 2337 053d
00000140: e36c 08bd c280 883d a676 183d dd19 ce3d
00000150: 2b58 dbbd 0a71 11bc 76a7 ad3c d2ef 01be
00000160: a5fa adbd 6663 5a3d 4fe4 25be 8a3d ebbd
00000170: dee1 56bd f9e0 17be b859 883d b591 093e
00000180: b6be ea3d b031 f7bb 1b95 b3bc e016 4fbd
00000190: f3a7 0b3e 1498 883d 0e37 d63d 8408 7d3d
000001a0: c73c 563d e9d5 70bd d004 9bbd 0cf5 d13d
000001b0: 5254 9f3d a9a9 933d db52 e13d 784e 03be
000001c0: 07c6 0c3e e2b2 1fbc 8917 9e3d c7f1 14be
000001d0: 75e6 d0bd 6154 f8bb ca2a 8c3d 796d e63c
000001e0: 16d4 af3d 7d07 c9bd 3056 19bd 7b7c 543d
000001f0: 4869 913d 1ab0 403d 8e5a 583d 2d01 cdbd
00000200: efa9 a2bc e759 793d 99ff 7fbc 4d67 e83d
00000210: e59d f43d efcf bc3d 82c5 873d 6418 6abd
00000220: 55e8 fabd ec4e 073e 4432 01be 5acd 12be
00000230: 72f5 a23d a848 1f3d 474a 05be ded6 b53d
-0.12040786 -0.101699635 -0.117090814 -0.14651412 -0.09269474 -0.134763 0.131587 0.021737123
0.12104024 -0.123899706 0.007012543 0.075716294 0.089631036 0.024607532 -0.06724208 -0.13551177
0.005020892 0.12280006 0.07500927 -0.12254605 -0.082492776 0.10745002 0.010280987 0.13785693
0.073443 -0.035668403 0.11034909 -0.14708255 -0.1262238 -0.005621558 0.00868909 0.0130344285
-2.0307514e-05 -0.131993 -0.011762065 0.08868151 0.036179133 -0.037081037 0.02318098 0.008899296
0.09216525 0.006830505 0.058238313 -0.047679767 0.13646725 -0.10718863 -0.12051385 0.01669734
-0.003623737 0.09358073 0.21490784 0.02819936 -0.08537678 0.015885027 0.013197595 0.13875875
0.103256874 0.0016578807 0.13042912 -0.17936943 -0.093431674 -0.123382755 0.0642264 0.19724067
-0.028264996 -0.22885911 -0.16280515 0.018093148 0.06024462 0.16356792 0.012234206 -0.070517495
-0.064101145 0.018238377 0.060221612 0.14627102 -0.027509227 0.043394826 -0.1152975 0.032523286
-0.033306967 0.066651836 0.037222527 0.10063527 -0.10710176 -0.008877048 0.021198016 -0.1268914
-0.08495072 0.05331745 -0.16200374 -0.11486347 -0.052461497 -0.14831914 0.066577375 0.13434489
0.114621565 -0.007543765 -0.021921685 -0.050558925 0.13638286 0.066696316 0.104597196 0.0617757
0.052304056 -0.05879775 -0.07569277 0.10251817 0.07779755 0.072100945 0.110021316 -0.12822902
0.13747416 -0.009747239 0.07719333 -0.14545356 -0.10200206 -0.007578418 0.06844099 0.028128373
0.08585374 -0.098158814 -0.03743571 0.051876526 0.07100159 0.047042944 0.052820735 -0.1000999
-0.019856421 0.060876753 -0.015624904 0.11347828 0.119441785 0.09219348 0.066294685 -0.057152167
-0.12251345 0.132137 -0.12616831 -0.14336148 0.07956971 0.03888765 -0.13016616 0.08878873

gru.weight_ih_l2 f4 [144, 48]
00000000: df4e 0fbe df9b 043e 76d4 8d3d 0f70 d53d
00000010: 7ed4 243b facd 07be 96a6 bfb8 06bd 72bd
00000020: 0c69 ecbb d13c 723d fa5a 06bc 4d08 20bd
00000030: a385 943d 0a4a c93d 7045 da3d ac84 e6bd
00000040: 9bb8 053e 4de2 6dbd a119 8c3d 17c6 f2bd
00000050: e78a 093d 1504 253d 4f97 d13c a88f bfbc
00000060: 60ee a3b9 8cae 4bbc a770 99bd 0c44 cc3c
00000070: 7127 c93d ba06 1abc e25c 173e 99b3 023e
00000080: 8f57 ddbc 4478 e3bd 50d6 963c 934e ef3d
00000090: 1d49 953b bc9a 553d f3e9 9d3c 1d33 cf3d
000000a0: 6685 a4bd 15d0 09bb 00f1 9d3d c624 f2bd
000000b0: a86e b13c 7e4c 21be 7f7e 823a e272 d13d
000000c0: da16 e33c df5d 843d 3a0d e33d ef9a 833d
000000d0: 71f9 023e b8e4 b2bd 3d7d 02be 396f 4ebd
000000e0: 41a1 8ebc 9aa4 633d 327b f83d 8090 01be
000000f0: d9a5 18bd 0a3f 6bbd 56a4 8f3c d518 003e
00000100: 047f 2ebe c9ea 4ebd 3245 df3d c19f cebd
00000110: 256d 2d3d fb39 d43d 15b0 bebd fca3 593d
00000120: 9aad 98bc 5610 9bbd 9f24 0d3e 3c65 69bd
00000130: a55f bbbc 8b41 c03d 7ccc 523d 557d fe3d
00000140: 2274 bc3d 35e9 c6bd 296f 8ebc 8a3e f23c
00000150: 742d 313d 4851 9c3a f8aa fcbd 1334 053e
00000160: 3369 9bbb f0cd 9dbd 2eab 183e 9888 fe3b
00000170: 2862 2ebe 5bac 8ebd e0f1 733d 21f4 dd3d
00000180: b0c2 c1bd 2243 fd3d 70f8 b0bd 7d4d a5bd
00000190: 428c c13d 658b 923d 0337 013e 70a1 c73d
000001a0: ae2f d6bc ffef debc f6da ff3d b185 f43d
000001b0: 6397 9dbd e0e3 afbd 7297 133e 47c8 bf3c
000001c0: 3ad0 74bd 6f3b 2ebe 2fc0 bb3d 6af8 c53d
000001d0: 9444 053e 806b 0bbe 9efc d8bd 598b 80bb
000001e0: 1a70 97bd b010 0ebe 7970 5a3d d6e4 c53d
000001f0: d2b5 35bd 5c59 a2bd b74a 8bbd 7a43 7c3c
00000200: 7cba bb3d eb53 993d 4c92 743d e5ef 09be
00000210: 06f5 de3c d7ed 153e 5ab2 8bbd 582a ba3c
00000220: 1793 83bc 8787 f7bd 212b 01bc 5e72 db3d
00000230: c6bf 6cbd d4e4 a0bd 39b6 893d f804 083e
00000240: aaa3 fb3d f763 603d 013b 353d 6c20 e2bd
00000250: a55f 493d 2dd2 04bd 76a9 85bd f6d6 043e
00000260: 37d4 9d3d 6d59 053e a28c f4bd 5d2a ea3d
00000270: d732 d13d 86e3 003e feae 0bbe ee1e 87bd
00000280: 3f7d 8a3d ce4c 323d f357 f6bd 0ea9 f23c
00000290: 224a 2e3d 2ddd 10be ec40 97bd d0ef 5abc
000002a0: 995c dcbc 07dc 883d 0ed9 e0bd e1d6 72bd
000002b0: 30a0 253e e77c 103e 4125 0f3d 1ada bebd
000002c0: 892f a73d 9b5f 153d 44bd 15bd 3b7e ef3d
000002d0: 2b42 97bd ea5a 54bd 7ede e33c f31f 0cbd
000002e0: c42b 9ebd e182 e1bd 90b7 09bd bc18 d03d
000002f0: acec ca3c f2f3 253e 19bc 9fbd d08a c43b
00000300: 1f08 dd3c 54c0 e3bd fed9 10be 7f02 3cbd
00000310: 0378 d1bd 8d33 183e b950 7abd e29a 80bd
00000320: 597c 18bd ab63 503d e950 613d ff30 12be
00000330: 8ec0 8b3c 766f b93d 5317 65bd 5e3b a0bd
00000340: c661 6f3d 8acd 7e3d fa05 823c 1eb0 54bc
00000350: 983d 94bd 2be0 d03d 0e7a 873b c525 0ebd
00000360: e64c 0ebe fece 2f3b 40dd c53d 13df b1bd
00000370: ae87 38bd fbb4 87bd 8916 583c da0b 8a3d
00000380: d7ad 8c3c 2adf 08bd c01a 9a3d 030c 95bb
00000390: a2fb 04bc 3aa6 123e ae5a b7bd 0d53 b23d
000003a0: f110 043e b5c7 99bd fef6 c8bd 3729 fb3d
000003b0: 729f e3bb 6ff7 003e d979 883d dfd9 89bd
000003c0: cea0 16be 9c10 123e f5ba adbd d929 b53d
000003d0: 71bf 603c 21d0 01be 6b0b 3e3d f4f8 12bd
000003e0: d670 35be 38ae f23c b111 2fbd 725b 3dba
000003f0: bb04 03be 62dd 613d b3fd e33d f411 c3bd
-0.1399493 0.12950085 0.06925289 0.10421764 0.002515107 -0.13262168 -9.138619e-05 -0.059262298
-0.007214671 0.05914003 -0.008200401 -0.039070416 0.07252052 0.09828575 0.106577754 -0.11255774
0.13058703 -0.058077145 0.06840826 -0.11854189 0.033579733 0.040287096 0.025584845 -0.02338393
-0.00031267386 -0.012431752 -0.0749219 0.024934791 0.09821976 -0.009401018 0.14781526 0.12763824
-0.02701929 -0.11106923 0.018412739 0.11684909 0.004555835 0.05214952 0.019276595 0.10117171
-0.08033256 -0.0021028568 0.07711983 -0.1182342 0.02165921 -0.15751836 0.0009955912 0.1022699
0.027720857 0.06463217 0.11086507 0.064260356 0.12790467 -0.08735031 -0.12743087 -0.05039904
-0.017410876 0.0555769 0.12132873 -0.12652779 -0.03726754 -0.057433166 0.017534416 0.12509473
-0.1704064 -0.050516877 0.1090187 -0.100890644 0.042340416 0.103626214 -0.09310929 0.053134903
-0.018637467 -0.07571475 0.13783501 -0.05698131 -0.022872755 0.09387501 0.051464543 0.12426249
0.09201838 -0.097124495 -0.01738699 0.029570837 0.043256238 0.0011926079 -0.12337297 0.13008146
-0.0047427653 -0.07705295 0.1490905 0.007767748 -0.17029631 -0.06966468 0.05955684 0.108375795
-0.09460962 0.1236632 -0.08641136 -0.0807142 0.0945058 0.07155494 0.12618642 0.09747589
-0.026145782 -0.027214048 0.12492935 0.11939562 -0.0769489 -0.085883856 0.1441324 0.02341093
-0.059768893 -0.1701486 0.091675155 0.09666522 0.13014442 -0.13615227 -0.10595058 -0.0039228615
-0.073944286 -0.13873553 0.05332992 0.096627876 -0.04436285 -0.079272 -0.0680136 0.015396947
0.091664284 0.07486709 0.059709832 -0.13470419 0.027216446 0.1464151 -0.06821127 0.02272527
-0.016061349 -0.12086397 -0.007883818 0.10715173 -0.057800077 -0.078561455 0.06724209 0.13283145
0.12287076 0.054782834 0.044245724 -0.1104134 0.04916348 -0.032427 -0.06526463 0.12972626
0.077064924 0.13022394 -0.11940886 0.114338614 0.10214775 0.12586793 -0.13640973 -0.06597696
0.0676217 0.043530278 -0.12028494 0.029621627 0.042551167 -0.14146872 -0.0738543 -0.01336284
-0.026899623 0.06682592 -0.109789 -0.059286956 0.16174388 0.14110146 0.034947637 -0.09318943
0.081633635 0.03646813 -0.03655745 0.116939984 -0.073856674 -0.051844515 0.027816053 -0.034210157
-0.077231914 -0.11011291 -0.033622324 0.10160968 0.024771057 0.16206339 -0.07799549 0.005997993
0.026981412 -0.11120668 -0.14145657 -0.045900818 -0.102279685 0.14863415 -0.06111214 -0.062795416
-0.037227962 0.0508763 0.055008803 -0.14276503 0.01705959 0.090544626 -0.055930447 -0.078238234
0.058442853 0.062207736 0.01587199 -0.012981443 -0.072383106 0.10199007 0.004134423 -0.03470399
-0.13896522 0.0026826258 0.09661341 -0.08685126 -0.04505127 -0.06626316 0.013188967 0.06740542
0.017172737 -0.03341595 0.075246334 -0.004548551 -0.008116635 0.14321223 -0.08952843 0.08707247
0.12897088 -0.07508794 -0.09812735 0.122637205 -0.0069464976 0.12594388 0.066638656 -0.06731009
-0.1470978 0.14264148 -0.08482925 0.088458724 0.013717518 -0.12677051 0.046397608 -0.03588195
-0.17718825 0.02962409 -0.04274148 -0.0007223404 -0.12794773 0.055142768 0.11132374 -0.09524909
