best_model.pth (torch, 270761 bytes, 18 tensors)

lstm.weight_ih_l0 f4 [192, 4]
000000 f3 f5 81 3d 57 fa 25 3e 0c d4 5f 3e 1d 84 9b 3d
       0.06345739 0.16208778 0.21858233 0.07593558
000010 4d 1f 27 bd e4 dc d8 3d a8 f1 6a 3d 54 fe ca 3d
       -0.040801335 0.105890065 0.057359368 0.099117905
000020 a1 24 63 bd ce 11 53 bd b5 29 80 3c c9 78 89 bd
       -0.055454854 -0.05153065 0.015644887 -0.06712491
000030 5b 7a be bd a4 d8 ce 3d 82 bb 5f 3d 76 34 30 bd
       -0.09300681 0.10099915 0.05462218 -0.04301878
000040 ee 84 a7 bd 5a c7 9a bc 81 f7 13 3e 79 6f 15 3e
       -0.08179651 -0.018893886 0.14449884 0.14593305
000050 7f 05 97 3c e2 db 40 bc 6c 0a 99 3d fe 79 4e bd
       0.018435238 -0.011771174 0.07472691 -0.05040931
000060 3b 70 bc bd f2 41 3b 3e be 5f c3 3d 88 5f 83 3d
       -0.09201094 0.18286875 0.09539746 0.064147055
000070 38 9c 1e 3d 2a b1 3d 3e b8 2e 0b bd 37 8c 51 bd
       0.0387232 0.18524614 -0.0339801 -0.05115911
000080 57 40 ea bd 1c 6a 0f 3e 52 c6 ac 3d a8 a0 83 bd
       -0.11438053 0.14005321 0.08436264 -0.06427127
000090 59 f9 11 bd e9 5a 77 bd f6 59 85 3d a5 bc 06 3c
       -0.035638187 -0.060389433 0.06511299 0.008223687
0000a0 dd 92 99 bd a9 7b 8f 3e 7f 55 81 3e 1c 4f 01 3e
       -0.07498715 0.28024033 0.2526054 0.12627834
0000b0 e6 db d1 bd 9d 14 92 3e 81 b8 aa 3c 2c 10 ee 3c
       -0.102470204 0.28531352 0.020839931 0.029060446
0000c0 3f e4 f5 bd 1f 41 04 3e 79 dd 16 3d fd 61 ee 3c
       -0.12006425 0.12915467 0.036832307 0.029099459
0000d0 78 ee 23 3d c2 09 60 3e d8 24 73 3d 59 58 40 3e
       0.040022343 0.21878722 0.05936131 0.18783702
0000e0 a6 19 bb 3d 8e 6d 4e 3e 68 f2 36 3e f1 94 48 3e
       0.091357514 0.2015898 0.17865908 0.19588067
0000f0 43 2f 96 3d ec e7 26 3e df db 41 3e 97 4e 04 3d
       0.07333233 0.16299409 0.1893153 0.03230151
000100 80 e3 bf bd f8 8e 06 3e fd 3d 92 bd e2 15 ca 3b
       -0.09369564 0.13140476 -0.071407296 0.0061671594
000110 1e c7 20 be 6e 84 1d 3e 9b 08 02 3e 74 8c 4e 3e
       -0.15700957 0.15382549 0.12698595 0.20170766
000120 5d ac 17 bd 41 99 57 bd 27 a6 ab bc 56 c5 ba 3d
       -0.037029613 -0.05263639 -0.020953251 0.0911967
000130 f6 56 3f bd 7d d6 60 3e 83 f1 7d 3d 8e 18 f2 bd
       -0.04671379 0.21956821 0.0619979 -0.1182109
000140 42 35 0c 3e 0c d1 ef bd 11 34 7c bd f7 16 b3 bc
       0.13692191 -0.117097944 -0.061573092 -0.021861536
000150 2a 42 d0 3b bb eb 47 bd 0f 2b 93 3d 27 b5 45 3d
       0.0063555436 -0.048808794 0.07185947 0.048268463
000160 be be d0 bc b5 b2 02 bc 2a 73 35 bc d3 a8 a7 3d
       -0.025481578 -0.007977177 -0.0110748205 0.081864975
000170 c0 1f fa bd 4a ae d8 3d 2c cb a9 3d 9e 49 36 3d
       -0.12213087 0.10580118 0.08290705 0.0445038
000180 73 6a 0f be 3c 2a 68 3e 45 69 06 3e f7 a3 99 bd
       -0.14005451 0.22672361 0.13126095 -0.07501977
000190 66 92 4b bd b0 d8 97 3d 22 50 bc 3d bc 37 04 be
       -0.049700163 0.07414377 0.091949716 -0.12911886
0001a0 e5 92 b3 3d b6 fb 80 3d 00 b1 a8 3c 7f 67 05 3d
       0.08768252 0.0629801 0.020592213 0.032569405
0001b0 82 aa ba 3d c9 d1 87 bd 51 3d 0d 3e a9 ef 52 3c
       0.09114553 -0.0663181 0.13792922 0.012874522
0001c0 ca a9 c8 bd 63 cf b8 bd 8e 7b ac 3d 96 87 c6 3d
       -0.0979801 -0.09023931 0.08422004 0.0969383
0001d0 fc 9c 1f be 66 c5 54 bd 2c 8e cd bd 0e fc 37 3b
       -0.15587229 -0.051946066 -0.10036883 0.002807382
0001e0 df 0a 34 3d 9b 67 c6 3b e3 e2 78 bd f3 83 95 3d
       0.04395568 0.006054831 -0.06076325 0.07300558
0001f0 8b ee fb bd 4b 35 5d 3e 61 9a 49 3d e2 37 a1 bd
       -0.12301358 0.21602361 0.049219493 -0.07871987
000200 da 88 b3 bd 7b 94 34 3e 60 12 31 3e 6c 09 07 3e
       -0.08766337 0.17634766 0.17292166 0.13187188
000210 6f 72 2f bd 72 8f 99 3e f9 a3 8f 3e 61 06 5a 3e
       -0.04283374 0.29992253 0.2805479 0.21291496
000220 fe 3c 7d bd b8 21 2f 3e a4 83 3b 3e bb 42 85 3c
       -0.061825745 0.17102706 0.18311936 0.016267171
000230 b9 53 79 bd 85 e8 d9 3d 70 98 9d 3d f7 2e 0e 3e
       -0.06087086 0.10640053 0.07695091 0.13885103
000240 96 9a 5a 3d b4 19 45 3d 7b 3a a8 bd a6 3b a5 3d
       0.05337008 0.048120216 -0.08214279 0.08068018
000250 2e 56 47 3d 99 d8 8a 3e ad df 86 3d 39 87 d0 3a
       0.04866617 0.27118376 0.065856315 0.001590944
000260 36 8e 3c bd 46 45 bd 3c 72 e1 63 3d 09 f9 a2 3d
       -0.04603406 0.023104321 0.055634923 0.07957656
000270 32 68 8e bd f9 1e a2 3d b8 97 43 3e 7d bc c1 bc
       -0.069534674 0.07916064 0.19100845 -0.023649449
000280 25 61 2f 3d 02 ae 34 3e 66 56 ad 3d b5 98 0a 3d
       0.042817254 0.17644504 0.08463745 0.03383704
000290 84 30 b7 bd 2a 29 16 3e 54 2e 72 bb 65 63 81 bc
       -0.089448005 0.1466414 -0.0036953883 -0.015794465
0002a0 6f da ab 3b ed 90 1a 3d 92 34 d5 ba da e0 e8 bd
       0.005244545 0.03773587 -0.0016266278 -0.11371012
0002b0 fc 8f 5b 3c 81 b6 3c 3d c8 ea 26 be 9c c6 45 bd
       0.013401028 0.046072487 -0.163005 -0.04828511
0002c0 c4 e8 f9 3c 00 36 d4 bc 28 9b 8e bd f7 ac b2 bd
       0.0305065 -0.025904655 -0.069631875 -0.08724397
0002d0 5f 9a c4 bd a8 96 1e 3e c1 1f 3b 3e 1a 80 43 3e
       -0.095997564 0.15487158 0.18273832 0.19091836
0002e0 ee 1a ba 3d 5e 49 07 3e 78 86 86 bd ad 30 e0 bd
       0.09087168 0.13211581 -0.06568617 -0.10946784
0002f0 09 a5 e2 bd 2a bd 27 bd 3e 0f 9c 3d 8a 99 40 3d
       -0.11066634 -0.040951885 0.07620095 0.047021426
000300 25 e3 a4 bd df 9a 29 3d 7e 17 08 3e 60 06 9d bd
       -0.08051137 0.041407462 0.13290212 -0.076672316
000310 71 33 36 bd 14 d3 e2 bd f4 b5 36 3b 69 f2 f6 3d
       -0.044482652 -0.11075416 0.0027879449 0.12057955
000320 8c 6e a2 3d f8 f9 d6 bd 60 9e d8 3d d9 99 ac bc
       0.079312414 -0.104968965 0.10577083 -0.021069454
000330 d1 7c cb 3d 24 d8 65 bd a6 f5 2d 3e fc a7 ef 3c
       0.09935916 -0.05611433 0.16988239 0.029254906
000340 bd c8 23 3d 0a 74 33 3e f3 aa 00 3d 9b 91 fb 3d
       0.03998636 0.17524734 0.03141303 0.122836314
000350 91 12 87 bc df 63 d9 3d 05 62 81 bd 0b cf a6 bc
       -0.016488345 0.10614752 -0.06317524 -0.020362398
000360 75 ad ee bd 0c 2b 77 3d a1 06 ec 3d a3 fe b6 bd
       -0.11654178 0.060343787 0.11524702 -0.08935287
000370 fc 74 fc bc d2 60 f5 3d b1 8d 81 3d fe 50 83 3c
       -0.030817501 0.11981358 0.063258536 0.016029831
000380 35 b8 b2 3d d5 06 10 3e 9a cb 6b 3d 1d 91 4b bd
       0.08726541 0.14065106 0.057567216 -0.049698938
000390 1b 90 a4 bd 82 a4 b3 3d 2b 34 17 be e7 6d 99 bd
       -0.080352984 0.08771612 -0.14765994 -0.07491665
0003a0 e9 fa 27 be c5 17 f7 3d be df 97 bd f1 37 24 bd
       -0.16404308 0.120650806 -0.07415722 -0.040092412
0003b0 75 73 af bd b4 f5 38 3d 83 cd 31 3e 3e 6b ff bc
       -0.085669436 0.045156196 0.17363553 -0.031179067
0003c0 bd 02 a3 3d 17 b3 ce bc 81 38 50 bd f0 4a d2 3d
       0.07959507 -0.025231881 -0.050835136 0.102681994
0003d0 45 70 e8 bd 83 a3 31 3e 84 03 f7 3c 69 4e 7b 3d
       -0.11349539 0.17347531 0.030153044 0.061354075
0003e0 8d 76 36 3b d2 dd 3a 3e b3 23 96 bd d0 d5 2e bc
       0.0027841658 0.1824868 -0.07331028 -0.010671094
0003f0 5f 2d 49 be 9a 39 9b bd b5 ca c2 3d 7f e3 95 bd
       -0.19646214 -0.07579346 0.095113195 -0.07318782

lstm.weight_hh_l0 f4 [192, 48]
000000 36 1f 21 3e 4a 1e 33 be c8 1b 89 3c 83 e2 b8 3d
       0.15734562 -0.17492023 0.01673688 0.09027579
000010 c3 40 d3 bc 6d 3b 34 bd 09 9d f7 bd 84 fd d5 bd
       -0.025787717 -0.044001985 -0.12090499 -0.10448745
000020 61 ea f1 3c 63 cb 6c bd e4 4f 2a 3c 4b c0 55 bd
       0.029530706 -0.057811152 0.010395024 -0.052185338
000030 9e dd f7 bd 78 47 9c 3c bd 51 85 bd 80 2e c0 3d
       -0.12102817 0.019077048 -0.06509731 0.09383869
000040 de 33 0a 3e eb 01 20 bb 34 c8 02 bd f4 cb 8a bd
       0.13496348 -0.0024415206 -0.03192921 -0.06777182
000050 9d 02 91 bd 65 f6 c5 bc 68 9e e9 bd 29 28 26 3e
       -0.070805766 -0.024165342 -0.11407167 0.16226257
000060 fc 69 47 3d 7c aa 28 3d e2 18 07 bc 2a af 1c bc
       0.04868506 0.04117821 -0.008245679 -0.009563247
000070 61 07 06 3d 38 95 73 3d 50 06 5c bd b9 f9 15 3e
       0.03272188 0.059468478 -0.053716958 0.14646043
000080 59 b6 bc bd 4b 1e 3b bb 72 72 cd bc 9d 78 cf 3d
       -0.092144676 -0.0028551992 -0.025078986 0.10130427
000090 01 12 a8 3d 6d 13 40 bd 7b 48 a2 b7 f9 f5 d5 3d
       0.08206559 -0.046893526 -1.9345656e-05 0.10447306
0000a0 50 37 d5 3d 65 57 46 bd ef 25 51 bd e1 02 c1 bd
       0.10410941 -0.04842319 -0.051061567 -0.09424377
0000b0 cb a1 b3 3d ff 00 e0 3d ad 1f cf bd 9f 2a ba bd
       0.08771094 0.1093769 -0.101134636 -0.090901606
0000c0 78 e5 b0 bd 76 42 95 bd b7 fa 1c 3e 08 e4 18 3e
       -0.08637518 -0.07288067 0.15330015 0.14930737
0000d0 2f 48 07 3e 96 cc 60 bc 77 5e cc 3c 9f b4 0d 3b
       0.1321113 -0.013720652 0.024947388 0.002162255
0000e0 f1 f5 a8 bd ac c6 9a bc df a0 15 3d ac 37 56 bd
       -0.082500346 -0.018893562 0.03653037 -0.052299187
0000f0 d8 0d 00 be 50 85 0c 3e 7c 1f ae 3d 5e e7 8b bc
       -0.12505281 0.1372273 0.08502099 -0.017078098
000100 f0 c7 dc bd 4a 18 ba 3d e7 48 e5 bd 7d 45 54 3d
       -0.107803226 0.09086664 -0.11195546 0.05182408
000110 39 ab c6 3d 58 31 ef bd 61 4b 83 bd 47 cb 8f bd
       0.09700627 -0.116793334 -0.06410862 -0.07021194
000120 51 fe c5 bd 7f c5 36 be 23 56 dc 3d aa a1 48 bd
       -0.09667648 -0.17848776 0.10758617 -0.0489823
000130 fc 9e 12 3d d5 24 62 3c c2 bb f9 bd fd 9a 30 3b
       0.03579615 0.013802727 -0.12194015 0.002694785
000140 23 04 0e 3e 48 e8 41 3e 93 de 24 3e 90 8b c1 3d
       0.13868766 0.18936265 0.1610053 0.094504476
000150 23 bc ce 3d 7e 8c 2d 3e 24 64 ac bd 38 af b2 bd
       0.10094478 0.16948125 -0.08417538 -0.087248266
000160 2c dc c8 bc 92 46 96 bd f2 ec ab 3c 3d 81 79 bc
       -0.024519049 -0.07337679 0.020987008 -0.015228567
000170 c5 3f 2e bd 5a 70 d5 bd 7b 48 d3 3d 9e 2a 0b bd
       -0.042541284 -0.1042182 0.10316559 -0.03397619
000180 5e 26 95 bc dd ab c1 bd e4 48 a0 ba bb c6 92 3d
       -0.018206771 -0.094566084 -0.0012228754 0.07166811
000190 22 79 3d bd 7f ea 77 3d c2 bf 01 3e d3 df ca bd
       -0.0462581 0.060526367 0.12670806 -0.09905972
0001a0 f1 1e d7 3d 5d 77 0d 3b 70 06 ca 3d 3e 4a de bd
       0.105039485 0.0021586039 0.09864509 -0.10854004
0001b0 30 cb 7d 3d 81 27 06 3e 38 b0 15 3e 40 51 8b bd
       0.061961353 0.13101007 0.14618003 -0.068026066
0001c0 20 d1 30 3d 0c 53 07 bd 44 21 4f bc c4 f4 d9 bd
       0.043168187 -0.033038184 -0.0126422085 -0.106423885
0001d0 8e 56 62 bd c7 fa 42 bd d6 5d 96 bd 22 18 8a bd
       -0.055258326 -0.04760244 -0.073421165 -0.06742884
0001e0 2b fd 0a be 43 58 19 3d ad c2 19 3e 5f 77 c1 bd
       -0.13573138 0.03743769 0.15015669 -0.09446596
0001f0 9c 47 bd bd d5 94 ee 3d 7c cf 43 3c f3 54 21 be
       -0.09242174 0.11649481 0.011951324 -0.15755062
000200 d9 5c 4f bd e0 81 0c bd 9f dc 8c bd c9 ed 81 bd
       -0.050625656 -0.034303546 -0.06878018 -0.06344182
000210 60 7f 0a be d5 72 1b be 9d ec 3d 3d e0 d4 a5 3d
       -0.13525152 -0.15180524 0.04636823 0.08097243
000220 11 bf 4c bd 0d 2e 7b 3c c2 79 08 3e e1 b6 19 3d
       -0.049986903 0.015330804 0.13327697 0.037527923
000230 64 09 5c bd a5 ad ae bd c7 ab 36 3c 04 05 13 be
       -0.053719893 -0.08529214 0.011149353 -0.14357382
000240 9d c6 33 be 47 3c 4b bd fb ca 0b 3e 45 66 e8 bd
       -0.17556234 -0.04961803 0.1365165 -0.11347631
000250 b2 78 23 bc f6 be fe bd db 19 21 3e a5 e1 af 3d
       -0.0099775065 -0.12438767 0.1573252 0.0858796
000260 4c 28 08 bd 22 12 e9 3c ea 4f e9 3d 99 fa 15 be
       -0.033241555 0.02845103 0.113921955 -0.14646377
000270 f2 4f c9 bd 4c db 29 bc 84 44 9e 3c f5 7f 09 be
       -0.098297015 -0.010367226 0.01931978 -0.13427718
000280 58 b5 d0 bc e9 74 d2 3c ce 18 89 3d 52 b7 aa bd
       -0.025477096 0.025690513 0.06694184 -0.08335747
000290 e9 4a ba bc 6b ab ca bc 51 f2 0f 3e 1b 78 2a 3d
       -0.022740798 -0.024739942 0.1405728 0.041618448
0002a0 6f 19 13 3d 03 09 87 3d 42 72 52 3d 08 20 b8 bd
       0.035912927 0.06593516 0.051378496 -0.089904845
0002b0 b6 08 3c 3d 8a 54 27 be a0 c4 f8 3c 25 4a 3e 3c
       0.045906745 -0.16340843 0.030367196 0.011614357
0002c0 45 03 5b 3d e2 6c 01 3d d6 1e c6 bc 87 6c 37 3c
       0.053469915 0.03159798 -0.024184626 0.0111953085
0002d0 a1 f7 85 bd d1 4c 57 bc 6c 24 72 3d ae de ec 3d
       -0.06541372 -0.013140873 0.059116766 0.1156591
0002e0 56 33 13 be e8 03 c2 bd 8f cc 07 bd 6f ec a3 3d
       -0.14375052 -0.09473401 -0.033154067 0.080040805
0002f0 e4 5a 38 3c 4f af 09 3e 33 68 13 3c e7 48 09 3e
       0.011252139 0.13445781 0.008997011 0.13406716
000300 23 f2 9b bd 6a 93 32 be dd e6 9e 3d 00 9f ed bd
       -0.07614543 -0.17439047 0.077588774 -0.116025925
000310 f6 52 c9 3d 8b ad a6 bc 32 2d 51 3c 02 d8 96 3d
       0.09830277 -0.020346424 0.012767123 0.07365419
000320 43 57 83 bc d2 88 b6 bb c2 f3 c3 bd 05 f5 81 bd
       -0.01603282 -0.0055705095 -0.095679775 -0.06345562
000330 18 d2 67 3c da 31 b4 bd 2b b0 74 3d 39 7c 51 bc
       0.014149211 -0.08798571 0.05973832 -0.012785965
000340 d1 15 df 3d f4 d5 f4 bc ce 1d fb 3d bb 5f 0a 3e
       0.10892833 -0.029887177 0.12261544 0.13513081
000350 de ae 90 bd e4 93 68 bd 0a 4c 0b 3e 9e c5 9d bb
       -0.07064603 -0.056781664 0.13603225 -0.0048148176
000360 f4 05 be bd 32 eb ca bd ed ff 97 bd bb 44 0a be
       -0.09278479 -0.09908141 -0.07421861 -0.13502781
000370 3d 2f f9 bd ac a0 b1 bd 7d 43 23 3e 95 60 9f bd
       -0.12167213 -0.08673224 0.15943713 -0.077820934
000380 55 b6 cd 3d cc a8 d7 bc 56 91 ba 3d 5b 97 ca 3d
       0.10044543 -0.026325606 0.09109752 0.0989215
000390 9b 39 00 bc d5 28 47 3d e3 75 31 3c bf 02 79 3d
       -0.007826234 0.048622925 0.010831329 0.060793635
0003a0 68 65 f3 bd 14 39 61 3d cf 99 44 bb 76 82 1e be
       -0.11884576 0.054986075 -0.0029998904 -0.15479454
0003b0 34 61 00 3e 5c 63 22 3e 90 21 03 3e 5f fa 02 3e
       0.1253708 0.15858215 0.12805772 0.12790821
0003c0 a0 e7 04 3e 41 ce 56 3c e4 c4 70 bd 15 bf c9 bd
       0.12978983 0.013110698 -0.05878152 -0.09850899
0003d0 c0 34 9b bc a7 05 45 bc 1e 7e 71 bd c0 98 93 3d
       -0.018946052 -0.012025273 -0.058958165 0.07206869
0003e0 32 19 91 3d 9d 78 0e be 49 82 de 3d e2 46 08 3e
       0.07084884 -0.13913198 0.10864694 0.1330829
0003f0 d7 91 01 3e f3 25 d2 bd 04 ff 1c be 75 fb a0 bd
       0.1265329 -0.102611445 -0.15331656 -0.078604616

lstm.bias_ih_l0 f4 [192]
000000 48 1f 71 3e 15 d3 42 3e 11 26 98 3d 1e ce 03 3d
       0.23547089 0.19025834 0.074291356 0.03217899
000010 89 7b 00 3e 35 40 24 3c 15 ec d9 3d c0 d8 77 3d
       0.12547125 0.010025074 0.10640732 0.060509443
000020 0d 7c b5 bd 71 9a e5 bd 14 b9 22 3e 9a ab 61 3d
       -0.088615514 -0.11211098 0.15890914 0.055095293
000030 59 07 aa 3d 4d ae fa 3d 35 55 7c bd 4d 3e 64 3d
       0.08302183 0.122402765 -0.061604697 0.055723477
000040 c4 13 01 3d 79 c2 1c 3e c7 61 6a bc f1 47 d4 bd
       0.03151299 0.1530856 -0.0143055385 -0.10365284
000050 f7 74 00 3e 30 26 a5 3d e1 9d bc 3d 31 fb ce 3d
       0.12544619 0.08063924 0.092098005 0.10106505
000060 c6 49 18 3e 6e c0 1a 3e 18 85 2d bc 56 ad ae bd
       0.14871892 0.15112469 -0.010590814 -0.08529155
000070 da 10 64 bc 8c 04 b2 bc 2d 63 15 be f3 6d ce bd
       -0.013920033 -0.021730684 -0.14588614 -0.10079565
000080 db 35 3f bc ea 66 87 bb d6 51 88 3d 43 26 29 bd
       -0.011670555 -0.0041321414 0.06656234 -0.041296255
000090 7b 7b 14 3e dd cc 52 3d 9a 7a 20 3e 94 d5 be bd
       0.14500229 0.051464904 0.15671769 -0.093180805
0000a0 c6 cb 95 3c 7b 0c 2d 3e aa 37 cc bd f8 ed fa 3d
       0.018285643 0.16899292 -0.099715546 0.1225242
0000b0 95 cb b0 3c ec 04 22 3e 3f 27 b5 3d 63 ee 56 bd
       0.02158145 0.1582219 0.08845376 -0.052473437
0000c0 2f f3 19 3c f7 d3 bc bd ca e3 54 bc 85 f3 07 3e
       0.009396358 -0.092201166 -0.012993762 0.13276489
0000d0 87 27 dd 3d 7d 7d 8c bd 21 41 a3 bd e7 7c a9 3b
       0.10798555 -0.068598725 -0.07971407 0.00517236
0000e0 22 d5 52 bd c8 dc 6f bd 8c 36 58 3c f0 f1 a1 3d
       -0.05147279 -0.058560163 0.013196599 0.07907474
0000f0 26 07 12 3e 91 3a 24 3e 19 d3 8b 3d 7d 70 eb bc
       0.1426054 0.16037966 0.06827373 -0.028740162
000100 51 5e 63 ba e5 eb 2b bd 68 11 b4 bd 99 7f c3 bb
       -0.0008673417 -0.041973013 -0.087923825 -0.0059661386
000110 aa ae 13 bd 5e 5d 72 3c 49 e6 ed bb aa 79 89 3d
       -0.036055245 0.014792768 -0.007260118 0.06712659
000120 8d 5c ad bc 62 12 02 3c c7 bc f8 bd ab ab af 3d
       -0.021162296 0.007938953 -0.121453814 0.08577665
000130 7a 91 ca 3d 37 6d 0c be e2 9c 16 be 64 07 b5 3d
       0.09891029 -0.13713537 -0.14708284 0.088393
000140 4e 03 99 3a 04 75 d1 bd 53 3b 13 bd f7 dc 1c 3d
       0.0011673959 -0.10227397 -0.035945248 0.038296666
000150 ca 45 d6 bd 9b 62 cf bd 99 a3 10 bd fc 79 de 3d
       -0.1046253 -0.101262294 -0.03531227 0.108631104
000160 5c bb 82 bd 92 66 6f bd 1a 9b 8f 39 89 8c 52 bd
       -0.06383392 -0.058447428 0.00027390645 -0.051403556
000170 f8 53 92 bd 4b 72 b1 bd 54 b5 aa bd e0 8a ee bc
       -0.07144922 -0.08664378 -0.08335367 -0.029118955
000180 2a b7 92 3c 5d 0b 0d 3e 8e f3 8d bb f7 e0 ad bd
       0.017909605 0.13773866 -0.0043320125 -0.08490174
000190 0d 35 ac 3d e9 d6 9a ba 40 02 7b 3d d1 12 e0 3d
       0.08408556 -0.0011813316 0.061281443 0.10941089
0001a0 fa ff cb bd 28 61 95 3b 5b cf c0 3c 1a 93 ce bd
       -0.09960933 0.004558701 0.023536375 -0.10086651
0001b0 84 61 11 be c7 92 0a be 07 70 91 bd c5 77 87 bd
       -0.14197356 -0.13532554 -0.07101446 -0.06614641
0001c0 a5 dd d3 3d 7e 04 ce bc c4 ec ab 3d 90 c4 c5 bd
       0.1034501 -0.025148626 0.08394769 -0.09656632
0001d0 61 b9 9a bd 1a 49 51 bd b1 9c e6 3d 78 b5 e7 3d
       -0.075548895 -0.051095106 0.11260355 0.11313909
0001e0 8e 4c ce bd c5 7d f1 3d c6 0e 92 3d dd 26 51 3d
       -0.100731954 0.11791567 0.07131724 0.051062454
0001f0 a2 34 41 bd 02 40 91 bd b9 e5 e8 bd 49 82 c4 3d
       -0.047169335 -0.07092287 -0.11371941 0.095951624
000200 b8 9b fd 3d b4 63 6d 3d fe de b0 3d 64 7b 9b bd
       0.123832166 0.057956412 0.086362824 -0.07591894
000210 e4 e7 fc bd 2d 1b 92 3d e4 3d 6b bd 7c 18 8b 3d
       -0.12348917 0.071340896 -0.05743207 0.067917794
000220 10 aa 58 bd 6c 7e f9 bd 15 a2 38 3b 04 45 68 3d
       -0.05289656 -0.12182316 0.002817278 0.056706443
000230 47 09 bd 3c 64 45 5b bb 0e 3e 94 bd 57 e5 12 be
       0.023075713 -0.0033458108 -0.072383985 -0.14345299
000240 57 b3 0e 3e 5a 8d a7 3c a1 7f 08 3e c5 30 34 3d
       0.139356 0.020453144 0.13329937 0.043991823
000250 50 37 06 3e ba 44 29 3b 4d a9 0f 3e 81 17 34 bc
       0.13107038 0.0025828318 0.14029427 -0.010991932
000260 64 5e 95 bd c8 ea 85 3d a4 c1 ac bc 42 b7 2f bc
       -0.07293394 0.065389216 -0.021088429 -0.010724844
000270 24 7c 77 bd 26 d5 aa bd e0 b1 5e 3d cd 45 96 3e
       -0.060421124 -0.08341436 0.054368854 0.2935013
000280 8f 31 2d 3d 65 74 fb 3d b3 18 79 bd 01 7f f1 3d
       0.04228359 0.1227806 -0.06081457 0.11791802
000290 23 ca 79 bd 70 f2 05 3e 9d cd ce 3d 26 e3 a9 3d
       -0.06098379 0.13080764 0.10097811 0.08295278
0002a0 64 88 bb 3c 57 06 63 3e 34 27 6c bd 3c 53 80 3d
       0.022892185 0.22170387 -0.057654575 0.06265876
0002b0 05 55 34 3d 0d c3 f5 bc a5 02 23 3d 31 b7 c8 3d
       0.044026393 -0.030000234 0.039797444 0.09800566
0002c0 6b 0c 07 3e 13 d4 76 bd 3d 8b 08 3e df 13 82 bd
       0.13188331 -0.060260843 0.13334365 -0.06351446
0002d0 a6 9b bb bc 55 fb eb 3d 08 c3 83 3d 4b d0 85 3d
       -0.022901367 0.11522547 0.06433684 0.06533869
0002e0 ef 2a 10 3e fb 6a 76 bd 5d 88 ad 3d ee 94 0d bd
       0.14078878 -0.06016062 0.08473275 -0.03456586
0002f0 25 c9 63 bd 36 34 15 3e df 20 51 bd d2 43 cd bd
       -0.05561175 0.14570698 -0.05105674 -0.10022701

lstm.bias_hh_l0 f4 [192]
000000 3a 98 28 3e 0f 90 03 3e 5e bc ea 3d b4 eb 43 3e
       0.1646432 0.12847923 0.114617094 0.19132882
000010 32 ff ca bd d7 2c 89 3d 57 aa e2 bd 9d cc df 3c
       -0.09911956 0.06698006 -0.11067646 0.027319247
000020 2a 13 9e 3d b9 a0 f3 3d 5a 5c 69 bd 09 56 3e 3e
       0.07718499 0.1189589 -0.05697284 0.18587507
000030 e3 7f c3 bd 6c 6d 49 3b 85 72 80 bc 1d ab 74 3e
       -0.09545877 0.0030735387 -0.015679607 0.238934
000040 8b 51 d5 bd b9 83 c9 3d 6b f8 e5 bc af 61 9d 3d
       -0.10415944 0.09839577 -0.028072556 0.07684647
000050 54 e9 02 3d d3 54 41 3b 43 e7 21 3e 35 d9 f2 3d
       0.0319608 0.0029500022 0.15810876 0.11857835
000060 17 18 04 3c 6b fe 4c 3e 96 3b b9 3d 0e b8 08 3d
       0.008062384 0.20018928 0.09044568 0.033378653
000070 16 64 24 be 7b f4 96 3d 52 24 8b 3b 54 67 4f 3d
       -0.16053805 0.0737085 0.004246273 0.05063565
000080 8a 3e 03 3e 05 88 0a 3e c2 6e dc bc 90 fb c1 3d
       0.12816826 0.1352845 -0.026908282 0.0947181
000090 b0 9e 87 3d a4 bd 8b bc 09 38 24 3e d4 da 71 3c
       0.06622064 -0.017058201 0.16037 0.014761645
0000a0 5d 57 0a bd 3a d6 aa 3d 1c 05 3b bd a6 35 b7 bc
       -0.033774722 0.08341642 -0.04565917 -0.022364449
0000b0 cd cb cb 3c e0 8f 40 3c 44 7e 08 3e b7 30 f4 3d
       0.024877453 0.0117530525 0.13329417 0.11923354
0000c0 c7 52 55 bd c7 90 fb 3d c1 7d b0 3d 9c f2 d7 3d
       -0.052080896 0.122834735 0.08617736 0.10544321
0000d0 eb 2a d3 bd b8 09 1f be 7b 1c 96 3d f7 c4 5b bd
       -0.1031092 -0.15531051 0.07329651 -0.053654637
0000e0 3d 11 03 3e 19 86 83 3b 1f 37 f1 bd a6 cb 8d 3c
       0.12799545 0.0040137884 -0.11778092 0.017309021
0000f0 87 c9 84 bd f3 c9 e7 bd 8f b9 aa 3a bc 7c 98 3c
       -0.06483751 -0.11317816 0.0013025271 0.018614165
000100 47 3c 0c 3e 5d 41 35 bd 70 09 69 3d 4f ab a1 3d
       0.13694869 -0.04425179 0.056893766 0.07894003
000110 75 da 6a 3d ca e3 08 be 62 c2 2f bd 7e e5 16 3d
       0.057337243 -0.13368145 -0.042909987 0.036839955
000120 97 dd 19 3d bb 9c b4 3d 55 fb f3 3d 1c 9f c8 bd
       0.03756484 0.088189565 0.11913172 -0.09795973
000130 4a 36 8a 3d 01 eb ae 3d 53 60 ea bd ff 81 28 3d
       0.06748636 0.08540917 -0.11444154 0.0411396
000140 d6 d8 e8 bc 2c 13 16 be 3d a2 70 bc a6 63 09 bb
       -0.028423708 -0.14655751 -0.014687118 -0.0020963936
000150 fc 48 c5 3d 23 7b 36 3c 69 c7 bc 3d c9 08 75 bd
       0.09633061 0.0111377565 0.09217722 -0.05982283
000160 45 fb fc bd 02 1d 0f 3e 2c 02 cb 3d dd 7b 15 3d
       -0.12352613 0.1397591 0.099125236 0.03649508
000170 28 cd ae 3d 9d 2f 48 bd 09 da ce 3d cd df b1 3d
       0.08535224 -0.048873533 0.10100181 0.08685265
000180 45 c8 65 3d 0b 5f 59 bd 4a a3 ba 3d d3 06 a9 3b
       0.056099195 -0.053069156 0.09113176 0.005158284
000190 0b 97 d4 bd 98 89 a0 3d 05 6c 99 3d 04 ba 88 bd
       -0.10380372 0.07838744 0.07491306 -0.06676105
0001a0 f3 8a a1 3d 84 d0 1c 3e 95 33 ff 3d a0 04 17 bd
       0.078878306 0.15313917 0.1246101 -0.036869645
0001b0 42 d8 aa 3d 42 7a f3 3d 59 fe 0f 3e 69 aa 62 bd
       0.08342029 0.11888553 0.1406187 -0.055338297
0001c0 63 f0 dd bd ed 99 1f bc ca 47 0b be d6 c0 03 be
       -0.10836866 -0.009741289 -0.13601604 -0.1286653
0001d0 aa a5 18 be d8 5a 2e b8 d8 3f 0a 3e f7 ed cf bd
       -0.14906946 -4.1569438e-05 0.13500917 -0.1015281
0001e0 e2 ce d2 3d aa bb e7 bc e6 05 07 3c 57 30 a4 3c
       0.10293366 -0.028287727 0.008241152 0.020042581
0001f0 13 1d ae 3d 3e 8b e5 bc 83 48 4b 3d 4f 52 c4 3c
       0.08501639 -0.028020497 0.0496297 0.023965029
000200 3e 6b 5a bd d1 27 b4 3c 8a fd c5 3d fd 49 fa bb
       -0.05332493 0.021991642 0.09667499 -0.0076382146
000210 55 c9 13 bd 1c 00 f0 bb dd af 9e 3c 12 d7 7b bc
       -0.036080677 -0.007324232 0.019370968 -0.015371101
000220 01 a3 ca bd 97 de 0c 3e 64 d3 eb bc c0 78 f4 bc
       -0.09894372 0.13756786 -0.028787322 -0.029842734
000230 a7 88 ba bc 8c 87 d5 3b ff a7 9f b9 91 73 1c 3d
       -0.022770239 0.0065164026 -0.0003045201 0.03819615
000240 df 50 32 3e fc 8d 0d 3e d5 b0 68 bd 7f f2 bf bc
       0.17413662 0.13823694 -0.056809265 -0.02343106
000250 11 b3 64 bb 2e 55 72 3d 0a de b0 3d 65 bd 18 3e
       -0.003489677 0.059163265 0.086361006 0.14915998
000260 04 89 8a 3d 73 85 8e 3c 06 6d d7 3d 4b ae 2b 3c
       0.06764415 0.017397618 0.105188414 0.010478566
000270 33 1e 37 bb 03 f5 c2 3c d4 00 68 bd d4 9d 80 3e
       -0.0027941584 0.023798471 -0.056641415 0.25120413
000280 4d 72 bd 3c 66 c7 00 3e 69 9e 1d 3d 6e 3f 92 bd
       0.023125792 0.12576064 0.03848115 -0.071410045
000290 5d 03 25 bd 2f 42 91 bd 45 70 b7 bd 24 65 72 bd
       -0.04028641 -0.07092702 -0.089569606 -0.059178486
0002a0 e8 dc 20 3e 37 cd eb 3d b1 2f 0e bc 40 40 27 bd
       0.15709269 0.11513751 -0.008678363 -0.040832758
0002b0 b6 f0 c8 bb f1 25 11 be da d5 57 bb 2f 11 a7 3d
       -0.0061322106 -0.1417463 -0.0032933862 0.081575744
0002c0 28 f2 bd 3d b6 9a 1c 3d d0 0f 90 bc 90 d3 01 be
       0.09274703 0.03823348 -0.017585665 -0.12678361
0002d0 69 cd 0e 3e 4e c7 2a 3d a1 6f 8b bd 9c 86 cb 3d
       0.13945545 0.041693978 -0.06808401 0.09937784
0002e0 9b 4f 1d bc f6 fd dd 3c 53 81 20 bd f2 b5 d6 bd
       -0.009601499 0.027098637 -0.039185833 -0.10483922
0002f0 3c 35 e8 3c 21 20 41 bb 4d 2e 73 bc 0f db 2f 3d
       0.028345697 -0.0029468613 -0.014842582 0.04293352

lstm.weight_ih_l1 f4 [192, 48]
000000 d6 4d c8 3d 3b c3 e9 bd 33 2b 95 3c a1 1a a0 3d
       0.09780471 -0.114141904 0.018209076 0.07817579
000010 38 77 0a 3e e9 7d fc 3d 38 63 49 bd 2d b3 55 bd
       0.13522041 0.12328703 -0.049166888 -0.05217283
000020 5f 51 20 3e d2 ea 48 3d c6 05 c5 3d 4b 9a 24 be
       0.1565604 0.049052067 0.09620242 -0.16074483
000030 28 ca 0e 3d 62 43 1b 3e ce 95 0c be de 20 ae 3b
       0.03486076 0.15162423 -0.13729021 0.0053139767
000040 99 f8 e2 3d 5a 20 d3 3d 16 85 94 bd 1e 5e d8 3d
       0.110825725 0.10308905 -0.07251947 0.105648264
000050 ef 80 45 3b 94 d2 6d bc dd 75 d2 3d fa 45 ef 3d
       0.0030136665 -0.014515538 0.10276387 0.11683269
000060 8b f5 ee 3d ee cd 38 3e ad 45 2c bb 78 fe 98 bb
       0.11667927 0.18047306 -0.0026286647 -0.004669007
000070 93 e2 57 bd 94 b7 02 3e ce 49 92 bd d7 02 2e 3d
       -0.052706312 0.12765342 -0.071429834 0.042483177
000080 e1 2d 1c be 01 99 20 bd 19 22 2b 3e e4 7e de bd
       -0.15251876 -0.039208416 0.16712226 -0.10864046
000090 42 23 b4 3c 29 dc 26 3e a5 67 fd 3d ad 0e e0 bc
       0.021989468 0.16294922 0.12373284 -0.027350748
0000a0 86 5d 31 be 90 c5 61 bc 23 2a cf 3d 33 4e 18 3e
       -0.17320833 -0.013780013 0.10115459 0.1487358
0000b0 8a fb 7b 3d dd 1f 65 bd d9 cd 27 bd 75 c7 cb 3c
       0.061519183 -0.05593859 -0.040967796 0.024875382
0000c0 28 6d 94 ba f3 3d 83 3e f7 5f 50 3f 86 b4 16 3d
       -0.0011324035 0.256332 0.8139643 0.036793254
0000d0 19 78 20 3e 9a 73 80 3e ce c9 ef 3c 9d 13 39 3d
       0.15670814 0.25088197 0.029271033 0.04518472
0000e0 58 81 69 bc 59 87 d7 3e 7d 4c 87 3e 26 68 71 be
       -0.014252029 0.4209545 0.26425543 -0.23574886
0000f0 16 9f 15 be a2 77 6a bd d4 7d 17 ba 28 26 53 be
       -0.14611468 -0.057242997 -0.0005778943 -0.20620024
000100 22 49 93 3c 17 6d 62 3e 9e 1f e0 bd db c3 ad be
       0.017979208 0.22111927 -0.109435305 -0.33938488
000110 24 98 80 be 17 d3 c4 bd 4f 47 5c 3e c2 23 90 3c
       -0.25116074 -0.09610575 0.21511577 0.017595176
000120 9b 59 81 bc b6 57 b9 3e 2d 8d 8f 3e 94 35 82 3e
       -0.015789798 0.3619973 0.28037396 0.25431502
000130 1e 60 9b 3e 66 df fa be 0e c3 57 be 02 25 b4 3e
       0.3034677 -0.48998564 -0.21070501 0.35184485
000140 b2 22 8c 3d 41 98 a8 3f 4c b4 2f 3f ae 4e 3e be
       0.06842555 1.3171464 0.68634486 -0.18584701
000150 83 7d 8f be 6e c6 e1 3d 43 e3 c1 bd ed 1c 8b 3c
       -0.28025445 0.110241756 -0.09467175 0.016981566
000160 5f ab ba be 19 29 84 3d b3 e3 63 be 29 50 91 3b
       -0.3645887 0.06453151 -0.22254829 0.0044346047
000170 79 3e a2 3e 92 4f a2 3e 71 41 c0 be 5e 8b 8e bd
       0.31688288 0.31701332 -0.37549928 -0.06960176
000180 ab 77 18 be 0e dc 6e be 0e 22 cd bc 1f aa 7e 3d
       -0.148894 -0.23326132 -0.025040653 0.06217396
000190 00 0c 05 bc 60 e8 90 3d 2e b9 f0 3d 7a 6a 22 3e
       -0.008120537 0.07075572 0.1175407 0.1586093
0001a0 77 a5 6d 3d 5f 31 34 3c 5e b7 38 3d 27 aa 01 bd
       0.058019128 0.010998099 0.045096748 -0.03165641
0001b0 db 32 46 3c 97 07 80 bd 72 4f 8b 3c 9d 62 28 3e
       0.012097086 -0.06251448 0.017005656 0.16443868
0001c0 d2 98 4b 3d 20 3d 11 3e 32 24 24 3e ab 02 e3 bd
       0.049706288 0.14183474 0.16029432 -0.11084493
0001d0 3c 60 fe bd f4 1e bd bd 47 f9 fc 3d 3a cf fb 3d
       -0.12420699 -0.092344195 0.123522334 0.12295385
0001e0 b8 20 79 3d 13 5f 25 bc 86 cc ec bd 10 9e d9 3d
       0.06082222 -0.010093468 -0.11562447 0.10625851
0001f0 9f 22 5a 3d a6 3d 84 bd 29 f8 e0 3d d7 0f 1b 3e
       0.053255673 -0.06457071 0.10984833 0.15142761
000200 10 ca b0 bd 42 a6 80 3e 88 68 40 3e be a3 b5 bd
       -0.0863229 0.25126845 0.18789876 -0.08869122
000210 0f 14 c9 3c f3 ad 45 3c 31 40 1e 3e f2 e8 4f be
       0.024545697 0.0120653985 0.15454175 -0.20303705
000220 22 72 2f 3d 45 d5 b3 3b 6a 22 1a bd 76 28 52 3d
       0.042833455 0.00548807 -0.037630476 0.051308118
000230 d5 34 96 3c fb f5 35 3e bc f3 d6 3c f8 93 40 bd
       0.01833574 0.17769615 0.026239268 -0.047016114
000240 58 44 bf 3c 17 54 a9 bd 0f 43 a4 3d dd a2 36 3e
       0.023348019 -0.08267992 0.08020603 0.17835565
000250 d1 9d 91 3d a5 c7 64 bd 31 c6 9b bd 00 67 1b 3e
       0.07110179 -0.05585446 -0.076061614 0.1517601
000260 75 0f a7 bc e3 4e bf 3c fb c6 1a 3e 67 15 08 be
       -0.020393113 0.023353046 0.15114968 -0.13289414
000270 d7 01 8e bd 48 a6 19 bd 78 1d 5d ba 9c e5 fc 3d
       -0.06933945 -0.037512094 -0.0008434872 0.12348482
000280 fc 6e da 3c 69 7a e8 bc 18 7e cb 3d b7 6c 0a bd
       0.02666425 -0.028378682 0.0993616 -0.033795085
000290 03 f0 e0 3d 8c 00 be bc fd 39 21 3e 2f 1b 7b 3d
       0.109832786 -0.02319362 0.15744777 0.06130522
0002a0 0e 6a 03 3e f8 45 47 bc c2 bf a6 bd fa 53 7a bd
       0.12833425 -0.012162678 -0.08142044 -0.061115243
0002b0 b8 9c 97 3b 18 4d d8 bd 7a 63 19 bd 93 c8 21 3e
       0.0046268366 -0.105615795 -0.037448384 0.15799169
0002c0 b9 ef 97 bd 93 02 24 3e f3 03 5c bb 62 6a c3 3d
       -0.0741877 0.16016607 -0.003357169 0.09541775
0002d0 c2 6e 2d 3d ee be 4a bd 17 d4 49 bd bf 93 9c bd
       0.042341955 -0.04949849 -0.04927453 -0.07645368
0002e0 c4 45 84 3d 6b 17 00 be aa e9 2a bd 85 a7 87 bd
       0.06458619 -0.12508933 -0.041726746 -0.06623749
0002f0 c3 8a 58 3d 41 a6 03 3e 2e ac 94 bd 95 7f b0 bc
       0.05286671 0.1285639 -0.07259403 -0.02154521
000300 a7 10 43 3e 5c b5 cd 3d 47 96 a6 bc b8 f0 a5 bd
       0.19049321 0.10044357 -0.02033533 -0.08102554
000310 de ee a7 bd 5e 23 5a bd 46 8d 82 3d e3 9c 0d be
       -0.08199857 -0.053256385 0.06374602 -0.13829379
000320 7c 41 c5 bc d1 e9 95 bd 36 95 ef 3d 42 c0 e3 3d
       -0.024079077 -0.073199876 0.116983816 0.11120655
000330 5a ab a4 bd df 88 5c 3d 83 cf 07 3d 96 ab 1c 3d
       -0.08040495 0.053841468 0.033156883 0.038249575
000340 d7 74 42 bc b9 ec ea bd b9 2a e9 3d 2b ee 70 3d
       -0.011868677 -0.114709325 0.11385102 0.058820885
000350 1f 71 4e bd 72 61 ba bc 17 52 5e bd 45 89 0c be
       -0.05040085 -0.022751544 -0.054277506 -0.13724239
000360 13 7e f7 bc ff ce e1 3c 0c b7 2a 3e 19 f0 08 be
       -0.030211484 0.027564524 0.1667139 -0.1337284
000370 16 e0 36 bd b6 15 11 3d 95 85 24 bd 3f 29 98 bc
       -0.0446473 0.035421096 -0.040166456 -0.018574355
000380 98 7a 56 bd bf 7d 94 bd 3b ed 8e bd ba 14 e8 3d
       -0.05236301 -0.07250547 -0.06978842 0.11332078
000390 be f3 83 bd 22 c1 9d 3c b2 f2 88 bd 6c fd cd bd
       -0.064429745 0.019257132 -0.066869155 -0.10058102
0003a0 70 cd 2d bd c5 dd 19 3e 98 a6 83 bb fc 2a a2 3d
       -0.04243225 0.15026005 -0.0040176623 0.07918355
0003b0 34 8f b1 3c e5 b5 cd 3d a8 c1 33 3d 36 62 b8 bd
       0.02167473 0.10044459 0.043885857 -0.09003107
0003c0 b2 1b 02 3e 99 92 2d 3e 79 f4 26 3e 15 b1 13 be
       0.12705877 0.16950454 0.16304196 -0.1442302
0003d0 db 73 1e be ac 09 9b bd b1 bb 1a be 9e c4 10 be
       -0.15473883 -0.07570204 -0.15110661 -0.14137504
0003e0 dd 1c f3 bc 6d a0 aa 3d 0b 28 b0 3d 6a ea ad 3d
       -0.029676849 0.0833138 0.086013876 0.084919766
0003f0 03 14 ee bd f8 1d 2e 3c a1 bd 56 3d 0e 4b b2 bd
       -0.11624911 0.010627262 0.052426938 -0.08705722

lstm.weight_hh_l1 f4 [192, 48]
000000 fe d9 5d 3d 44 27 70 bd 1e 2e 5e 3c 38 85 db bd
       0.05416297 -0.058631197 0.0135608 -0.10718769
000010 ff 20 23 be f6 62 3b bd 07 37 76 3d 19 cc 5e 3c
       -0.15930556 -0.045748673 0.060111072 0.013598465
000020 00 00 5a be 58 8c ca 3d 87 17 f5 bb 39 48 9a 3d
       -0.21289062 0.0989005 -0.0074796113 0.07533307
000030 ce c7 8a 3c fa 48 45 3d a7 31 1d 3c ff e3 d3 bd
       0.016940977 0.0481653 0.009594358 -0.10346221
000040 55 87 69 3c 77 47 26 bd 39 a6 99 bd 0f b0 5f bd
       0.014253457 -0.040595498 -0.075024076 -0.054611262
000050 21 3e 08 3e e5 ae 11 bd 12 32 60 bd f8 13 ff 3d
       0.1330495 -0.035567183 -0.05473525 0.124549806
000060 c2 e7 8e 3d 17 70 e9 bd fe b0 16 3e 30 a1 fc bb
       0.06977798 -0.113983326 0.14715955 -0.0077096447
000070 d3 60 72 bd c0 1a ae bb dc 6a 81 3d a9 f5 de bc
       -0.05917437 -0.0053132474 0.0631921 -0.02721675
000080 3f f5 2e 3c 7b 16 0c be 46 f1 0b bd 7f c7 0c be
       0.010678588 -0.1368045 -0.034165643 -0.13747977
000090 c1 65 29 3d 9c ce d6 3d 2c 99 99 bc 7b 4d c6 bd
       0.041356806 0.10488626 -0.018749796 -0.09682747
0000a0 0e 4a 13 3e 5e 45 0b be 66 aa 14 be db fa 52 bd
       0.14383718 -0.1360068 -0.14518127 -0.051508766
0000b0 93 6a 98 bc a1 bb aa 3d 6b 61 e7 bd 51 b1 68 bd
       -0.018605506 0.083365686 -0.11297878 -0.056809727
0000c0 64 c5 c2 bc ac 9d 71 bd 4b d8 1c 3e b1 af 16 be
       -0.023775764 -0.05898826 0.15316884 -0.14715458
0000d0 6a 05 c1 be cd e1 98 3e 05 62 d8 3d 6d a8 5c be
       -0.37699443 0.29859772 0.10565571 -0.21548624
0000e0 f7 12 da be 7a 20 cc 3c 59 9f a2 3d dd e3 d8 bd
       -0.42592594 0.02491783 0.079405494 -0.105903365
0000f0 bb a1 66 bc 4a af ca 3c a2 1c 45 3e a2 e7 4e bd
       -0.0140766455 0.024741787 0.19249204 -0.05051387
000100 30 9c 3e be a9 f5 b3 bd 55 ac 50 be 16 88 2b bd
       -0.18614268 -0.0878709 -0.2037824 -0.04187783
000110 88 24 39 3e 35 39 cc be 04 5d 2d 3d dd 24 d8 bc
       0.18080342 -0.39887396 0.042325035 -0.026384765
000120 62 21 45 bd 18 1c 4b 3e ca 83 a1 3e 25 05 61 3e
       -0.04812754 0.19834936 0.3154586 0.21974619
000130 ee 20 02 bf d3 3a 47 3e ea 12 a6 bc 69 db 00 bf
       -0.50831497 0.19456033 -0.02027269 -0.50334793
000140 e1 07 d2 3e 60 3f 18 bc e5 b8 74 3d 32 5a e1 bc
       0.41021636 -0.0092924535 0.05974664 -0.027508829
000150 08 29 2f 3e 52 c1 03 be 92 03 42 bd 9a 57 2a 3e
       0.17105496 -0.12866715 -0.047366686 0.1663498
000160 ca 17 3f be 7e 17 7a 3d cf 3d a2 be a6 39 1d be
       -0.18661419 0.06105756 -0.3168778 -0.15354022
000170 96 e7 c3 bd 14 08 c8 bd 3f a5 58 bd cb c6 ee 3d
       -0.09565656 -0.09767166 -0.052891966 0.116590105
000180 7f c4 80 bd b3 ec 64 bd 70 e5 e4 3d 8e b9 93 bc
       -0.06287479 -0.055889796 0.11176574 -0.018032815
000190 c0 28 74 bd f2 47 42 bd 69 85 f8 3d 54 b4 8f 3d
       -0.059609175 -0.047431894 0.12134821 0.07016817
0001a0 4a 61 61 3b a4 70 d8 3d 8c a1 a4 bd 18 98 88 3c
       0.0034390264 0.105683595 -0.08038625 0.016674086
0001b0 ed 4c ba 3d c3 4b 52 bc 22 d7 90 bd c1 d2 8e 3d
       0.09096704 -0.012835446 -0.07072283 0.06973792
0001c0 cc 37 7f 3d 42 90 c6 bd 43 3b d0 3d 91 a2 d5 bd
       0.06230907 -0.09695484 0.10167553 -0.10431398
0001d0 65 53 db bc 3d be 5f 3c bf 95 2d bc a5 65 0f bd
       -0.026773164 0.013656196 -0.010594784 -0.035009045
0001e0 f2 c2 1e bd 37 ab cc 3d e5 30 14 be b0 cf 35 bd
       -0.038760133 0.09993594 -0.14471777 -0.04438752
0001f0 1f e9 cd bd 36 d2 51 3c 98 9f 7a 3d d8 c0 ca 3d
       -0.1005423 0.012806466 0.061187357 0.09900063
000200 26 5d ea bc 14 4c d7 bd 02 a7 6e 3b 5a ea ef bc
       -0.02860887 -0.105125576 0.0036415462 -0.029286552
000210 67 b6 c8 3d b6 08 e9 bb 99 8b 3d 3d 99 d2 ec bc
       0.098004155 -0.007111634 0.04627571 -0.028909015
000220 a9 c1 99 3d 0e b2 e7 3d 1f 61 b7 bd 4a 73 cd 3d
       0.07507641 0.11313258 -0.08954071 0.10031755
000230 9e a8 85 bd 55 e3 11 be 15 84 a6 3c 33 8a 51 bd
       -0.06526302 -0.14246877 0.020326653 -0.051157188
000240 2d 0f 0a be f9 67 2e bd 95 5f d1 bd 29 0d cf bd
       -0.13482352 -0.042579625 -0.10223309 -0.10109932
000250 c5 0a 90 bd fd 52 46 bb d9 b1 d6 3d cd 81 17 be
       -0.07033304 -0.0030261867 0.104831405 -0.14795609
000260 75 57 9d bd f1 53 18 be 81 1d 06 3d e1 76 66 3c
       -0.07682697 -0.14875771 0.03274298 0.014066429
000270 4d 52 f8 3d be f2 a4 3d 03 f5 0d be 14 d1 00 3e
       0.12125073 0.08054112 -0.13862996 0.12579757
000280 2b d2 74 3d b5 c6 22 3a 52 cc a3 bd 42 83 00 3c
       0.059770744 0.0006209419 -0.079979554 0.007843794
000290 64 6a 89 3d fb d7 17 bd 7a c1 cc bd a0 13 b0 bb
       0.067097455 -0.03707121 -0.0999784 -0.005373433
0002a0 5f b4 35 bc 31 a7 6c bd 8a 42 43 3d bf bb a7 bd
       -0.011090367 -0.057776634 0.04767088 -0.081901066
0002b0 05 ef 9e 3d 7a 11 5f 3c 7c 12 ef bd 8a 42 db 3d
       0.07760433 0.013615007 -0.116734475 0.10706051
0002c0 b2 8b 32 3e 2d 93 ad 3d f1 03 d4 39 fd 9a 8c bc
       0.17436102 0.08475337 0.00040438728 -0.017163748
0002d0 99 4a 56 bd a5 85 e3 3b b4 1c 73 bc 29 c5 cd 3c
       -0.052317236 0.006943422 -0.014838386 0.025118427
0002e0 c7 11 5d bd bd b1 09 3e 81 8e 72 3d 7a e2 06 be
       -0.053972032 0.13446708 0.059217934 -0.13172331
0002f0 fa 51 69 3b f7 4a a3 3d ae b4 02 be 07 a5 8f 3d
       0.003560184 0.07973283 -0.12764236 0.07013898
000300 16 30 27 3e ef fa 19 3e 2e 89 ae bc 52 dc 04 be
       0.16326937 0.1503713 -0.021305647 -0.1297467
000310 60 b9 28 be bb d2 f0 3d 32 30 60 3d e7 d5 9c 3d
       -0.16476965 0.11758944 0.054733463 0.07657986
000320 5f 7d b8 bd 79 99 23 3d 31 f1 75 3d 70 72 15 be
       -0.09008288 0.039941285 0.06004447 -0.14594436
000330 bd 44 d9 3c 60 80 c2 bd e2 d2 d7 3d 27 49 19 bd
       0.026522035 -0.09497142 0.105382696 -0.03742328
000340 3a 78 bf bd cb c3 2e 3d da 4f 90 3d c4 0f 8d 3d
       -0.09349103 0.04266719 0.070464805 0.06887773
000350 1f 14 b6 bc 23 8a 12 be a1 5d 8e 3d 16 bd 54 bd
       -0.022226391 -0.14310507 0.06951452 -0.05193814
000360 6d 98 f3 bd d7 29 82 3d dc 6b da bc cc 62 9a 3d
       -0.11894307 0.063556366 -0.02666276 0.07538375
000370 62 89 dc 3d e1 12 fb 3d e8 eb a3 bd fd 27 98 bc
       0.10768391 0.1225946 -0.0800398 -0.018573755
000380 d6 55 0e bd a6 b0 88 bd c6 e6 44 3d 2d 63 4f 3c
       -0.03474983 -0.06674318 0.048071645 0.012657923
000390 70 c4 98 bd f4 87 db 3d 30 3e d8 3d 40 9a cc bc
       -0.074593425 0.107192904 0.10558736 -0.024975896
0003a0 ae 58 eb 3c df 55 44 3d f3 51 53 bd e7 fa 69 3d
       0.02872881 0.047933456 -0.051591825 0.057124045
0003b0 0e b1 a0 3c d4 8b cf 3d a4 88 7a bd ab 78 0a 3e
       0.019615676 0.10134092 -0.061165467 0.13522594
0003c0 1d dc d1 3d 51 95 49 bd 17 57 da bd 69 cf bf bd
       0.102470614 -0.049214665 -0.10661142 -0.09365732
0003d0 5e 4c 57 bb ee 2e a1 bc d8 7a 0a 3d fc c0 2d be
       -0.0032851915 -0.019675698 0.03380856 -0.16968149
0003e0 6c 50 12 be 6e 86 c1 bc f5 90 ed bd 3b a6 9b bd
       -0.14288491 -0.023623671 -0.11599914 -0.07600065
0003f0 88 d7 3e 3e 4a ec 98 3d 4c 26 f2 bc da e5 99 3d
       0.18636906 0.074669436 -0.029559277 0.07514544

lstm.bias_ih_l1 f4 [192]
000000 02 15 ab bd b6 c4 28 3f 5f 89 b1 bc 23 58 22 3e
       -0.08353616 0.6592516 -0.021671949 0.15853934
000010 39 36 1d 3e 68 f6 72 3d 56 9a 1f 3e 7a 4f 10 3e
       0.15352716 0.059317023 0.15586218 0.14092818
000020 4b 55 2b 3e 5d e9 07 3e 1a 31 b5 3d 14 db ec 3d
       0.16731755 0.13272615 0.08847256 0.11565223
000030 c0 b8 76 3c 98 aa 3c 3e 0a ee 8b bc 2a 9c e6 bd
       0.015058696 0.18424451 -0.01708128 -0.11260255
000040 dd 0f 80 bd 09 69 89 3d a7 c8 6f 3e bb b0 41 bd
       -0.06253026 0.06709487 0.23416387 -0.047287684
000050 96 d9 22 3e 8b 29 5d 3e 8d 82 bd 3d 88 66 22 3e
       0.15903315 0.21597879 0.09253416 0.15859425
000060 58 ff 76 3c 1a 0b 0b 3e a1 8e ee 3d d7 45 35 bb
       0.015075527 0.13578454 0.11648298 -0.0027660036
000070 a4 24 50 bc 2c 2b 1e bd b5 e3 42 3d ca 98 05 be
       -0.012704048 -0.03861539 0.04758044 -0.13046566
000080 70 45 ef 3d 42 19 5a bd cb 60 9e bd b5 9b 04 be
       0.11683166 -0.053246744 -0.077333055 -0.12950023
000090 7d 53 c7 3d d0 5f df bc 6f 47 38 3e 84 ce e4 3d
       0.09732721 -0.027267367 0.17996 0.11172202
0000a0 90 43 8e 3e 03 2f c3 3d bd f3 37 bc f2 22 23 3e
       0.2778592 0.09530451 -0.011227545 0.159313
0000b0 e9 70 0c 3e 9f e7 5e 3e 8a 22 91 3c 0f 21 d5 3d
       0.13714947 0.21768044 0.017716665 0.10406696
0000c0 6f b0 34 3c 70 bb 51 bd 1e 2a 42 bc be ba 1d be
       0.011028393 -0.051204145 -0.011850862 -0.15403268
0000d0 af 33 b4 3d f9 3b 4a 3d 0f 27 e6 3d d4 0c 72 3d
       0.0879892 0.0493736 0.112379186 0.059094265
0000e0 9b 15 86 3c 7b b7 f4 bb 17 40 7f 3d 34 88 cf 3d
       0.016367724 -0.0074681616 0.06231698 0.101334006
0000f0 bb f7 89 bd 40 34 08 be 58 4f 90 bd c9 7e be bd
       -0.06736704 -0.13301182 -0.070463836 -0.09301526
000100 a9 cf ed bc cf 50 f3 bd b6 42 00 3e de b3 d2 bd
       -0.029029684 -0.118806474 0.12525448 -0.10288213
000110 65 93 80 3c 74 f2 0c 3e c0 7f da bd 4c 5a b7 3b
       0.015695283 0.13764364 -0.10668898 0.005595481
000120 a3 c3 53 3d af 3b bd bd f6 13 7c bd 32 6e ea bd
       0.051700246 -0.09239899 -0.061542474 -0.11446799
000130 fc 88 81 3d 8e 55 7b bd d6 02 a5 bd 18 e0 56 3d
       0.06324956 -0.06136089 -0.080571815 0.052459806
000140 b7 07 bf bd fb 1d 8a 3d 49 94 cd bd fb 25 de bb
       -0.09327643 0.067439996 -0.10038049 -0.00677943
000150 9a 82 c5 bd 12 32 e9 3d a2 ba 1b 3e ea db 18 be
       -0.09644051 0.11386503 0.15207914 -0.1492764
000160 ec a2 a9 3d e4 dd 98 bd bc 1d 3f 3d b2 5a 4b 3e
       0.08283028 -0.07464197 0.046659216 0.19858816
000170 ed 54 7e 3d 02 ba 0e 3e 7a 16 da 3c 16 00 5f 3d
       0.06209271 0.13938144 0.026622046 0.05444344
000180 6e 29 aa 3d 3c 51 d1 3d 75 6b a6 3d dc 41 86 3d
       0.08308683 0.10220572 0.081259646 0.065555304
000190 54 d3 9d bd 17 b6 c6 bd e4 cb 27 bd 98 db 61 bd
       -0.07706323 -0.097027 -0.04096593 -0.05514106
0001a0 43 fe f4 bd 07 c5 4b 3c 47 e8 90 3d 33 a3 1c 3c
       -0.11962559 0.012437112 0.070755534 0.009560394
0001b0 d0 44 29 3d 70 45 f0 bd dd f4 50 3d 62 8c 0f be
       0.04132539 -0.11731994 0.05101477 -0.14018396
0001c0 20 f4 b7 bd 3d 91 7a bc 78 b3 9e bd 25 fc 95 bd
       -0.0898211 -0.015293417 -0.07749075 -0.073234834
0001d0 81 ee 0f 3e fd d6 75 bd b0 ac 0f be b6 1e 9a 3d
       0.14055826 -0.060019482 -0.14030719 0.07525389
0001e0 7e 03 0d bc 23 90 70 bd c1 88 94 3d ec 9b 04 bd
       -0.00860679 -0.05873121 0.07252646 -0.03237526
0001f0 ed f8 16 bd 9c 5c a6 bd 80 20 8f 3d 2c 31 eb bd
       -0.036858488 -0.081231326 0.06988621 -0.11483988
000200 2d 06 06 3e 76 f1 3b bd 3e 34 db bd 2f 91 fa bd
       0.13088293 -0.045884572 -0.10703324 -0.12234723
000210 d7 ad 94 3d 53 2d c6 bd 32 8e 83 3d d0 f4 14 bd
       0.0725972 -0.09676614 0.06423606 -0.036366284
000220 4b 2c c8 3c 32 7c 8b 3d 5e 4a d9 bd 83 55 b2 3c
       0.024435183 0.06810798 -0.106098875 0.02176929
000230 03 ea 9b bc f0 26 8c bd b0 38 bc bd 0f 53 aa 3c
       -0.019032484 -0.06843364 -0.091905 0.020791559
000240 e9 bc 85 bd 0c 4b 2e 3f c3 6c 66 bd bf 8a d5 bc
       -0.065301724 0.6808326 -0.056256067 -0.026067136
000250 84 b7 31 3e c1 7e 9a bd 02 84 a7 bd 36 37 24 3e
       0.17355162 -0.07543708 -0.08179475 0.16036686
000260 9f a4 c2 bc f5 76 7c 3d 6e 9e 49 bd b7 31 67 3d
       -0.023760138 0.061636884 -0.049223356 0.056443896
000270 21 ba d0 bd 40 db 0d 3e a5 ca 42 3e a4 c7 61 3d
       -0.10191751 0.13853168 0.19022615 0.055122033
000280 2d 15 ac 3d 80 a5 96 3d 31 0a 68 3e 5e 7d f1 bc
       0.084024765 0.07355785 0.22660138 -0.029478725
000290 10 d9 11 3d 7c d7 4e 3e e1 d9 bc 3d 18 18 2c 3e
       0.035607398 0.20199388 0.092212446 0.16806066
0002a0 76 f4 f2 3c a2 ef 43 3d ae 8a d6 bd b6 22 54 3d
       0.029657584 0.047835954 -0.1047567 0.051790915
0002b0 06 66 c3 bd 38 bf e3 3d f4 b9 b4 3d 31 00 53 bd
       -0.09540944 0.111204565 0.0882453 -0.051513854
0002c0 20 06 d5 3d 99 ac 18 3e ce af ce bd 51 44 eb 3c
       0.10401559 0.14909591 -0.10092126 0.0287191
0002d0 f2 35 1d 3e 2a 50 57 3c 53 a7 32 3e 3b 94 f8 3d
       0.1535261 0.013141671 0.17446642 0.12137648
0002e0 a9 29 6b 3e 37 9b 22 3e 77 44 a7 3d 05 86 35 3e
       0.22965111 0.15879522 0.081673555 0.17726906
0002f0 97 9e 3b 3e 30 dc 97 3d 60 aa 40 3d 75 5f a7 3d
       0.18322216 0.07415044 0.047037482 0.08172504

lstm.bias_hh_l1 f4 [192]
000000 b8 a0 75 bc 24 a1 06 3f b8 1f 54 bd 10 0d dc bc
       -0.014991932 0.5258963 -0.05178806 -0.026861697
000010 99 6d bf 3b 5e 96 41 3c b2 a4 fb bc 82 56 b1 bd
       0.0058419225 0.0118156355 -0.030718181 -0.08659078
000020 a8 02 25 3e e5 1f dc 3d ea 06 06 bc f1 f0 de 3c
       0.16114295 0.10748271 -0.008180359 0.0272145
000030 a3 00 76 bc 33 49 b0 bc 63 b9 76 3d d3 33 81 3d
       -0.0150148 -0.02151928 0.060235392 0.06308713
000040 54 ba 67 3d e1 b2 d3 3b bf 6a 8c 3e ba 12 cf bd
       0.05657418 0.006460533 0.2742519 -0.10110994
000050 ea fb 17 3e 3e 46 49 3e 6f b6 80 3d 38 e4 b4 bc
       0.14842191 0.19655702 0.062847964 -0.02208148
000060 48 a7 c9 3d 8e 9c d3 3d 4f b8 0b 3e e5 ce 3e 3c
       0.098463595 0.10332595 0.13644527 0.011646007
000070 ed 5f ad 3d 80 81 3b bd c1 d2 97 3e 57 ca c6 3d
       0.08465562 -0.045777798 0.2965298 0.09706562
000080 a9 eb ec 3d 25 c2 9d bd 95 b8 41 ba 78 8e f9 3d
       0.11568386 -0.07703046 -0.00073898706 0.12185377
000090 c7 31 ba bd 8f db cc bd 9d bb 59 3e f0 a0 4a 3d
       -0.090915255 -0.10002815 0.21262975 0.04946989
0000a0 81 9d 64 3e 12 30 05 3e 6d 7c ef bd 1d aa 9c 3c
       0.22325708 0.13006619 -0.11693654 0.019124085
0000b0 c8 d3 5f 3e ea db 2a 3d 3c 0c 55 bd 71 05 03 bd
       0.21858132 0.041713633 -0.05201362 -0.03198761
0000c0 68 74 8c 3d 21 62 b1 bd d7 f2 2c 3d ce 13 ff 3d
       0.0685814 -0.08661295 0.042223778 0.12454949
0000d0 a9 ac f0 3c 1d 09 f6 bd 12 4a 1e bd ff 60 5b 3d
       0.029379206 -0.12013457 -0.038644858 0.0535593
0000e0 b2 4f a6 bc 80 4a 19 3c d5 b7 d1 bc 23 ce 3b bd
       -0.020301674 0.009356141 -0.025600353 -0.045850884
0000f0 8f 23 4b bd 4e 30 2b bd 3f 86 1a bd c4 68 a1 3c
       -0.04959446 -0.041794114 -0.037725683 0.019703276
000100 6a 26 b3 3d 0b af 74 bd 22 84 6b 3d 09 54 f1 bc
       0.08747561 -0.059737246 0.05749906 -0.029459016
000110 b3 ee a2 3d c2 cd f6 3d c0 f7 94 bd c0 ec af 3d
       0.079556845 0.12050964 -0.07273817 0.08590078
000120 0a cc 2a be 9b f3 2c bc 2c 14 29 bd d3 bc ea bd
       -0.16679397 -0.010556127 -0.041279003 -0.114617966
000130 fe 5d 9b bc b6 a3 2f be b0 f8 6d 3d 26 44 b5 bd
       -0.018965717 -0.17152295 0.058098495 -0.08850889
000140 c1 c8 0a bd 05 49 8d bd f0 91 db 3c 28 15 d2 bd
       -0.03388286 -0.06898693 0.026802987 -0.102579415
000150 9c b6 c1 bb 25 a9 9b bc 20 08 6e bd 42 47 61 bd
       -0.0059116613 -0.019001553 -0.058113217 -0.054999597
000160 a5 e6 e6 3d 5f e4 6f bd d3 0a a2 bc 51 51 be 3d
       0.11274461 -0.0585674 -0.019780552 0.092928536
000170 85 89 41 bd 54 31 d9 bd 90 6f a0 bb 96 cd ce bd
       -0.04725029 -0.10605112 -0.004896112 -0.10097806
000180 f8 56 db bd 44 d5 b1 bd 4f 21 ad 3d ba 62 c2 bd
       -0.10709947 -0.08683255 0.08453619 -0.09491487
000190 35 3d 08 be 8a 02 e7 3d 76 c9 59 3d cc a6 0e 3d
       -0.13304599 0.11279781 0.053170644 0.03482704
0001a0 c3 70 b9 bd b4 71 3a bd 77 ad d0 3d e7 fb ad 3d
       -0.09054711 -0.045518592 0.10189336 0.08495312
0001b0 60 2b 87 3c 5d 1b 33 bb 15 24 d7 3b 0b 75 f8 bc
       0.016500175 -0.0027329542 0.0065655806 -0.030329248
0001c0 93 46 0a 3e 9c 65 08 be 31 d8 0b be 5f 90 ba 3d
       0.13503484 -0.13320011 -0.13656689 0.09109568
0001d0 e5 87 b8 3c b5 36 97 bd 5b 05 7d bd 74 a8 fa bd
       0.022525737 -0.073834814 -0.061772685 -0.12239161
0001e0 f7 76 aa bc 14 79 c7 3d db d7 81 3d 7a 0d ca 3d
       -0.02080868 0.09739891 0.06339999 0.09865852
0001f0 a4 7c e7 bd 29 1f f9 3d ba 9d 96 3d 64 d1 e4 bd
       -0.1130307 0.121641465 0.07354303 -0.111727506
000200 be 99 0c 3d de e9 f5 bd 9d f0 03 be 8a 23 a7 bd
       0.034326307 -0.12007497 -0.12884755 -0.081610754
000210 bd cc 2c bd 81 63 01 3e 93 3c 97 bd d6 fb eb 3d
       -0.04218744 0.12635614 -0.073846005 0.11522643
000220 8f 10 cc bd 24 16 ca bd a2 a0 72 bd d9 57 6f 3d
       -0.09964096 -0.09867504 -0.059235223 0.058433387
000230 f8 3c 75 ba 93 07 98 bd 35 68 c3 bd 3b f7 05 be
       -0.00093550934 -0.0742332 -0.0954136 -0.13082592
000240 ed 87 e5 bc 9c 43 22 3f e4 64 eb 3d 8f f8 9a bd
       -0.028018916 0.63384414 0.11493853 -0.0756694
000250 23 83 21 bd 38 7f 36 bd fb b3 2d 3e 82 e9 b7 3d
       -0.039431702 -0.04455492 0.16963188 0.08980085
000260 f9 bb f5 bc 56 95 9c 3c 39 a7 32 bc 4f 7f 3d 3c
       -0.029996859 0.019114178 -0.010904127 0.011565997
000270 21 29 38 3d 69 07 07 3d 30 4a 1c 3d db dd 5b bd
       0.0449611 0.03296605 0.03815669 -0.053678375
000280 db a5 cb 3d 2e 5a d6 3d b6 98 ab 3e f2 23 39 3d
       0.09943744 0.10466419 0.33514947 0.045200296
000290 60 f5 f1 3c 8a 1a aa 3c b7 a5 cf 3d 98 23 29 3e
       0.02953595 0.020764608 0.101390295 0.16517484
0002a0 73 eb 0c 3e e1 51 36 3e 86 ff 39 3d 04 62 35 bd
       0.13761692 0.17804672 0.0454097 -0.044282928
0002b0 6b dd 49 bd 70 dc c9 3d 84 c5 19 bd be 7c 7e bd
       -0.049283426 0.09856498 -0.03754188 -0.062130682
0002c0 73 a6 9d bc 07 0d b8 3d c1 e9 80 3d 13 4f 82 3d
       -0.019244408 0.0898686 0.06294585 0.063627385
0002d0 82 04 99 bc 71 58 83 3d 5a d5 26 3d 0e 37 83 bd
       -0.018678907 0.06413353 0.04073081 -0.06406985
0002e0 46 98 5a 3e 6f af f8 bb 68 15 43 3d 0f f6 a2 bd
       0.2134715 -0.0075892727 0.047627836 -0.07957088
0002f0 e9 77 ce 3d 2c 61 1e 3e ba b3 c9 bd 1f 4f 1a bc
       0.10081465 0.15466756 -0.09848733 -0.009418278
