best_thermal_model.pth (torch, 349999 bytes, 16 tensors)

lstm.weight_ih_l0 f4 [256, 4]
00000000: ac6d 24be 434b a03c 0f74 26be 0813 11be
00000010: 16ea 44be dc3f fc3c db58 42be 23e7 45be
00000020: 4e96 4ebd 13b4 19be 4a3d 90bd 0243 93bd
00000030: 1da3 46bd acb5 18be 67dc 85bd 64a1 70bd
00000040: febc 17bd 9c13 8a3d 8f17 39bd f3a8 eebc
00000050: 58ed 9fbc dd9d 613d cb80 c8bd fd65 8fbc
00000060: b0c8 0f3d 67eb 9abd 2ffa 5d3c d69d 1cbb
00000070: e2a7 13bd 7c4d 0dbe 0e15 66bd df5e 82bd
00000080: ae94 643d 9c77 043e 769e 91bd 26dd ba3d
00000090: 183d 1a3c 5a80 d33c 365d 84bb 4a43 fdbb
000000a0: 8712 5fbd 69d7 1ebe 794d 99bd 08b1 99bd
000000b0: 791c 1eba e99b 943a 3b37 dbbc 1f6e fbbc
000000c0: 01f1 573d 4ed8 5a3e fea8 fc3d bde3 8b3e
000000d0: dcfc 2a3d aad5 b23c 7e04 993c ef22 6f3c
000000e0: 03f8 64bd 550c 1bbe 59a2 98bd 04cf 91bd
000000f0: 3cbe 57bd a626 11be 0a19 8dbd 1fdd 8abd
00000100: 153b 5bbd 9dc4 18be 4677 97bd 37d3 a4bd
00000110: aee0 32bd 53d6 0cbe 5243 7dbd fa16 7abd
00000120: cff5 363b 8708 2c3c f572 a0bc d64e b0bc
00000130: 504b 8fbd 4253 2ebe ca35 c1bd 8365 d4bd
00000140: 3432 7c3d 5be1 ee3c 645c 2d3d 5493 203d
00000150: 1620 abbb fec0 f13b 5059 17bd 486b 45bd
00000160: f188 26bd 3f0d b8bd da3a a8bd ba3d a3bd
00000170: bbd7 17be ca1e 143b 4291 1fbe fd45 07be
00000180: 3179 853c 5fcf 283b 5872 0cbc 39ba 76bc
00000190: f006 39bd 2ef4 1ebe 0502 82bd b141 86bd
000001a0: 6bd5 063e 8989 5ebe 160f 433d 8e4d f73d
000001b0: cb59 163c 0d34 9a3d e4b6 b1bd 1423 04bc
000001c0: acd0 85bd ec51 23be 6d24 b8bd 980a b6bd
000001d0: fd96 92bc 9deb cdbd eb9f 11bd ad91 2dbd
000001e0: 8d53 1bbe c4ab c13b 0ea4 1fbe 0ce1 0cbe
000001f0: 8a04 7ebd 3518 2cbe 3af2 b0bd 2ab3 b1bd
00000200: bfc8 6bbd af15 26be f8cc a3bd 5ff6 8fbd
00000210: b7e5 63bd ce0f 10be dad4 95bd a068 9cbd
00000220: 6e5f 30bd 5173 743c 8a26 a7bd 3c36 b6bd
00000230: f85e 58bd 067f 18be d48b 91bd 6fdc 98bd
00000240: d998 78bd ba1d 25be 0e38 a6bd 55b9 a5bd
00000250: 0cd8 963d cae2 c63c 15f2 3d3d 3136 0a3d
00000260: 39d0 e33c cb5f 48bd 6965 cc3b e045 09bc
00000270: 0cb5 6cbd 985a 16be ef46 9abd 5546 a3bd
00000280: 07db a83d 3006 a13e 1c5f 7b3e 8248 0e3e
00000290: d619 203c 467c 003c 7031 02bc e0de 37bc
000002a0: 5201 cfba f54f 093d 182d 4bbc b1e9 6cbc
000002b0: 6755 34bd 2bc0 733d fe9d 5bbd e56b 07bd
000002c0: 91aa 04bd 04d8 953b 2e8a a5bd 6aa5 efbc
000002d0: da50 7b3d 9027 0fbe 63b2 db3b 03ff e0bc
000002e0: 86eb b63b 8465 733c 8ff1 fabc 0f51 31bd
000002f0: a8ad 473e c1e8 43bd c314 6c3d 6611 093d
00000300: 1476 82bd 23be 1dbe b69f aebd c5cd aabd
00000310: 86fc 56bd 7254 22be ed00 94bd a130 9cbd
00000320: 0bb2 92b8 b21f f9bd 22e1 74bc 3e26 90bc
00000330: a6e3 943d 9e5d de3c 6179 2e3d d315 013d
00000340: 950e 083d de49 05be b4b5 adbc d017 e9bc
00000350: 46c8 67bd 7766 23be f3a6 9cbd c0d6 9abd
00000360: 1462 563d 731f 983c dafa 093d df39 dc3c
00000370: 436d 57bd 4750 16be 4551 8ebd 3c73 86bd
00000380: fd40 a1bd ab24 33be 3d12 ddbd b995 d7bd
00000390: bc0c 863c eeb1 8ebd 2ee2 26bc 004f 88bc
000003a0: d0bc 53bd d8c4 18be ae37 93bd d25c 96bd
000003b0: e503 45bd e828 0fbe a7d3 89bd 073f 8dbd
000003c0: c206 70bc 6d25 f5bd ca13 d9bc 2f1c eebc
000003d0: bfac 40bd e1b5 1bbe 06b9 85bd 00d9 84bd
000003e0: 8cd2 72bd 9e94 24be 4a55 a2bd 8827 a4bd
000003f0: dbfd 8cbd 7bb7 6dbe 4034 8dbe f443 35be
-0.16057462 0.019567138 -0.1625521 -0.14167416 -0.19229922 0.03079217 -0.18979208 -0.19326453
-0.05043631 -0.15010099 -0.0704294 -0.07190515 -0.0484954 -0.14913052 -0.06536179 -0.058747664
-0.03704547 0.067420214 -0.045188483 -0.029133296 -0.019522354 0.05508219 -0.0979019 -0.017504686
0.0351035 -0.07564431 0.013548418 -0.0023897788 -0.036048777 -0.13799089 -0.056172423 -0.063657515
0.055805854 0.12936252 -0.07110302 0.09124212 0.00941398 0.025818039 -0.004039432 -0.0077289687
-0.05446103 -0.1551186 -0.0748548 -0.07504469 -0.00060314644 0.0011337969 -0.026759734 -0.030692158
0.052720074 0.21371576 0.1233692 0.27322188 0.04174505 0.021830399 0.0186789 0.014595731
-0.055900585 -0.15141423 -0.0745284 -0.07119563 -0.052671656 -0.141749 -0.068895414 -0.06780457
-0.053523142 -0.14918752 -0.073957965 -0.080480985 -0.043671302 -0.13753633 -0.06183178 -0.06105707
0.002791751 0.01050008 -0.019586066 -0.021521967 -0.069967866 -0.17023948 -0.094340876 -0.10370924
0.061571315 0.029160192 0.04232444 0.039203003 -0.005222331 0.007377743 -0.03695041 -0.048198014
-0.04065794 -0.089869015 -0.0821435 -0.07970758 -0.14828388 0.002260136 -0.15582755 -0.13210292
0.01629314 0.0025758368 -0.008572184 -0.015059047 -0.04517263 -0.15522835 -0.063480414 -0.065554984
0.1316735 -0.21732153 0.04762181 0.12075339 0.009176682 0.07529459 -0.08677462 -0.008065004
-0.065339416 -0.1594922 -0.08991323 -0.08888739 -0.017894262 -0.10054705 -0.0355529 -0.042375255
-0.15168591 0.0059103686 -0.15589926 -0.13757724 -0.062016048 -0.16806109 -0.08639951 -0.08676751
-0.057564493 -0.16219209 -0.07998079 -0.070294134 -0.055638995 -0.14068529 -0.07315989 -0.07637143
-0.04305976 0.014920072 -0.081616476 -0.08897063 -0.052824944 -0.14892206 -0.07106748 -0.07463919
-0.060692642 -0.16124621 -0.0811616 -0.0809199 0.073654264 0.024278063 0.046373446 0.033743087
0.02780925 -0.04891948 0.006237675 -0.008378476 -0.057789847 -0.14682996 -0.07533061 -0.07972399
0.08244901 0.31450033 0.24548 0.13894847 0.009771785 0.007842129 -0.007946357 -0.011222571
-0.001579324 0.03352352 -0.012400888 -0.014460013 -0.04402676 0.059509438 -0.05361747 -0.03306188
-0.032389227 0.00457287 -0.08082996 -0.02925368 0.061356403 -0.13979936 0.006704615 -0.027465349
0.005582276 0.014855746 -0.030632762 -0.043290194 0.19499838 -0.047829393 0.057636987 0.033463858
-0.06370178 -0.15404563 -0.08526556 -0.08340029 -0.05248692 -0.15852526 -0.07226739 -0.07626463
-6.9949856e-05 -0.121642485 -0.014946254 -0.01759636 0.07269983 0.02714425 0.042596225 0.031514954
0.03321703 -0.1301646 -0.021204807 -0.028453737 -0.05658748 -0.15957056 -0.076490305 -0.075604916
0.05233963 0.018569684 0.033686496 0.026883064 -0.052594434 -0.14679061 -0.06949095 -0.06564948
-0.07873724 -0.17494456 -0.10794494 -0.10526604 0.016363494 -0.06967531 -0.010185761 -0.016639233
-0.051693738 -0.1491884 -0.071883544 -0.07341923 -0.048099417 -0.13980448 -0.067298226 -0.06896787
-0.014650049 -0.11970029 -0.026498694 -0.029066173 -0.047039744 -0.152061 -0.06529431 -0.06486702
-0.059282824 -0.16072318 -0.07926424 -0.080153525 -0.068843566 -0.23214523 -0.27578926 -0.17701703

lstm.weight_hh_l0 f4 [256, 64]
00000000: 0d44 bb3b 2be3 7e3b abd4 18bb 2a5f 0dbb
00000010: 70f7 b33b 2ad3 153b b89d ac3b f9a7 0f3b
00000020: 64c6 b0bc c5c2 afbb cfa6 053b b5c8 1e3b
00000030: 7c20 d53c dba1 063b 39a0 093b 0c48 0fbb
00000040: ed75 113b cfff 093b 9de0 9fbb faf9 153b
00000050: 2f2b f0ba ace5 24bb 2e2e 903a 0d0a b4bb
00000060: 71b0 073b 97bf 153b d059 30bb 0b7a 25bb
00000070: 8863 fd3a 2af9 103b c987 b6bb 1ba1 073b
00000080: 853e eaba 8edd 0f3b 84c0 28bb f3b4 11bb
00000090: 2c8d 093b 1dcd 01bb 8ddb a43b 0a8d 16bb
000000a0: cc2c 53bc 025c bbbb c658 aebb 476e ac3b
000000b0: d2e1 4dbb e425 b63b 59b0 21bb 29ff c13a
000000c0: 8ffa 05bb b582 0abb 5325 06bb 84cb daba
000000d0: 40d5 9b3b b10c 0cbb 9eb0 023b a291 053b
000000e0: 505b d0ba 267d 9f3b 757f 0e3b 947f 0e3b
000000f0: 603f 163b 8c2b 10bb 2208 0fbb 1cf2 c5bc
00000100: ac64 013c 30a7 fa3b 062f a2bb 24b9 96bb
00000110: 3aaa df3a 31cb 143b 3735 253b 66ff ab3b
00000120: d5ab 8bbc e261 19bb c00e 9c3b e572 9a3b
00000130: 491f 8d3c ebe7 893b 5962 963b 5bdf 92bb
00000140: 27f6 ad3b 964e 9f3b 50da bbba d819 a93b
00000150: 2962 7ebb ed57 9bbb 9072 963b 899c 01bc
00000160: e667 843b 5913 a43b 9e9e 973b a6d3 74bb
00000170: 0e8b 9a3b ce25 9f3b 5e15 0bbc 1ef4 9f3b
00000180: 1119 91bb 41c0 9c3b 8998 a8bb ed81 93bb
00000190: ca79 953b c50a 8dbb d441 0d3b 6467 a4bb
000001a0: 5799 1fbc 484e 13bb f72a 11bb 9de6 bd3a
000001b0: eeee fbba a0ab 69b9 6071 a2bb 622e 8fbb
000001c0: ce98 9dbb 0896 97bb 29a8 9cbb 4b11 87bb
000001d0: ab44 6139 f8b5 9dbb ec28 7e3b e9bb 993b
000001e0: 577d 96bb f2d5 063b 9112 a03b fa3d 9d3b
000001f0: 66c8 9a3b 49b3 99bb 1aaf 9ebb 799a 55bc
00000200: 7f74 263b a3f8 953a 91ff 0539 e7bb c238
00000210: 4b08 bb3a 12f5 afba 5b41 98b9 3a0f 54ba
00000220: d274 b2bc 7ba2 5339 c96b 88b8 35b8 15bb
00000230: 0a1f 653c 9209 73bb b82a cf37 7e3c 9fb8
00000240: a760 b0b9 4736 cdb9 9715 6239 61d0 4239
00000250: b0d9 8a3b 504b fc3a 3c9f 163a d4b5 0ebb
00000260: ef33 2fbb aa9d 15b9 3663 88bb 7d0d f83a
00000270: 3bf1 2d39 5061 b3ba 0b11 0ebb c0e7 0939
00000280: 60ac 45b8 523d b138 78be 973a 6ba2 81b8
00000290: b45b 9738 3e70 913b 627b 1aba 0949 15b9
000002a0: e0bb 72bc b00f 2bb9 6794 51b9 3883 a83a
000002b0: 8ef9 9c3a 359f ad39 2af1 1f3b 4a66 9a3b
000002c0: 81fa 78b8 204e 0039 5d8e f83a 405d 8c3b
000002d0: aaf1 feb9 fd30 44b7 df7f 72bb eb0e 8436
000002e0: 7e31 3f39 6c9b b0b9 4800 9db8 41bb b7b8
000002f0: af9e 9aba ab28 f337 8502 8338 822b b0bc
00000300: 023a 283b 4cf5 293a f95e fb39 1aed fa39
00000310: f469 df3a 55db 3eba be68 7f39 96c7 a3ba
00000320: fc7a babc 7df3 4bb9 24ce efb9 cb7c 3ebb
00000330: 749a 9d3c 0924 92bb 469a 9bb9 efd0 8239
00000340: 804c 3cba 802f 4bba ea41 71b9 285d 0ab9
00000350: 1b17 a73b daf8 253b 96f9 0439 ebf5 15bb
00000360: b458 5abb e7ab 01ba b49b a2bb 1b0a af3a
00000370: 2007 30b9 2995 e9ba b5f9 11bb 5fb6 5bb9
00000380: b329 bc39 ea55 6bb9 fc36 de3a 26ef 7339
00000390: 4a6d 78b9 70c0 ab3b 8772 05b9 ae56 3639
000003a0: 40bc 99bc f14d 1dba 037a 0bba 72cd ce3a
000003b0: 8249 013a 7a9e 953a 40bf 4a3b 6aa9 a33b
000003c0: 87d3 9739 37de fc39 9b3b 213b 1e7b a43b
000003d0: 6142 6539 1210 aa39 fea6 92bb 9b55 b7b9
000003e0: 36e6 163a 9896 3239 e2f1 d9b9 9773 e5b9
000003f0: 0976 d6ba 0239 bf39 173e dc39 dbf7 d4bc
0.0057148994 0.0038892727 -0.002332012 -0.0021571615 0.0054921433 0.002286146 0.005267825 0.0021920188
-0.021578975 -0.0053637945 0.0020393615 0.0024228517 0.026016466 0.002054325 0.002100004 -0.0021863012
0.0022195533 0.0021057015 -0.004879071 0.0022884593 -0.0018323417 -0.002516131 0.0011000091 -0.005494362
0.0020704533 0.0022849792 -0.0026909001 -0.0025249745 0.0019332031 0.002212117 -0.005570386 0.0020695392
-0.0017871415 0.0021952125 -0.0025749514 -0.0022233098 0.0020988686 -0.0019806095 0.0050310553 -0.002297225
-0.012889098 -0.0057177553 -0.005320641 0.0052621695 -0.0031415117 0.005558716 -0.0024671762 0.0014800775
-0.0020443534 -0.0021135036 -0.0020469024 -0.0016692732 0.004755646 -0.002136987 0.0019941698 0.0020380993
-0.0015896354 0.004867214 0.002174345 0.0021743523 0.0022925958 -0.0021998612 -0.0021824916 -0.024163298
0.007897537 0.007649325 -0.0049494533 -0.004599707 0.0017064281 0.002270412 0.002520872 0.0052489517
-0.01704971 -0.002340429 0.0047625005 0.0047134035 0.017226832 0.004208555 0.0045893607 -0.0044821925
0.0053088847 0.004861663 -0.001433203 0.0051605515 -0.0038815832 -0.004740706 0.0045912936 -0.007910856
0.004040706 0.0050071892 0.004627063 -0.0037357598 0.0047162836 0.0048568016 -0.008488981 0.004881396
-0.004428037 0.0047836606 -0.0051451367 -0.0045015723 0.0045616375 -0.0043042623 0.002155413 -0.005017208
-0.009741149 -0.002247708 -0.0022150853 0.0014488284 -0.0019220987 -0.00022284547 -0.004957363 -0.004369543
-0.0048094755 -0.0046260394 -0.0047807884 -0.0041219345 0.00021483253 -0.004812952 0.0038781716 0.00469159
-0.0045925784 0.0020574299 0.004885026 0.004798648 0.0047235964 -0.004690562 -0.004842651 -0.013037317
0.0025399027 0.0011441897 0.00012779074 9.2856404e-05 0.0014269439 -0.0013424477 -0.00029040393 -0.0008089427
-0.02178422 0.00020183057 -6.505062e-05 -0.0022845392 0.013984451 -0.0037084562 2.4696215e-05 -7.592978e-05
-0.00033641348 -0.00039141087 0.00021561082 0.00018578909 0.004237376 0.0019248519 0.00057457737 -0.0021775858
-0.0026733836 -0.00014268482 -0.0041622175 0.0018924918 0.00016588431 -0.0013685618 -0.002167764 0.00013151672
-4.7128997e-05 8.4514395e-05 0.001157715 -6.181452e-05 7.217322e-05 0.004438429 -0.0005893019 -0.00014236955
-0.014815301 -0.00016313675 -0.00019987077 0.0012856489 0.0011976229 0.0003311575 0.002440522 0.004711901
-5.9361108e-05 0.00012236135 0.0018963326 0.004283577 -0.0004862671 -1.1693916e-05 -0.0037002487 3.9356432e-06
0.00018233617 -0.00033685134 -7.486396e-05 -8.760999e-05 -0.0011796559 2.8986795e-05 6.247036e-05 -0.021505121
0.002566934 0.00064833905 0.0004794521 0.0004786037 0.0017045126 -0.0007280608 0.00024357715 -0.0012495394
-0.022763722 -0.00019450295 -0.0004573922 -0.0029066082 0.019238688 -0.004459862 -0.00029678846 0.000249512
-0.000718303 -0.00077509135 -0.00023008106 -0.00013195409 0.00509919 0.002532533 0.00012681479 -0.0022882174
-0.0033317031 -0.0004946575 -0.004962409 0.0013354452 -0.00016787322 -0.0017820942 -0.002227408 -0.00020953406
0.00035889223 -0.00022443352 0.0016953642 0.00023263376 -0.00023691836 0.005241446 -0.00012726533 0.00017389163
-0.018766522 -0.0006000689 -0.00053206104 0.001577778 0.0004931913 0.0011415028 0.0030936748 0.004994561
0.00028958565 0.00048230749 0.0024602178 0.0050195595 0.0002186387 0.000324369 -0.0044754734 -0.0003496826
0.000575635 0.00017031503 -0.00041569682 -0.00043764405 -0.0016362082 0.00036472833 0.0004200793 -0.025997093

lstm.bias_ih_l0 f4 [256]
00000000: 148c ad3d 6f30 8d3d dbb5 973d 2e84 8d3d
00000010: d966 c13d adb1 cf3e 6bfb ce3d ae39 aa3d
00000020: 050f 353e db27 043e b3bd 8e3d 01ab a23d
00000030: dd15 733d 1f39 9e3d eb65 8f3d 1a19 863d
00000040: cdc4 a33d a000 993d 08dd 1f3e 7b36 9a3d
00000050: d5d5 793d c115 a93d 6463 fa3d f62b d83d
00000060: e363 9b3d 248f 9a3d faec 783e b631 d83e
00000070: b225 993d f7f3 a63d 5855 d13d 27cd 923d
00000080: e22d 9c3d 0526 8b3d 3624 b03d d153 8f3d
00000090: 996e 983d c040 933d 5eba f43d 4eca 833d
000000a0: 850e 28bd 761c f33d e299 fa3d ea3f c93d
000000b0: 6055 ac3e b064 f83d 8dba c13d 51a0 603e
000000c0: 67f6 963d 18ab 913d f41b aa3d 6891 9c3d
000000d0: 50a1 083e 5e46 9b3d f8b3 6a3d daa0 913d
000000e0: 5077 9e3d 6a1e f53d b7d5 933d 81da 8e3d
000000f0: 8c9b 993d 6a16 8e3d 03a9 9e3d 3a76 393e
00000100: 3eae 7dbd 4d26 a1bd f0d1 ddbc 6a8f b4bc
00000110: 7766 dd3c f4cc e8bd 9f36 8a3c cdc1 d9bc
00000120: 59b7 1b3f a370 f0bb 3d96 cfbc ae4e 81bc
00000130: 39e2 bb3d 31a8 68bc f619 e6bc 878d b0bc
00000140: 0a49 01bd 1bcb b9bc 5008 84bc be01 22bd
00000150: 7b2c afbb b222 a5bc 1f85 b7ba c7d0 63bd
00000160: 2705 61bc a0cc cfbc be1c 68bd c80b dfbd
00000170: 0ca3 0cbd 4137 aabc 2930 51bd d63c 08bd
00000180: 7b9e f2bc db4d ccbc 89f6 e9bc 71d5 e0bc
00000190: 8901 f7bc b11b 1cbc e39e 12b8 a59d d4bc
000001a0: 9611 913e fbd9 093c 37b3 83ba ca8d ad3c
000001b0: ec78 c8bd 7a64 ac3c 8b68 abbc f5fa 0bbd
000001c0: b371 fcbc 6cb5 e9bc d9ea 8dbc 3258 7dbc
000001d0: c8e1 683c 9e08 f8bc 3e41 d5bb 6ee5 cdbc
000001e0: 770c 26bd d828 203c 8c5d e5bc 0572 bbbc
000001f0: e8ac 7fbc bf55 c8bc b9f8 ffbc 73bf aa3e
00000200: 1730 22bd 86d5 50bd ad30 2a3d effb 1b3d
00000210: 9508 2f3c 1dd6 083d 7ce2 823c 629e 2dbd
00000220: 317f 35bd 9adb 53bc 6d8f 24bd 9392 e8bc
00000230: 1548 3a3d 25ae bfbc 109b 25bd ce6c 1a3d
00000240: 30ed 31bd ae4f 20bd 0e2c b1bc 715a 3dbd
00000250: 20b2 9a3c 2d17 ed3c 5794 8dbd ab00 413d
00000260: c941 debc aaa2 26bd fbfd 9dbd d69d bdbc
00000270: 8709 38bd c489 0dbd 423f 483d aee1 36bd
00000280: 0faa 2d3d a0e0 26bd 78a3 063d c91f 263d
00000290: 2d5b 25bd bf7a b53c c5d5 883c 9ca2 263d
000002a0: 55f0 d03c 2ace 83bc 331a 42bc 9ee2 623c
000002b0: 7f47 01bd 527f 273d 6502 fc3c 5b92 763d
000002c0: 528f 2f3d c056 273d a7e5 113d cc19 c93c
000002d0: 6e3a 163d d6bb 2f3d 4187 96bc 8b54 24bd
000002e0: b329 453d c0d3 a03c 753a 2cbd 4155 20bd
000002f0: dba3 10bd b58e 233d 19ee 2d3d 2066 0dbe
00000300: b370 bc3d ce3a 9b3d 71a3 ae3d ee95 a03d
00000310: a492 cf3d fa4e d83e 3665 f73d ebd6 c13d
00000320: 02d1 933e 4c21 0d3e 0f3c a23d 504a b13d
00000330: a30a a93e a4a4 a73d f3db a53d f0f4 983d
00000340: 3286 bc3d edfd ad3d bd9f 2d3e dbca b33d
00000350: b8eb 7f3d 8a96 b83d c5a3 073e ac69 ec3d
00000360: 167e a73d d1ae b13d a5ec 7e3e 93a6 e03e
00000370: 7432 ae3d 0a5b bc3d 4f31 e53d aeb5 a93d
00000380: c54b b13d 81de 9e3d af2f c23d 73b3 a53d
00000390: f759 af3d 17a4 963d 1421 0b3e 6306 973d
000003a0: b9ef 9f3e 8055 053e 0339 053e 3099 d73d
000003b0: 62b1 b73e b49c 263e 5513 d43d 1198 683e
000003c0: 05b8 ab3d a9f5 a83d 8fe3 bf3d 104a a03d
000003d0: a5a6 2d3e ba15 b33d 769c 743d 9729 a63d
000003e0: 5523 b73d fb2e 0f3e bc8d a93d 3692 a23d
000003f0: e420 ae3d be2f a33d c5a3 b63d 1fd9 d73e
0.084739834 0.068940036 0.07407733 0.06909977 0.09443445 0.40565243 0.10106548 0.08311783
0.17681511 0.12905829 0.06969776 0.07942773 0.059347022 0.07725739 0.07001861 0.065477565
0.07996521 0.07470822 0.1561166 0.075299226 0.06099494 0.08256102 0.122259885 0.1055526
0.07587411 0.07546833 0.2430915 0.42225426 0.07477893 0.08152001 0.10221356 0.07168036
0.07625939 0.06794361 0.08600657 0.069984086 0.0744297 0.071900845 0.11949609 0.06435071
-0.041029472 0.11870663 0.12236382 0.09826644 0.33658886 0.121285796 0.0945941 0.21936156
0.07371216 0.07112712 0.08306113 0.076449215 0.13342786 0.07581781 0.057300538 0.07110758
0.07737601 0.11968692 0.07218497 0.0697527 0.07500371 0.06937869 0.0774708 0.18111506
-0.06193375 -0.078686334 -0.027077645 -0.022041041 0.027026398 -0.11367217 0.016871748 -0.02658167
0.6082664 -0.007337646 -0.025340194 -0.015784588 0.09174008 -0.014200256 -0.028088551 -0.02155186
-0.031563796 -0.022679856 -0.016117245 -0.039552443 -0.0053458787 -0.020158146 -0.0014001465 -0.055619027
-0.013734139 -0.025366127 -0.056668036 -0.10890919 -0.03433518 -0.0207783 -0.05107132 -0.033261143
-0.029616585 -0.024939468 -0.02855994 -0.027445527 -0.0301521 -0.0095280865 -3.4957087e-05 -0.025954077
0.2833373 0.008413787 -0.0010047917 0.021185774 -0.09788689 0.021044005 -0.020923873 -0.03417488
-0.030815935 -0.028528892 -0.017323898 -0.015462922 0.014213987 -0.030277546 -0.0065080216 -0.025133815
-0.04053923 0.009775363 -0.027998708 -0.022881517 -0.015605189 -0.02445495 -0.03124653 0.3334919
-0.039596643 -0.05098488 0.041550327 0.03808206 0.010683198 0.03340732 0.015977137 -0.042387374
-0.044310752 -0.012930775 -0.040175844 -0.028390205 0.0454789 -0.023398468 -0.040431082 0.03770142
-0.04343909 -0.03913849 -0.021627452 -0.04622883 0.018883765 0.028941715 -0.06913059 0.047119778
-0.027130978 -0.040682472 -0.077144586 -0.023146551 -0.04493096 -0.03455521 0.048888452 -0.04464882
0.04239851 -0.040741563 0.03287074 0.040557656 -0.040370155 0.022153256 0.016703496 0.04068242
0.025505224 -0.016089518 -0.011847067 0.013847975 -0.031562325 0.040892906 0.03076286 0.06019817
0.04286129 0.040854216 0.035619404 0.024548434 0.036676817 0.042903744 -0.018375041 -0.04011969
0.04813547 0.01963222 -0.042047936 -0.039143804 -0.035312515 0.039931018 0.042463396 -0.13808489
0.09201183 0.075795755 0.08527268 0.07841097 0.10135391 0.42247754 0.12079851 0.094648205
0.28870398 0.13782233 0.079216115 0.08656752 0.33015928 0.081856996 0.080985926 0.07468593
0.09205283 0.08495698 0.16955467 0.08778926 0.06248066 0.09013088 0.13246067 0.11543593
0.08178346 0.08675922 0.2489496 0.43877086 0.08505717 0.09197052 0.111910455 0.08286606
0.0865703 0.07757283 0.09481751 0.08090868 0.08562081 0.073555164 0.13586837 0.07374265
0.3123758 0.13020897 0.1301003 0.10527265 0.3587752 0.16270715 0.1035525 0.22714259
0.08384708 0.08249981 0.09369575 0.07826626 0.16958101 0.087443784 0.059719525 0.081134014
0.08942286 0.13982765 0.08278987 0.07938044 0.08502367 0.079680905 0.08917955 0.42157838

lstm.bias_hh_l0 f4 [256]
00000000: 148c ad3d 6f30 8d3d dbb5 973d 2e84 8d3d
00000010: d966 c13d adb1 cf3e 6bfb ce3d ae39 aa3d
00000020: 050f 353e db27 043e b3bd 8e3d 01ab a23d
00000030: dd15 733d 1f39 9e3d eb65 8f3d 1a19 863d
00000040: cdc4 a33d a000 993d 08dd 1f3e 7b36 9a3d
00000050: d5d5 793d c115 a93d 6463 fa3d f62b d83d
00000060: e363 9b3d 248f 9a3d faec 783e b631 d83e
00000070: b225 993d f7f3 a63d 5855 d13d 27cd 923d
00000080: e22d 9c3d 0526 8b3d 3624 b03d d153 8f3d
00000090: 996e 983d c040 933d 5eba f43d 4eca 833d
000000a0: 850e 28bd 761c f33d e299 fa3d ea3f c93d
000000b0: 6055 ac3e b064 f83d 8dba c13d 51a0 603e
000000c0: 67f6 963d 18ab 913d f41b aa3d 6891 9c3d
000000d0: 50a1 083e 5e46 9b3d f8b3 6a3d daa0 913d
000000e0: 5077 9e3d 6a1e f53d b7d5 933d 81da 8e3d
000000f0: 8c9b 993d 6a16 8e3d 03a9 9e3d 3a76 393e
00000100: 3eae 7dbd 4d26 a1bd f0d1 ddbc 6a8f b4bc
00000110: 7766 dd3c f4cc e8bd 9f36 8a3c cdc1 d9bc
00000120: 59b7 1b3f a370 f0bb 3d96 cfbc ae4e 81bc
00000130: 39e2 bb3d 31a8 68bc f619 e6bc 878d b0bc
00000140: 0a49 01bd 1bcb b9bc 5008 84bc be01 22bd
00000150: 7b2c afbb b222 a5bc 1f85 b7ba c7d0 63bd
00000160: 2705 61bc a0cc cfbc be1c 68bd c80b dfbd
00000170: 0ca3 0cbd 4137 aabc 2930 51bd d63c 08bd
00000180: 7b9e f2bc db4d ccbc 89f6 e9bc 71d5 e0bc
00000190: 8901 f7bc b11b 1cbc e39e 12b8 a59d d4bc
000001a0: 9611 913e fbd9 093c 37b3 83ba ca8d ad3c
000001b0: ec78 c8bd 7a64 ac3c 8b68 abbc f5fa 0bbd
000001c0: b371 fcbc 6cb5 e9bc d9ea 8dbc 3258 7dbc
000001d0: c8e1 683c 9e08 f8bc 3e41 d5bb 6ee5 cdbc
000001e0: 770c 26bd d828 203c 8c5d e5bc 0572 bbbc
000001f0: e8ac 7fbc bf55 c8bc b9f8 ffbc 73bf aa3e
00000200: 1730 22bd 86d5 50bd ad30 2a3d effb 1b3d
00000210: 9508 2f3c 1dd6 083d 7ce2 823c 629e 2dbd
00000220: 317f 35bd 9adb 53bc 6d8f 24bd 9392 e8bc
00000230: 1548 3a3d 25ae bfbc 109b 25bd ce6c 1a3d
00000240: 30ed 31bd ae4f 20bd 0e2c b1bc 715a 3dbd
00000250: 20b2 9a3c 2d17 ed3c 5794 8dbd ab00 413d
00000260: c941 debc aaa2 26bd fbfd 9dbd d69d bdbc
00000270: 8709 38bd c489 0dbd 423f 483d aee1 36bd
00000280: 0faa 2d3d a0e0 26bd 78a3 063d c91f 263d
00000290: 2d5b 25bd bf7a b53c c5d5 883c 9ca2 263d
000002a0: 55f0 d03c 2ace 83bc 331a 42bc 9ee2 623c
000002b0: 7f47 01bd 527f 273d 6502 fc3c 5b92 763d
000002c0: 528f 2f3d c056 273d a7e5 113d cc19 c93c
000002d0: 6e3a 163d d6bb 2f3d 4187 96bc 8b54 24bd
000002e0: b329 453d c0d3 a03c 753a 2cbd 4155 20bd
000002f0: dba3 10bd b58e 233d 19ee 2d3d 2066 0dbe
00000300: b370 bc3d ce3a 9b3d 71a3 ae3d ee95 a03d
00000310: a492 cf3d fa4e d83e 3665 f73d ebd6 c13d
00000320: 02d1 933e 4c21 0d3e 0f3c a23d 504a b13d
00000330: a30a a93e a4a4 a73d f3db a53d f0f4 983d
00000340: 3286 bc3d edfd ad3d bd9f 2d3e dbca b33d
00000350: b8eb 7f3d 8a96 b83d c5a3 073e ac69 ec3d
00000360: 167e a73d d1ae b13d a5ec 7e3e 93a6 e03e
00000370: 7432 ae3d 0a5b bc3d 4f31 e53d aeb5 a93d
00000380: c54b b13d 81de 9e3d af2f c23d 73b3 a53d
00000390: f759 af3d 17a4 963d 1421 0b3e 6306 973d
000003a0: b9ef 9f3e 8055 053e 0339 053e 3099 d73d
000003b0: 62b1 b73e b49c 263e 5513 d43d 1198 683e
000003c0: 05b8 ab3d a9f5 a83d 8fe3 bf3d 104a a03d
000003d0: a5a6 2d3e ba15 b33d 769c 743d 9729 a63d
000003e0: 5523 b73d fb2e 0f3e bc8d a93d 3692 a23d
000003f0: e420 ae3d be2f a33d c5a3 b63d 1fd9 d73e
0.084739834 0.068940036 0.07407733 0.06909977 0.09443445 0.40565243 0.10106548 0.08311783
0.17681511 0.12905829 0.06969776 0.07942773 0.059347022 0.07725739 0.07001861 0.065477565
0.07996521 0.07470822 0.1561166 0.075299226 0.06099494 0.08256102 0.122259885 0.1055526
0.07587411 0.07546833 0.2430915 0.42225426 0.07477893 0.08152001 0.10221356 0.07168036
0.07625939 0.06794361 0.08600657 0.069984086 0.0744297 0.071900845 0.11949609 0.06435071
-0.041029472 0.11870663 0.12236382 0.09826644 0.33658886 0.121285796 0.0945941 0.21936156
0.07371216 0.07112712 0.08306113 0.076449215 0.13342786 0.07581781 0.057300538 0.07110758
0.07737601 0.11968692 0.07218497 0.0697527 0.07500371 0.06937869 0.0774708 0.18111506
-0.06193375 -0.078686334 -0.027077645 -0.022041041 0.027026398 -0.11367217 0.016871748 -0.02658167
0.6082664 -0.007337646 -0.025340194 -0.015784588 0.09174008 -0.014200256 -0.028088551 -0.02155186
-0.031563796 -0.022679856 -0.016117245 -0.039552443 -0.0053458787 -0.020158146 -0.0014001465 -0.055619027
-0.013734139 -0.025366127 -0.056668036 -0.10890919 -0.03433518 -0.0207783 -0.05107132 -0.033261143
-0.029616585 -0.024939468 -0.02855994 -0.027445527 -0.0301521 -0.0095280865 -3.4957087e-05 -0.025954077
0.2833373 0.008413787 -0.0010047917 0.021185774 -0.09788689 0.021044005 -0.020923873 -0.03417488
-0.030815935 -0.028528892 -0.017323898 -0.015462922 0.014213987 -0.030277546 -0.0065080216 -0.025133815
-0.04053923 0.009775363 -0.027998708 -0.022881517 -0.015605189 -0.02445495 -0.03124653 0.3334919
-0.039596643 -0.05098488 0.041550327 0.03808206 0.010683198 0.03340732 0.015977137 -0.042387374
-0.044310752 -0.012930775 -0.040175844 -0.028390205 0.0454789 -0.023398468 -0.040431082 0.03770142
-0.04343909 -0.03913849 -0.021627452 -0.04622883 0.018883765 0.028941715 -0.06913059 0.047119778
-0.027130978 -0.040682472 -0.077144586 -0.023146551 -0.04493096 -0.03455521 0.048888452 -0.04464882
0.04239851 -0.040741563 0.03287074 0.040557656 -0.040370155 0.022153256 0.016703496 0.04068242
0.025505224 -0.016089518 -0.011847067 0.013847975 -0.031562325 0.040892906 0.03076286 0.06019817
0.04286129 0.040854216 0.035619404 0.024548434 0.036676817 0.042903744 -0.018375041 -0.04011969
0.04813547 0.01963222 -0.042047936 -0.039143804 -0.035312515 0.039931018 0.042463396 -0.13808489
0.09201183 0.075795755 0.08527268 0.07841097 0.10135391 0.42247754 0.12079851 0.094648205
0.28870398 0.13782233 0.079216115 0.08656752 0.33015928 0.081856996 0.080985926 0.07468593
0.09205283 0.08495698 0.16955467 0.08778926 0.06248066 0.09013088 0.13246067 0.11543593
0.08178346 0.08675922 0.2489496 0.43877086 0.08505717 0.09197052 0.111910455 0.08286606
0.0865703 0.07757283 0.09481751 0.08090868 0.08562081 0.073555164 0.13586837 0.07374265
0.3123758 0.13020897 0.1301003 0.10527265 0.3587752 0.16270715 0.1035525 0.22714259
0.08384708 0.08249981 0.09369575 0.07826626 0.16958101 0.087443784 0.059719525 0.081134014
0.08942286 0.13982765 0.08278987 0.07938044 0.08502367 0.079680905 0.08917955 0.42157838

lstm.weight_ih_l1 f4 [256, 64]
00000000: 2439 2a3d e74e 313d c810 2fbc 148c 3bbc
00000010: df5e 533c b1f9 d3bc 4411 bbbc ab8d f13b
00000020: 3ebe 41bd 9228 0b3c f5e9 2c3c f2ed 0d3c
00000030: bac4 2c3d cfe2 ea3a e47c 3c3c 2f77 1dbc
00000040: 219b 213c 7ffb 133c 4616 3c3c 99ae 573c
00000050: 9800 2b3b b264 33bc 9628 9e3c 9a21 29bd
00000060: 05a6 853b 824d 2b3c ec55 9a3c da2a e23c
00000070: 64f3 473c 4cef 9a3b 6105 2dbd 242c 4f3c
00000080: 7410 5cbc 3e2a 403c 12f6 8ebc be13 41bc
00000090: ae37 323c cf36 ce3a 7655 aebc ed1b 2dbc
000000a0: 2cbd b2bb 78d7 013c 8caf 823b c981 323c
000000b0: b2a8 c63c 0556 32bd ee16 19bc 22c1 80bc
000000c0: bdab 43bc c44a 37bc f88f 29bb 9910 a439
000000d0: 4c72 1bbd f96d 58bc aa58 32ba 30ed 4e3c
000000e0: b40e 35bc 428c aabc f2a2 1c3c 2b0b 2c3c
000000f0: ddaf 5e3b 2f4f 2cbc c0fc 34bc 3beb aa3c
00000100: 56af 4b3a 4f5c 9e3a 91c9 b2ba 458d 46bb
00000110: 5673 f3bb 0a3b d5bc e9d7 a4bc 6906 5f39
00000120: dc14 b9bc d905 913c 0d89 5c3b 1df6 05bc
00000130: 7c0a 2a3b a10c 58bc b566 8e3b 075f 8abb
00000140: a64a 353b 4b2b 733b a251 9a3c 6609 733b
00000150: 497e 7a3c d174 d53b 9620 513b 1dfa adba
00000160: 8e14 12bc 6a93 ac3a c7ab 0dbc 0690 cf3c
00000170: 6b7a b43b 3f71 4cbb 68f6 e53a 8dd6 bd3b
00000180: 668d ddbb 8b79 9e3a daa3 a73b 8138 31bb
00000190: eb5d 583b 64f8 923c 1eba b3bc 8a38 91bb
000001a0: 0f12 18bc 6d40 903c fe2f 813c 7832 0abc
000001b0: 096b eb3c 414d debc 851d 113c 0ce3 503c
000001c0: c732 9bbb 2988 58bb e082 913b a69c 823c
000001d0: eaee dcbc fb20 27bb 18b0 71bc 97af 1c3b
000001e0: 1483 e2bb e4e0 93bc 0000 9c3a c69b 2f3b
000001f0: 54a1 35bb dce0 66ba 7c29 37bb 4fcc 40bc
00000200: 89fe 6c3c 61c6 913c 2f8b 1ebc 40f7 0fbc
00000210: baf7 0ebb 4d5c b5bb a93b bdbb a3a4 143c
00000220: b776 2cbb 50c9 983b 5e9a 1f3c 1352 703b
00000230: 1c95 8eb9 c43a f8b9 559b 293c 21b7 1ebc
00000240: fa75 293c c986 1a3c 6444 c83b c75e 2b3c
00000250: c166 373b 9329 a3bb 24de f93b 173c 86bc
00000260: 9779 363b 2de7 163c 7fc0 2dbb ac38 1e3b
00000270: e0f2 2a3c 1382 db3b cb89 82bc 8c51 2e3c
00000280: 6055 22bc 41c7 273c 3884 02bc 425c 2bbc
00000290: cd11 263c 7341 453b 865e c3bb 68e2 23bc
000002a0: 593a 4cbc 0bed ab3b 840f 6d3b df55 25bb
000002b0: 2ecc ef3b c397 36bc 0a44 5cbb f635 753b
000002c0: 5638 2ebc 6b0a 24bc 7a41 b4bb c800 183b
000002d0: dd87 2ebc 40a3 2bbc 858f e0ba df75 263c
000002e0: e518 36bc 55ec cabb 1b92 1f3c 1787 273c
000002f0: 01e8 da3b 2558 11bc 37f6 25bc 9244 f13a
00000300: 70bb 783c 5e28 943c f8ad 1ebc ca0c 0ebc
00000310: c42d dbba 66f9 d0bb 4e4c acbb 1546 1e3c
00000320: 9b48 51bb c76b 913b b582 233c f00d 833b
00000330: 8d00 8b3a 5a50 e6b9 fb96 2a3c 4a78 20bc
00000340: 7142 2d3c 26e6 223c fe38 c53b d86a 2c3c
00000350: 242b 293b f700 a6bb 1ba2 ef3b b3f7 87bc
00000360: 97f4 503b 6dc0 143c 8568 5dbb 30c6 643b
00000370: 802c 2e3c 75e1 e23b 580a 86bc 450b 373c
00000380: 0cd7 29bc 284d 313c 49a3 f9bb b9b6 2dbc
00000390: d60a 283c 83ad 2b3b 2521 c0bb 324f 1fbc
000003a0: 21fa 5dbc 2f46 a23b af7e 5b3b a845 17bb
000003b0: e489 003c 9681 31bc 6193 6abb ded1 793b
000003c0: 729e 32bc 17d6 23bc 3e5e c2bb f830 053b
000003d0: 1fa1 2abc 0668 2ebc ec58 c3ba 04fe 283c
000003e0: 9b38 3ebc 07e5 c8bb 6509 1f3c 61ec 253c
000003f0: 8fdf e63b 07bb 1cbc 28ab 2bbc c721 7cbb
0.0415584 0.043288138 -0.010685153 -0.011446971 0.012901037 -0.025875898 -0.022835381 0.0073716245
-0.04730057 0.008493559 0.010553827 0.008662688 0.0421798 0.0017920377 0.011504386 -0.009610935
0.009863646 0.009032129 0.01147992 0.013164186 0.0026092883 -0.010949301 0.019306462 -0.04129181
0.004078629 0.010455491 0.018839799 0.027608324 0.012204025 0.0047282334 -0.042241458 0.012644801
-0.013431657 0.011728821 -0.01745132 -0.011784492 0.010877533 0.0015732887 -0.021280985 -0.01056574
-0.00545468 0.007924907 0.003988212 0.010895201 0.024250362 -0.043539066 -0.009343846 -0.015717093
-0.011942801 -0.011187259 -0.0025873166 0.00031292884 -0.0379508 -0.013209813 -0.0006803373 0.012629792
-0.011050869 -0.020818833 0.009560334 0.0105007095 0.0033979334 -0.010516926 -0.011046588 0.02086412
0.00077699625 0.0012081953 -0.0013640394 -0.0030296606 -0.0074295206 -0.026029129 -0.020122485 0.00021269325
-0.022592954 0.017702984 0.0033651025 -0.008176354 0.002594619 -0.013186605 0.0043457397 -0.004222754
0.0027662902 0.0037104662 0.018837754 0.003708446 0.015288898 0.0065141697 0.0031910292 -0.0013273392
-0.008916033 0.0013166491 -0.008646912 0.02533723 0.0055077574 -0.003119543 0.0017544748 0.0057933987
-0.006761241 0.0012090666 0.005115968 -0.0027041736 0.0033014964 0.017940708 -0.021939334 -0.004431789
-0.009281649 0.017608846 0.015769955 -0.008434884 0.028737562 -0.027136447 0.008857136 0.012749445
-0.0047362777 -0.0033040142 0.0044406503 0.015943836 -0.026969392 -0.0025501836 -0.014751457 0.002390837
-0.0069125984 -0.018051572 0.0011901855 0.002679573 -0.0027714567 -0.00088073104 -0.002794831 -0.011767461
0.014464983 0.01779479 -0.009676739 -0.008786976 -0.0021815137 -0.0055346848 -0.0057749343 0.009072456
-0.0026315877 0.00466267 0.009741394 0.0036670014 -0.00027195446 -0.0004734603 0.010351975 -0.009687216
0.010343069 0.009431549 0.0061116684 0.010459608 0.002798483 -0.0049793213 0.007625358 -0.016386075
0.002784347 0.00921039 -0.0026512442 0.0024142666 0.0104338825 0.0066988557 -0.015934845 0.0106395595
-0.00990805 0.010240377 -0.007966094 -0.010459008 0.01013608 0.0030098825 -0.005962196 -0.01000271
-0.012465083 0.0052467636 0.0036172578 -0.0025228185 0.0073180413 -0.011144581 -0.003360989 0.0037416196
-0.010633549 -0.010012249 -0.0055009695 0.0023193825 -0.0106525095 -0.010475934 -0.0017132616 0.010159939
-0.011114334 -0.0061927238 0.009739424 0.010225079 0.006680489 -0.008871113 -0.010129503 0.0018407276
0.015181407 0.018085655 -0.009685032 -0.008670041 -0.0016722013 -0.006377387 -0.0052581197 0.009660264
-0.0031934145 0.004437897 0.009979893 0.003999464 0.0010605023 -0.00043928885 0.010411973 -0.009794304
0.010574923 0.009942567 0.006018757 0.01052352 0.0025813067 -0.005066033 0.0073130256 -0.016597604
0.0031884068 0.009079081 -0.0033784222 0.0034908168 0.010630727 0.006923849 -0.016362354 0.01117212
-0.010366213 0.010821618 -0.007618342 -0.0106026465 0.01025649 0.002619595 -0.005863326 -0.0097234715
-0.013548405 0.004952214 0.0033492257 -0.002308229 0.007845376 -0.010834118 -0.003579341 0.0038119475
-0.010902034 -0.009999773 -0.0059316447 0.0020323377 -0.010414391 -0.010644918 -0.001490382 0.010314468
-0.0116101755 -0.006130818 0.00970683 0.010127158 0.007045693 -0.009566075 -0.010477819 -0.0038472281

lstm.weight_hh_l1 f4 [256, 64]
00000000: 3dd2 f23b 84e3 813a cb98 60bb 592c 64bb
00000010: 94fa 383c 4941 37bb 3406 8ebb 2266 83bb
00000020: ab04 703b 466e 663b 51ea dc3a a241 9bbb
00000030: 1d1d 4b3b 466d 3e3c 74b7 95bb c088 7bbb
00000040: 0b75 55bb d586 383c 0143 79bb 54fc 683b
00000050: 229e 5cbb 55a9 65bb 4d3d 67bb c777 83bb
00000060: 83c3 4e3b c399 71bb 2c9a 3dbb 0542 223b
00000070: 791e 8f3b 6d79 f5bb c77a 3d3c 4d70 3bbc
00000080: 9093 74bb 33f0 3f3b d667 1e3b 1fd5 72bb
00000090: 825e 35bb bc41 4e3b 50db 583b ccfa 833b
000000a0: 7499 50bb 162b 413c 08fe 7e3b dd7a 9435
000000b0: 8021 9ebb 3192 973b c093 49bc c041 123b
000000c0: d0b3 88bb 4df9 3b3c a43d f6bb f77d 2c3b
000000d0: 538b 773b f44f 783b 28ae 1abb 7eaa 37bc
000000e0: fa20 aa3b 627e 5b3b 18bf 5cbb cdb1 82bb
000000f0: 3eed 3d3b 9861 603b 3dae 663b c99e 1d3b
00000100: 35b0 08bb 872d 693b 95cf fbbb 5a13 01bc
00000110: 65f6 b73b a85f e5bb 2218 8fbb af78 0bbc
00000120: 5588 053c 8542 fb3b df02 353b 92d9 9ebb
00000130: d7c7 ed3b cc70 c43b 49c4 11bc 1474 09bc
00000140: 4b27 f6bb 8f56 bf3b e609 06bc 9fd9 713b
00000150: e8fd 69bb 5cd3 ffbb 66a7 02bc 2fb8 0cbc
00000160: 822d 713b 7a45 03bc 6cf2 e7bb c8ea df3b
00000170: 0d20 113c f063 28bc 1785 b63b c613 c3bb
00000180: 86c4 07bc 19e7 ed3b 5fa3 dd3b 53f9 0abc
00000190: bcbd 63bb 80a7 fc3b d585 6c3b f1bd 0b3c
000001a0: 1071 f6bb 0d1c cc3b 453d 063c b49b 6fbb
000001b0: 7c77 9fbb 82e1 163c 0d1a d7bb 7861 df3b
000001c0: 594b 0bbc 5cf5 c13b de72 99bc fcb3 db3b
000001d0: 6dc2 083c cb4c 073c 7752 d9bb 7c06 bdbb
000001e0: f2d2 1d3c 4a05 f23b bd22 fdbb 5a8d 09bc
000001f0: 5451 db3b 5349 033c 1800 043c ffc3 22bb
00000200: 97c7 693b fbc1 7d3b b969 dfba 1a04 ddba
00000210: 211d 523b 26ae d5ba 2753 bc3a f756 deba
00000220: 1210 e53a fbb6 d63a 4ebe 02bb 9403 893a
00000230: 19ca e53a 75f7 503b 9956 02bb e3fa d8ba
00000240: 4828 d2ba 74c6 553b 0709 dbba 13ab acba
00000250: fcc3 c83a 22cc daba bb16 dcba e395 d8ba
00000260: 3b20 b8ba fb49 e4ba 8500 ceba 0596 c53a
00000270: 83af ea3a ec08 90bb c1ab 543b 561f 5fbb
00000280: bda8 ddba f4c4 c93a 10ed cd3a f36d e5ba
00000290: 4349 e83a 6088 d33a 4fb1 ccba 0a96 d23a
000002a0: abe3 d6ba ad09 4f3b 9f32 d73a 0e8f 7dba
000002b0: 56ea a93a e41d 003b cb06 5ebb 00d9 cd3a
000002c0: d449 eaba a9f2 553b 15dc f8b9 3639 c63a
000002d0: de91 d53a 7330 e33a a7e6 c0ba d1b5 44bb
000002e0: 0c69 fb3a ad87 ea3a c293 c9ba 2f4f d9ba
000002f0: 2469 e63a 1022 d63a ca3a cb3a 733a 243b
00000300: 0bcb 6d3b a862 803b 8d4f ddba 862b daba
00000310: 30b0 3d3b 33e0 d0ba 78ce b33a 924f deba
00000320: fd11 df3a 3147 cf3a 08a2 f8ba 2197 6a3a
00000330: 948e e43a d0c2 3f3b b8d7 ffba 7e5a d6ba
00000340: 98c4 ccba 01ac 423b 078b d6ba 3ec8 9cba
00000350: 4228 bf3a ca65 d7ba 0cf1 daba d978 d2ba
00000360: 1c84 afba 7821 e1ba d86d ccba f862 c63a
00000370: d5ed e43a c2f3 95bb 2d52 433b a94f 4bbb
00000380: fcf2 d8ba 7448 c53a 5163 cc3a 1710 e1ba
00000390: 9de6 e33a 57c8 ce3a 702b c0ba c10f cd3a
000003a0: 50d0 d2ba d9f9 393b 62ff d23a 042c 55ba
000003b0: f294 9f3a f886 fc3a 2ecc 4abb 7383 cf3a
000003c0: a180 e6ba f8e7 403b 7e2c 03ba f2f9 c53a
000003d0: 5da9 d23a 3ac9 dd3a 3cd7 bbba 373b 30bb
000003e0: 5c49 f73a 102a e43a 8b5a c6ba 7326 d6ba
000003f0: 1225 e63a bd39 d43a f9aa c73a 4fd3 283b
0.0074103163 0.0009909724 -0.003427076 -0.0034816472 0.011290211 -0.0027962497 -0.0043342356 -0.004009978
0.0036623876 0.0035160943 0.00168545 -0.0047380487 0.0030992695 0.0116227325 -0.0045689885 -0.003838107
-0.0032570984 0.011262615 -0.0038034322 0.003555079 -0.003366359 -0.0035043557 -0.003528434 -0.0040120813
0.003154964 -0.003686533 -0.0028931005 0.002475859 0.0043676463 -0.0074912817 0.011564917 -0.011440349
-0.00373194 0.0029287457 0.0024170778 -0.00370533 -0.002767474 0.0031472286 0.0033089705 0.0040277
-0.0031829746 0.011790058 0.0038908739 1.1062617e-06 -0.004825771 0.0046255817 -0.012303293 0.0022317022
-0.004171826 0.011473012 -0.0075146724 0.0026320198 0.0037772253 0.0037889453 -0.002360234 -0.011210082
0.0051919194 0.0033492078 -0.0033683237 -0.0039884807 0.0028980519 0.0034237858 0.003519907 0.0024050942
-0.002085698 0.0035580115 -0.007684658 -0.007878149 0.0056140893 -0.0069999285 -0.0043668905 -0.00851266
0.00815018 0.007667842 0.002762012 -0.0048477137 0.007256489 0.0059948917 -0.008896896 -0.008389492
-0.0075120083 0.005839176 -0.008181071 0.0036903394 -0.0035704318 -0.0078071784 -0.007974481 -0.008588835
0.0036800806 -0.00801217 -0.0070784595 0.006833408 0.008857739 -0.010277733 0.0055700648 -0.005953285
-0.008286601 0.007260215 0.00676386 -0.008482295 -0.0034750542 0.0077103972 0.0036090512 0.008529172
-0.0075208023 0.00622893 0.008193319 -0.0036561312 -0.0048665386 0.009209039 -0.006564385 0.006817039
-0.008501851 0.0059191417 -0.01873153 0.0067048054 0.008347136 0.008258055 -0.006632145 -0.0057685953
0.009632813 0.0073858844 -0.0077250884 -0.008395517 0.0066930447 0.008013087 0.008056663 -0.002483606
0.0035671943 0.0038720358 -0.0017045058 -0.0016862184 0.003206082 -0.0016302511 0.0014368043 -0.0016963173
0.0017476103 0.0016381437 -0.0019949856 0.0010453337 0.0017531543 0.0031885777 -0.0019888042 -0.0016554262
-0.0016033733 0.0032619508 -0.0016711064 -0.0013173543 0.0015317197 -0.0016692916 -0.0016791442 -0.0016524162
-0.0014047691 -0.0017417067 -0.0015716708 0.0015074617 0.001790509 -0.004395595 0.0032451006 -0.0034045777
-0.001691125 0.001539378 0.0015710909 -0.0017504081 0.0017722029 0.0016138665 -0.0015616807 0.0016066444
-0.0016394755 0.003159146 0.0016418285 -0.0009672501 0.0012963514 0.0019549066 -0.003387856 0.001570493
-0.0017874786 0.0032645857 -0.0004746622 0.0015123251 0.0016294082 0.0017333165 -0.0014717177 -0.0030015598
0.0019181087 0.0017893218 -0.0015379118 -0.0016579385 0.0017578942 0.0016337056 0.0015505191 0.0025059253
0.0036284353 0.0039180107 -0.001688467 -0.0016645051 0.0028944127 -0.0015935957 0.0013718149 -0.001696097
0.0017018911 0.0015814063 -0.0018969188 0.00089489116 0.0017437511 0.0029260404 -0.0019519245 -0.0016353873
-0.0015622554 0.0029704573 -0.0016368338 -0.0011961532 0.0014584141 -0.0016433534 -0.0016703918 -0.0016057744
-0.0013390812 -0.0017176112 -0.0015596701 0.0015135696 0.0017465899 -0.0045761773 0.002980362 -0.0031022823
-0.0016551907 0.00150515 0.0015593563 -0.0017170933 0.0017387454 0.0015776259 -0.0014661383 0.0015644954
-0.001608381 0.002837768 0.0016097839 -0.0008131864 0.0012175126 0.0019266298 -0.0030944454 0.0015832022
-0.0017585942 0.002943514 -0.0005003883 0.0015104397 0.0016072203 0.0016920932 -0.0014331113 -0.0026890764
0.0018866467 0.0017407555 -0.0015133185 -0.0016338363 0.0017558655 0.0016191524 0.0015233449 0.0025760715

lstm.bias_ih_l1 f4 [256]
00000000: 332f 9e3e 504b 653e d728 853d 7314 7f3d
00000010: 6221 173e 0761 883d 2a35 0f3e 1fd8 7b3d
00000020: 99e0 8e3d b0ba 893d 2c31 123e 4171 c43d
00000030: 8c35 833d 2005 253e 3c72 813d fb13 833d
00000040: 3de1 883d b307 1b3e 46d0 6d3d ad81 cf3d
00000050: eec6 0b3e 4557 863d 509f 843d a46e 873d
00000060: 2417 123e 3075 883d 118f 803d 1f82 833d
00000070: dcec 853d 2b69 5f3e a671 253e db36 1b3e
00000080: 52c3 893d cf9f 873d 9759 893d cbd5 8c3d
00000090: 71b8 1d3e 69e8 813d 0a75 033e 5760 7e3d
000000a0: fecb 873d b476 193e 5ae1 7c3d 89fa 983d
000000b0: c2be 083e 6d77 8a3d a5ff 1b3e 5eb9 8a3d
000000c0: c0bb 843d b45a 173e f5f0 c53c 99e5 7b3d
000000d0: 4041 7d3d 61d3 843d 6c27 873d 62be 0d3e
000000e0: 842f 793d df4f 893d 3009 7e3d 63e1 803d
000000f0: 3e72 7e3d 541a 823d ea89 853d f7de 933e
00000100: 6e48 30bd 4280 763d 3765 8dbc 0bfe 80bc
00000110: bb19 c1bc e8c4 92bc e2b7 37bd 3d99 43bc
00000120: 0b7c 98bc 7707 98bc c74c 13bd 2aaa 0ebd
00000130: edee 84bc dd43 14bd 7e79 52bc 9c26 77bc
00000140: a99c a2bc bb7b e4bc f89c 4bbc e191 0bbd
00000150: ff4b 1ebd e13f 9bbc 051c 7cbc 0b7b 87bc
00000160: fbb4 3ebd 67ce 8cbc 88a9 84bc 7b95 88bc
00000170: ff47 7dbc eece 8f3e 00c9 12bd 487e c9bc
00000180: 9541 96bc 7b3f a1bc 96ba 9cbc ab46 8bbc
00000190: a848 32bd 07cf 6bbc 4a40 07bd 4f17 65bc
000001a0: 7d4f 83bc fcdd d1bc c71c 80bc a2d0 f5bc
000001b0: 6bd3 35bd c531 82bc 66b7 d1bc fba2 98bc
000001c0: dc4d 6bbc 413e ccbc 4228 27bd 6a9d 77bc
000001d0: 6b84 4abc 79e2 72bc 9df1 a6bc 56f5 a9bc
000001e0: 934f 19bc edd2 9fbc 0f21 6cbc a755 7cbc
000001f0: b292 91bc 11b2 65bc abaf 8abc afd5 e7bc
00000200: 27f2 7bba 9db0 bbbb 9bae 34b9 c94a 2e38
00000210: a3d8 eeba eb84 4b3a 76a6 e5b9 da4e b3b9
00000220: 3c53 0f39 2524 0a3a 5278 3d3a f4c5 f2ba
00000230: 77f1 a6b9 86c0 4dba cf9e 36b7 adc9 1cba
00000240: 4a90 1aba ee32 9eba 80ca 423a e10c ae3a
00000250: 6769 b3b9 ec5d 0cba 6d2c 0d39 d8ba e1b8
00000260: 39c1 55ba 8e44 47b9 1896 83b9 22d7 c6b9
00000270: 1665 41b9 c203 9a3b e810 a7ba 5d60 d93a
00000280: 12bf 7ab9 b101 c7b9 6124 10ba 0d78 5b39
00000290: 8d4d f2b9 8236 87ba fef0 1939 3634 e338
000002a0: e41e a939 15d9 95ba be0f ee39 4008 e8bb
000002b0: c949 01ba 5eed 8b3a 7c8b c23a 9b65 18ba
000002c0: a799 13ba e64e ddba ff08 9ebc d70a beb9
000002d0: 2495 ad38 99a7 ae39 96a3 243a db58 da3a
000002e0: 18d0 8939 7cbd 5739 a1e0 04b9 d79e 92b9
000002f0: 719b 4038 9717 23ba 0b24 aab9 6f34 b2ba
00000300: 85bd a73e dc19 703e a98c 8a3d 8fa7 843d
00000310: 5e0e 233e d314 8d3d 8807 153e 42a3 823d
00000320: 6661 943d decf 8e3d b2e4 183e 4d23 cc3d
00000330: 2af9 873d e43d 313e 516b 873d c7b9 883d
00000340: 5495 8d3d ae3e 273e ae67 773d cd81 d73d
00000350: 7ff5 103e a8ed 8a3d c3ea 893d 2578 8c3d
00000360: 783f 183e b597 8d3d dc82 853d 800f 883d
00000370: 2feb 8a3d 55c7 653e 6b7b 323e 7db2 283e
00000380: a4cc 8e3d abf5 8c3d 3131 8e3d 0ee4 913d
00000390: 52e1 233e 5a86 863d fa06 093e 7d11 843d
000003a0: a4c6 8c3d b4fa 253e ae5c 833d a9d1 9e3d
000003b0: a838 0e3e f537 903d bcf0 283e b464 8f3d
000003c0: 3e8e 893d 810c 243e d865 f43c aa39 823d
000003d0: bbe3 833d 7a2f 8a3d 4d63 8b3d 2e09 193e
000003e0: d778 823d 9f26 8e3d 87af 833d 6bb7 853d
000003f0: 2a7f 843d 5940 873d 2247 8a3d 370b 9a3e
0.30895385 0.2239201 0.0650193 0.06227536 0.14758828 0.066591315 0.13985124 0.061485406
0.06976432 0.06725061 0.1427657 0.09591914 0.06406698 0.16115236 0.063206166 0.06400295
0.06683586 0.15139656 0.058059953 0.101321556 0.13650104 0.06559614 0.06475699 0.066129
0.1426664 0.06662977 0.06277288 0.06421303 0.06539318 0.21817462 0.16156635 0.15157644
0.067267075 0.06622278 0.06706541 0.06876715 0.1540239 0.06343157 0.12837616 0.062103596
0.06630705 0.14986688 0.06173835 0.07469661 0.13354018 0.0676106 0.1523424 0.06773637
0.06481123 0.14780694 0.024162749 0.06149826 0.061829805 0.0648563 0.06599316 0.13842157
0.06083633 0.06704687 0.06202048 0.06292989 0.06212067 0.06352678 0.06520446 0.28881046
-0.043037824 0.06018091 -0.017260177 -0.015746137 -0.02357184 -0.017916158 -0.0448531 -0.01193839
-0.018613836 -0.018558247 -0.035961892 -0.03483025 -0.01622721 -0.036197532 -0.012846349 -0.015084889
-0.019850092 -0.02789103 -0.012427561 -0.034074668 -0.038646694 -0.018951358 -0.01538754 -0.016538164
-0.046559315 -0.017188264 -0.01619412 -0.01667284 -0.01545906 0.28087562 -0.03583622 -0.024596348
-0.018341819 -0.01968359 -0.01913194 -0.01700147 -0.04352632 -0.014392621 -0.033020295 -0.013982608
-0.016029114 -0.025618546 -0.015638722 -0.03000671 -0.044391077 -0.015892873 -0.025600147 -0.018632403
-0.014361825 -0.024932029 -0.040809877 -0.015113214 -0.0123606725 -0.014824503 -0.020378882 -0.020746868
-0.009357351 -0.019509757 -0.014412179 -0.0154012805 -0.017770145 -0.014019505 -0.016929468 -0.028300134
-0.00096109736 -0.005727841 -0.00017231183 4.1554482e-05 -0.0018222522 0.0007763642 -0.00043802307 -0.0003420029
0.0001366855 0.0005269668 0.0007227707 -0.0018522129 -0.00031841893 -0.00078488176 -1.0885021e-05 -0.000598098
-0.00058961345 -0.0012069622 0.00074306875 0.0013278985 -0.0003422007 -0.00053545716 0.00013463358 -0.000107636384
-0.00081540976 -0.00019003658 -0.00025098096 -0.0003792579 -0.00018443572 0.004700155 -0.0012746127 0.0016584505
-0.00023913037 -0.00037957498 -0.0005498585 0.0002093019 -0.00046215617 -0.0010315927 0.00014680994 0.000108339285
0.00032257207 -0.0011432493 0.00045406626 -0.0070810616 -0.00049319543 0.0010675599 0.0014842595 -0.000581348
-0.0005630501 -0.0016884475 -0.019291399 -0.000362477 8.2770624e-05 0.00033312736 0.000628048 0.0016658561
0.00026285718 0.00020574586 -0.00012672182 -0.00027965635 4.5921133e-05 -0.00062214717 -0.0003245178 -0.0013595949
0.3276178 0.23447365 0.0676511 0.06477272 0.1592345 0.068887375 0.14553654 0.06378795
0.0724514 0.06973241 0.1493099 0.099676706 0.06639321 0.17308766 0.06612266 0.06676059
0.06913248 0.16332504 0.06040161 0.105228044 0.1415615 0.067836106 0.0673423 0.06858853
0.14867961 0.069137014 0.065191 0.066435814 0.06783139 0.2243932 0.17429893 0.16474338
0.06972626 0.06882795 0.06942976 0.07123576 0.16003922 0.06568594 0.13381568 0.06448648
0.06873825 0.16208917 0.064141616 0.07754833 0.138888 0.07041923 0.16498083 0.070016295
0.06716584 0.16020395 0.02983372 0.06358655 0.064399205 0.06747337 0.068060495 0.14944908
0.063707046 0.0694096 0.064299636 0.06529125 0.06469567 0.0660407 0.06751849 0.3008668
