best_model.pth (torch, 104290 bytes, 36 tensors)

models.0.rbf.centers f4 [16, 4]
00000000: bc15 cd3f 426f 21bf 8b27 833e 2877 ee3e
00000010: 1954 92bf e91e 36bf 4e4b 4a3f d2c5 0f3e
00000020: 0e52 ccbf dcb4 383f 90ef 713e f4a2 6c3f
00000030: 618a afbf 82a7 283f 2277 06bf 98f1 07bf
00000040: a44f d3be 20ce f33e 5d70 7fbf dcd9 16bf
00000050: 395a 17bd 160a 9fbf 26fc fabe 163e f13f
00000060: 4a16 9d3e e1c0 60bf 3421 393f 9ea6 1b3f
00000070: 3edd fc3e ad3c 7e3f 8c13 823d a5ee dfbe
00000080: 98cb a3bf f81d da3f 2743 ab3f e3ca 89be
00000090: df45 e93e 59d4 fabe 787f 7ebe 1f8a 32bc
000000a0: 3313 efbe 13e2 cabf 7482 3ac0 b20e 363f
000000b0: 8a4e 523d 8854 0d40 7142 ba3d b2c5 4c3f
000000c0: 064c a7be 760f f8bb 2ccb a6bf 3072 993d
000000d0: 3c48 e4bd 6b28 043f 3090 b03d 13e0 16be
000000e0: 3466 d2bf 3f1d bb3e 42b9 843f 915b f2bf
000000f0: 8363 87bf 7a18 e83e 7ee0 44be f94e 323f
1.6022258 -0.6306039 0.25616106 0.46575284 -1.1431915 -0.71140915 0.79021156 0.14040306
-1.5962541 0.7215097 0.23626542 0.92436147 -1.3714105 0.65880597 -0.5252553 -0.5310302
-0.41271698 0.47618198 -0.9978083 -0.5892618 -0.036951277 -1.2424953 -0.490205 1.8847072
0.30681068 -0.8779431 0.7231629 0.6080111 0.49387544 0.99311334 0.063513845 -0.4373676
-1.2796507 1.7040396 1.3379868 -0.26912603 0.4556112 -0.48990133 -0.24853313 -0.010897188
-0.46694335 -1.5850242 -2.9142122 0.71116173 0.051344432 2.2082844 0.09094704 0.7998916
-0.3267519 -0.0075702025 -1.3030753 0.07492483 -0.1114659 0.5162417 0.086212516 -0.14733915
-1.643744 0.3654575 1.0369036 -1.8934194 -1.0577244 0.45331174 -0.19226262 0.6965175

models.0.rbf.log_sigma f4 [16]
00000000: 2443 613c 6a13 083c fecd e3ba 5a4d afbc
00000010: c8c0 db3b 7ad8 af3c d0f6 723b eb50 53bb
00000020: bda6 cebb 71a2 84bb 2f23 c73b b821 c9bb
00000030: 0fa7 543c 6506 75bb 4904 063c 877b 1f3b
0.013748918 0.00830541 -0.0017380116 -0.021399189 0.006706331 0.021465529 0.0037073381 -0.0032244276
-0.006306498 -0.004047685 0.0060771923 -0.006138053 0.012979283 -0.0037387845 0.008179733 0.0024335103

models.0.rnn.weight_ih_l0 f4 [48, 16]
00000000: 4df3 ccbd c35a c5bc a459 b13d fd51 da3d
00000010: ac77 a63c b651 c0bd 4832 9d3d 5794 07be
00000020: e016 8dbc d3fc 0fbc 7658 6b3d 101c 1dbd
00000030: 5052 de3d ebca b53d 1812 503d 3726 bfbd
00000040: 8baf d43c 536c e5bd 824c 8d3d ee0d c83d
00000050: 60bd 253b df71 91bd da8e 22bd 6c31 6e3d
00000060: 44f2 11be d04d f43d f124 443d b914 e4bd
00000070: 686f 013d 83c9 c63d 0984 243e cb89 c23d
00000080: fe4b 423d 700d 3ebd 0c4f 2bbd 6112 e63d
00000090: 7be1 b9bd 1590 4b3c eaa9 213d 656b 8f3d
000000a0: c1c9 2f3e 46c2 473d 975e 1cbe 2386 b83d
000000b0: f33c e6bd 6118 a1bd ce7b b13d 18ae 9bbd
000000c0: 3c44 b53d 974d 2abd 3c0b e7bd bbc6 38bd
000000d0: 315c f9bd 5091 ef3d cb27 723c 89ef 52bd
000000e0: 5e91 ce3c 9b97 e73d bf9a 183c a019 32bd
000000f0: f2de 053d e0ea ecbc 84bf 183e 9b82 1a3e
00000100: 8eda 813d 5cd4 1c3e 2775 cbbd 2972 043e
00000110: 146d c23d 4e09 1b3e c871 d0bc e6cb c3bd
00000120: 15fc 3c3d 15bd 7a3d 4457 aebd 80fe b9bd
00000130: e2aa 963c b322 a23d c8ff d6bd d011 89bc
00000140: 2ff1 e73d 9520 d5bc f748 9a3c ef3e 963d
00000150: 7e58 563d 740e 023e 76bc c03d a42e 0a3e
00000160: 69a9 783d 3cd5 553d 86d7 2b3d f6bf 6bbb
00000170: ad57 a4bd c343 8fbd f235 cfbd db00 363d
00000180: f3f1 0c3e da45 d8bc 7aff cd3d 2c33 b83c
00000190: 8610 153e 1336 dc3d 78f1 e93d d907 f6bd
000001a0: 69d6 f2bd 301d cb3d 477b e2bc 26c2 003d
000001b0: 1aeb e8bd 7ee2 813c 4754 71bc 6b1c 2abd
000001c0: ee43 dfbc f02c 4bbd 1570 a3bd c722 37bb
000001d0: ee89 f83d 5420 f13c 142f 0e39 3c6e 4bbd
000001e0: 5a00 903d 6b79 093c f994 45bd 0394 a43b
000001f0: f8e0 103e 2b01 113e c827 f03d ae61 8abc
00000200: bdae e53d d937 ce3d 5562 5ebd 3b21 c7bd
00000210: 883a c0bc 85af 6ebd 3ad7 efbc 96cc b0bc
00000220: e28e 21bd c0b0 b03d f055 83bc 1e9a 90bd
00000230: 31fc 8cbd 9859 aebd ad8c c5bd 0c4f 6fbd
00000240: 6ebe 0e3e 972f 82bd a95a 8abc 6f24 8abc
00000250: f9cd e93d 3bb5 65bd 7393 753d 2f67 0b3e
00000260: cd7c 00be e669 e83d 9fab febc 5678 eebd
00000270: 6670 283e 1b4f 023e c436 0f3c 6dda e43d
00000280: c200 bf3d 0913 a83c dc27 133e 99b2 78bd
00000290: 0d11 1fbe d760 873d 17de d93d 91c6 c53d
000002a0: 7b60 253d 6508 ac3d 464d 1b3d 8721 a2bc
000002b0: 20fe e43c 9e1f bcbd cc01 51bc 6301 9abd
000002c0: 50c2 3f3d a459 17be 73ea 5bbd 5c49 853d
000002d0: 9ad5 f83c 4801 543d 04f0 fc3d c721 93bd
000002e0: b0e1 873d a401 10be fd19 203c 0feb e93b
000002f0: 8c5a 833a 1c3e c33d b876 c6bd 5acf 8dbc
00000300: 5970 99bd 9034 e83c 0413 15bd a24f a1bd
00000310: 8835 dc3d ad7b 153e fee4 22bc 73fe 9bbd
00000320: 838d 3d3d e8d2 113e 9ce6 e13d 1cc6 853d
00000330: 1682 fbbb 7c15 053e 1e09 163e 7a44 ffbb
00000340: 510c 913d 54ba a9bd b4a5 e13d 5fdf e3bd
00000350: a0e6 423c 2a37 3bbc d723 84bd 8640 963c
00000360: 758f a2bd d2fb 7e3d 442f 093d 0f49 dabd
00000370: 4fb2 243d b6ed 2bbd 6482 783d af80 86bd
00000380: 9395 273d 1870 123e 0bbc 3cbd 5e77 f3bd
00000390: c69c 6bbd 326d d33d 17b9 4d3c 73c6 10be
000003a0: 89a0 e53c 06b1 f13c c9b6 1ebd a196 a93d
000003b0: a822 663c 5027 90bd fc37 883d d9d2 003e
000003c0: 42b8 09bd 7bc3 e5bd e9a4 08bd 8355 dcb8
000003d0: bc57 dcbd bffe aa3d c685 06be 6355 833d
000003e0: 354a 513d 396f 05be 2bc2 11be 9e4d 55bc
000003f0: 1180 5dbc 04c3 d2bc 46cb 5c3c 6963 aabd
-0.100073434 -0.02409113 0.08659676 0.10660169 0.020320736 -0.09390585 0.07675606 -0.13240181
-0.017222822 -0.008788305 0.05745741 -0.03835684 0.108555436 0.08876594 0.050798506 -0.09333461
0.025962612 -0.11202302 0.06899358 0.09768282 0.0025289878 -0.07101797 -0.039687015 0.0581526
-0.14252573 0.11928904 0.047886793 -0.11136765 0.031600386 0.09706404 0.16065992 0.09498938
0.047435753 -0.046399534 -0.04182343 0.11233974 -0.0907621 0.012424489 0.039468683 0.07002906
0.17166807 0.048769258 -0.15270458 0.090099595 -0.11242094 -0.07865978 0.08666192 -0.07601565
0.08850905 -0.0415779 -0.1128144 -0.0451114 -0.12175787 0.11697638 0.014779995 -0.05149797
0.0252158 0.11308213 0.009314238 -0.04348147 0.03268332 -0.02892059 0.14916807 0.15088885
0.06340514 0.15315384 -0.099344544 0.12934174 0.09493461 0.15140268 -0.02544488 -0.09560375
0.04613884 0.06121548 -0.08512738 -0.09081745 0.01839203 0.079167746 -0.10498005 -0.016732126
0.11325299 -0.026016513 0.01883362 0.073362224 0.052330486 0.12700826 0.09410946 0.13494354
0.060708437 0.05220531 0.041953586 -0.0035972572 -0.08024535 -0.069953464 -0.10117711 0.04443441
0.13764171 -0.026400495 0.10058494 0.022485338 0.14557084 0.10752501 0.1142301 -0.120132156
-0.11857302 0.099176764 -0.027646674 0.031435154 -0.11372967 0.01585507 -0.014729566 -0.041531008
-0.027254071 -0.049603403 -0.07980362 -0.0027944313 0.12135683 0.02943436 0.00013559713 -0.049665675
0.07031317 0.008390765 -0.048237775 0.005022527 0.14148319 0.14160602 0.11726338 -0.01689228
0.11214969 0.10069246 -0.054292995 -0.09723135 -0.02346541 -0.058272857 -0.029277433 -0.02158193
-0.039442904 0.086274624 -0.01603219 -0.070606455 -0.06884039 -0.085131824 -0.096459724 -0.058424994
0.1393983 -0.06356733 -0.016888933 -0.016863076 0.11416239 -0.056081038 0.05995507 0.1361358
-0.12547608 0.113483235 -0.031087695 -0.11644046 0.16449127 0.12725489 0.0087410845 0.11174474
0.093263164 0.02051689 0.14370674 -0.0607172 -0.15533848 0.066102676 0.106380634 0.09657014
0.040375214 0.08400039 0.03791549 -0.019791378 0.027953207 -0.09185718 -0.012756776 -0.07519796
0.04681617 -0.14780289 -0.053690385 0.06508133 0.03037529 0.051759034 0.12350467 -0.07184177
0.06634843 -0.14063126 0.009771821 0.007138617 0.0010021492 0.09533331 -0.096906126 -0.017310787
-0.07492132 0.028345376 -0.036395088 -0.07876517 0.10752398 0.1459796 -0.009942291 -0.07616892
0.046277534 0.1424061 0.110303134 0.06531927 -0.0076754196 0.12996477 0.14651915 -0.0077901455
0.07082427 -0.082874924 0.110179335 -0.11126589 0.011895806 -0.011426726 -0.064521484 0.018341314
-0.079375185 0.062251873 0.03349234 -0.10658466 0.04020911 -0.041974746 0.060671225 -0.06567513
0.04091413 0.14300573 -0.04607777 -0.11888002 -0.057522558 0.10323562 0.012556336 -0.14138202
0.02803065 0.029503357 -0.038748536 0.08280683 0.014046349 -0.07038748 0.06651303 0.12580432
-0.033622988 -0.112189256 -0.033360396 -0.00010506345 -0.107589215 0.0834937 -0.13136968 0.064127706
0.05109616 -0.1303071 -0.14234225 -0.013018994 -0.013519303 -0.025727756 0.013476199 -0.08319742

models.0.rnn.weight_hh_l0 f4 [48, 48]
00000000: b7b9 96bd 41f8 77ba 4e44 5cbd 330b 1cbc
00000010: 530a 9e3d e7f5 573d 807b 1fbd 301f 12be
00000020: ce29 f83d 124d 823c 7b2c 92bd d115 20be
00000030: 361d cfbd b5fd 183e 763f 9cbd 36ed 3cbd
00000040: 0da5 bfbc 41dc c7bc 2276 d63d 0906 21bd
00000050: e50f 49bc 127d a73d 1015 d83c 1976 0bbb
00000060: c217 0c3e f823 b23d 484b ffbd 8cfa 2cbc
00000070: 1fae a4bc 9a9c 21bd 8a3e 04be 99e1 09be
00000080: eb15 acb8 6c35 a93d 2112 02be 49f9 9dbd
00000090: 4bca 723d bf1c d33d 4f04 b5bc 3e04 25be
000000a0: 936d 183e 51bd 3b3d 4cd7 a23d ef63 d53d
000000b0: 5da1 af3d 1526 053e 8273 21be 0a5e f9bd
000000c0: 2a43 093e 60dc d9bb 890e dabc 292c dd3b
000000d0: bdba bdbd f5db 85bd 74b9 7cbd 5001 8d3c
000000e0: 7983 0b3e cb9b e33d f13d 463d 09bd 063e
000000f0: 893b 00be 65ca e7bd 0bf9 1c3c 1085 c2bc
00000100: b7be af3d 76c1 69bc 1334 98bd ed23 3d3c
00000110: 6eca a13d 6e79 123e 7ed9 983c 7509 43bd
00000120: 62c6 c7bc cca9 e6bd de36 0cba 273e 003e
00000130: aaaa eabd 201b 013d 795e 523c 516a 16be
00000140: c0fc a2bd b3a8 3fbd a01c 28bd aaef 89bd
00000150: f390 85bc a17b fabc 1847 b13d f348 cc3c
00000160: 915a e9bd 2138 4fbd d7e7 7a3c 12da 173e
00000170: 4b84 033e 511a 2abd 3a00 d63d d836 d43d
00000180: e264 a93d fb85 69bd 4c9e 193b f80d 123d
00000190: 85e5 4abd 4455 463c 8b2b 883d b33f d03d
000001a0: a7a9 8cbc a756 683d c530 ff3d 31c3 8a3d
000001b0: 8704 ecbd cb2d df3d 37c5 413c 17c2 c2bd
000001c0: 4586 52bd 4caf dbbd 9d24 f0bd 0a40 9c3d
000001d0: 2227 0b3e bab4 6dbc 82fa 203d d663 1c3d
000001e0: 81f4 4e3d cc0e 68bd 2ab9 9b3d 5edc 433d
000001f0: 02fb 89bd 43a3 00be 3e88 e23d 3ba2 993c
00000200: 19a6 adbc f92a 01be 62a3 ee3b 703b 803d
00000210: 1852 edbc 845b 63bd 1d11 59bc 7581 20bd
00000220: ba8c 94bd 392e 883d 8de9 273d 8d41 c7bc
00000230: 1f89 fcbd 2caf 443d aca3 efbd c1b0 f33d
00000240: 90dd c4bd 1d5c 3f3d 8fe7 f6bd 7d12 c8bd
00000250: bee4 91bd 865e 80bd aa3b e23d b69a 65bd
00000260: a40d 5fbc 5751 a0bd e6b3 f23c b95e 433d
00000270: a717 233d e16a 993d 9661 603c e2bc bdbd
00000280: 5755 bcbd 3dad d83d 4184 ba3c 021d f23d
00000290: 3b60 9f3d af39 77ba ba97 d5bd 4c69 a1bd
000002a0: 40c3 13bd cb96 35bd 6f2a 973d f043 1bbe
000002b0: e268 99bd 3e5d 143d ff30 e73d 2a6f 05bd
000002c0: f050 113e 4285 0fbe 10c9 c63c 5dc8 693c
000002d0: 52af 073e df46 943c 3505 cd3c 71ed 173d
000002e0: f08e 423b b65b f73c 2867 293d 446c ea3d
000002f0: 4bb1 69bb 2f74 1cbd 41fa 0d3e 7617 14be
00000300: 9e32 ccbc 3a48 d6bd 687a 1f3c 3ca5 bf3d
00000310: 6f5a 003e fcd1 0b3e cae2 113e 8307 32bc
00000320: 501e ef3c 5339 a23c dd07 c6bc ae68 21be
00000330: 0e55 38bd 5056 eabd cf29 4dbd b962 933c
00000340: 59c4 91bd b743 283e 9a59 c93d c16e ba3d
00000350: 64ae d03d 5cef e3bd fd64 8ebd 5071 cdbc
00000360: 6a66 20bd 2942 f8bd f53a 8dbd 99b3 833c
00000370: 6bd7 0f3e 3000 c03c 4a0e a63c adef a13d
00000380: c53f 103e 1db3 013e 4ae2 aabc 4e64 3f3d
00000390: a0b0 5c3d edcf e73d 2e8f 023c 67f0 e2bd
000003a0: 2112 fbbd 686c ab3d 4e0f f0bd 64a0 263b
000003b0: 6c8e 86bc a0d9 5cbd 78b4 01be ab51 e93c
000003c0: b7d2 3a3d fb36 1d3e f2a2 f9bd 6e59 c53c
000003d0: 9970 2ebd 6b7c 34bd a021 063e 12a4 2f3d
000003e0: 1d49 6c3c 0b34 e13c 317e 05be c280 cebd
000003f0: b4fd 8dbc 4320 1d3e 00c4 2b3d e446 94bd
-0.07359641 -0.0009459295 -0.053776078 -0.0095241545 0.07716813 0.052724745 -0.03893614 -0.1426971
0.121173486 0.01590589 -0.0713739 -0.15633322 -0.101129934 0.14940532 -0.07629292 -0.04612466
-0.023394132 -0.024397017 0.10471751 -0.039312396 -0.012271856 0.08178152 0.02637723 -0.0021280108
0.13680938 0.08698267 -0.12465531 -0.010557782 -0.020102559 -0.039455988 -0.12914482 -0.13464965
-8.205682e-05 0.082621425 -0.12702228 -0.07713563 0.059274953 0.10308217 -0.022096781 -0.161149
0.14885549 0.045834843 0.07951221 0.104194514 0.085756995 0.13002808 -0.15766719 -0.1217614
0.13404527 -0.006648585 -0.026618259 0.006749649 -0.09264133 -0.06536094 -0.0617003 0.01721254
0.13624372 0.111136995 0.048398916 0.13158049 -0.12522711 -0.113179006 0.009580861 -0.02374509
0.08581298 -0.014267316 -0.07431807 0.01154421 0.078999385 0.14304134 0.018658396 -0.04761644
-0.024386588 -0.11262855 -0.0005348752 0.12523709 -0.11458333 0.03152001 0.012839907 -0.14688994
-0.079583645 -0.046791743 -0.041042924 -0.067351654 -0.016304469 -0.030576529 0.08656138 0.024937129
-0.11394227 -0.050590638 0.015314064 0.14829281 0.12843435 -0.041529004 0.10449262 0.10362023
0.08271195 -0.05701254 0.00234403 0.035657853 -0.049535293 0.01210529 0.0664893 0.101684
-0.01717074 0.056723263 0.12460474 0.06775511 -0.11524301 0.10897406 0.011826805 -0.09509676
-0.05139758 -0.107267946 -0.117257334 0.07629402 0.13589147 -0.014508421 0.039301403 0.03818115
0.050526146 -0.056654736 0.076036766 0.04781758 -0.06737329 -0.1256228 0.110611424 0.018754115
-0.021197366 -0.12614049 0.0072826603 0.06261337 -0.02896981 -0.055507198 -0.013248709 -0.03918596
-0.07253404 0.06649441 0.040994216 -0.02432325 -0.12330841 0.04801862 -0.1170114 0.118989475
-0.09612572 0.046718705 -0.12055885 -0.09769151 -0.07123707 -0.06268029 0.11046536 -0.056055747
-0.013614092 -0.07828014 0.029626798 0.047697756 0.03981748 0.07491089 0.013695141 -0.09264542
-0.09195965 0.105799176 0.022768142 0.11821939 0.077820264 -0.0009430898 -0.1042933 -0.07881412
-0.036074877 -0.04433326 0.073811404 -0.15162635 -0.07490708 0.036221735 0.11288642 -0.032576717
0.14191031 -0.14015678 0.024265796 0.014268962 0.13250473 0.0181002 0.025026897 0.037091676
0.0029687248 0.030195098 0.041358143 0.11446431 -0.0035658653 -0.03819674 0.13864996 -0.14462075
-0.02492648 -0.10462995 0.009733774 0.09357688 0.12534498 0.13654321 0.1424667 -0.010866049
0.029189259 0.019802725 -0.024173671 -0.15762588 -0.04500299 -0.11442244 -0.0500887 0.01799141
-0.071175285 0.16432081 0.09831543 0.09103156 0.10189512 -0.111296386 -0.06952856 -0.025078446
-0.03916017 -0.12121994 -0.06896011 0.01607685 0.14047019 0.02343759 0.020270485 0.07907043
0.14086826 0.12665983 -0.020859856 0.046726517 0.05387938 0.113189556 0.007968707 -0.11081009
-0.12259317 0.08370286 -0.11721669 0.002542519 -0.016425334 -0.05391848 -0.126665 0.028481325
0.04561111 0.15353005 -0.121892825 0.024090495 -0.04258785 -0.044063967 0.13098764 0.04288108
0.014421728 0.027490636 -0.1303642 -0.10083152 -0.01733289 0.15344338 0.041934967 -0.07240084

models.0.rnn.bias_ih_l0 f4 [48]
00000000: 8fd2 c43d ae67 08bd 4d39 1abd 9615 a6bd
00000010: e4da 7dbc 0a6b 433d 7e2e 943d 6928 b43d
00000020: 1402 56bb f1eb 4abd 08f5 e13d ac08 06be
00000030: cc42 043e 8ed5 f63c 5ad6 9b3d ecd8 b8bd
00000040: 66cd eb3a 0914 07be 4053 0abe 65c7 4cbc
00000050: 0c91 60bd 8942 133e 696a 013e 1918 bcba
00000060: da5c 273d 2fcf 0bbd 0d38 82bd 2a27 7cbd
00000070: 82c7 03be 0192 c7bd f32a b4bd 48c5 033e
00000080: bec7 da3d 3d31 a93d 78bd 9ebd 1102 cbbd
00000090: 2034 31bd d700 513d 1451 cbbb 2d16 05bd
000000a0: c6ee 0dbd 2b35 80bb fead d43b 0f7f 603d
000000b0: 4f22 fcbd edd6 b53c b8c0 e0bd d428 c3bd
0.09610473 -0.033302 -0.037652303 -0.08109586 -0.015494082 0.047709502 0.0723543 0.0879677
-0.0032655047 -0.049541418 0.11033064 -0.13089246 0.12916106 0.030131128 0.07609244 -0.090257496
0.0017990291 -0.13191237 -0.1350832 -0.012498711 -0.054825827 0.1438085 0.12638249 -0.0014350443
0.040860035 -0.034133133 -0.06358347 -0.061560787 -0.12869075 -0.09744645 -0.087972544 0.12868226
0.10682629 0.082613446 -0.07750982 -0.099125035 -0.0432626 0.05102619 -0.0062047336 -0.03249185
-0.03465154 -0.003912588 0.006490468 0.054808673 -0.12311231 0.022197211 -0.10974258 -0.09529272

models.0.rnn.bias_hh_l0 f4 [48]
00000000: a5e5 1f3d 185e a53c cfd8 463d eca0 03be
00000010: dabf 86bd 9f72 8ebc 2a7a bbbd cb3c 0bbe
00000020: b58c f5bd 3b4d 8cbd 5428 b53c b788 c33d
00000030: 8165 23bb 2c6d 5cbd 2276 bfbd d6a0 003e
00000040: 3856 223b c265 b5bd 33b2 da3c 022a d0bd
00000050: edae d73c 543c 03be 5db6 843d e2e3 cbbb
00000060: 2528 09be 40ef e23d b4eb 11be 9c36 d2bd
00000070: f5bd b23d 5a68 c8bb 3959 cdbc 3454 0bbe
00000080: 73d8 773d ae76 89bd cc38 a03d 71cb 093d
00000090: 78ed f9bd 24a7 04bd 8f4b c4bd eae5 2abd
000000a0: 374a ddbd d5e2 fa3c 2a9c 04be 2bd8 b03d
000000b0: 9a5e a53d 6bfe bc3d 29d3 eb3d cf55 d2bd
0.039037365 0.020186469 0.04854661 -0.12854356 -0.065795615 -0.01738864 -0.0915416 -0.1359741
-0.11989728 -0.06850668 0.022113957 0.09547561 -0.0024932327 -0.053815052 -0.09348704 0.12561354
0.0024770629 -0.088572994 0.0266963 -0.10164262 0.026328528 -0.12815982 0.064800955 -0.006222234
-0.1339422 0.110807896 -0.1425007 -0.10264322 0.08727638 -0.0061159553 -0.025066959 -0.1360634
0.060509156 -0.067120895 0.07823333 0.033641282 -0.12203497 -0.03238596 -0.09584724 -0.04172317
-0.10805171 0.03062574 -0.12950197 0.08634981 0.080746844 0.09228214 0.11514885 -0.10270273

models.0.rnn.weight_ih_l1 f4 [48, 48]
00000000: 3cba 84bd 09ad a43d 74b3 9b3d b537 5bbd
00000010: 0007 693d a53f 00be f7d6 083d b72f cdbd
00000020: 5508 e8bd f579 7ebc 1386 923d 56dc d43d
00000030: 5703 f13d 6d36 c9bd ba2d 35bd beda 32bc
00000040: ccc6 efbd 71ea d9bc bede f4bd ac72 583c
00000050: 0181 0b3e 4fc6 b5bd 1598 613d 70ca 263e
00000060: 3e9f d2bd 543e 23bd 1823 ecbc 41c0 7fbd
00000070: 2dbf 04bc acfe 3dbd a43f 3e3d 5dc9 fabd
00000080: 2d68 f43d 495c 9e3d d0b4 adbd a625 c5bd
00000090: 0efe e9bd c03a b4bd 68d3 493d c5a3 b5bd
000000a0: 333e 033e 7041 acbd 94cd 6e3d 2ed3 18bd
000000b0: 68af e1bd 7dee 46bc e8b5 efbd 34b5 503d
000000c0: a956 503d 9b90 67bd 996d 593c 7ce2 163d
000000d0: c74d bbbd ebc0 403d 4e4c b33d c971 bcbd
000000e0: 351f c13d 0d68 a93d 7d0a a1bd 1561 083e
000000f0: 6eea 0ebe baa2 df3d b6c4 8b3a 8621 e23d
00000100: 5f2f 3d3d 4403 acbd 240c 383d 47ef febb
00000110: 3c0c 0bbc ad46 ff3d 4aed b6bd fca5 5abc
00000120: f1cf 153c 4ac1 5ebc 8ad8 66bd d8a4 803c
00000130: 7cad 0a3e 95e4 23bd 13dd e8bd 8060 09be
00000140: 1ab8 a739 5cec 093c 128f 92bd c55c c03d
00000150: 3666 f7bd b7d4 a1bc 38ab 28be c454 483d
00000160: fb7e dd3d 59e1 0bbe 315b bb3d 3050 bebb
00000170: 6c6f c53d cad1 25bd 134f 013e 68fd 6ebd
00000180: f049 e1bd 0bb7 8f3d 7e8d e53d 382d 97bd
00000190: 0131 00be e274 d3bc e50f f0bc 01b8 40bd
000001a0: fd83 25be 2f02 133d 1f7a d63d d4b1 893a
000001b0: 32c2 0ebe 0e8a b73d 55e4 adbd 7419 b93d
000001c0: 6c33 223d 0acf 64bd 2fed 37bd 2998 a9bd
000001d0: 0951 b43d 34b4 ef3d 6f89 0bbe 2843 173d
000001e0: 5ad7 b0bd ad0c d93d fee5 04be a3eb b63d
000001f0: 2c23 273d 94e1 e4bb ed64 29bd 8bc9 febd
00000200: 1325 183d 2404 f6bc 53cd 72bd 4fcb 18bc
00000210: eaab 97bd 913c cfbd 0b85 11be 4eea f9bc
00000220: 9f0d 07bd bff8 363d 37f3 d7bd 642f a7bc
00000230: 4364 efbc 4bf9 cbbc 7cbe 9fbd 61ab 84bd
00000240: e0d1 75bb 6257 033d d3c6 773d 9be7 d6bd
00000250: c939 2e3d 6e22 a1bd 5f76 c23d 377e 203e
00000260: 416e dcbd 6e33 c2bd 8b0c fb3d 4fae 993c
00000270: 95bf 593c 4340 71bd 2ae8 d63c 075e b23d
00000280: 3f5e e5bd 7f10 67bb aec2 c63c 9964 be3d
00000290: 5882 dbbd c497 b9bd 6d37 d53d f4ae b9bd
000002a0: e620 87bc 57a6 09be 5870 f7bd 32b2 2cbd
000002b0: 5354 b43d 5567 a9bd 23e3 763d 963f edbd
000002c0: e048 ed3d b0f1 ac3d 6294 073e 887a ce3c
000002d0: d650 eabd 4488 01be 72e7 6cbb e517 b23d
000002e0: c315 01be e299 643d d754 0dbb 3892 adbd
000002f0: d1ab 5bbd fd50 5d3c b137 9abd dad8 853d
00000300: 7f2f f7bd 216e 2abb 2460 9a3c 5628 373d
00000310: 5be3 2cbe bdb8 0f3e 1c85 023e 9ab5 e73d
00000320: 8b5a 083c 0d75 02be 8f2d 573d 08dc 0ebd
00000330: 9f66 0b3e a1a1 0bbe be4b 1cbc b416 a5bd
00000340: 9e72 67bd 1225 d73d 3095 40bb c81e b03d
00000350: f261 2cbd a66c 8d3d f44b 123e 7810 fb3d
00000360: ef24 21be ab3c 1fbd 0f8d 0e3e f2da 0f3d
00000370: b698 b2bd a89a cbbd 1665 f4bd 4824 793c
00000380: 4c57 693d 8b49 f7bd b74a c5bd d981 0cbe
00000390: 5474 45bd 652c 26be bb4e 29be 6ac6 53bd
000003a0: efdd e23d 4639 87bd 54ec e63d 3d79 88bc
000003b0: 2c8a 503c 5726 9cbd 3591 8bbd acd1 a6bd
000003c0: 1da4 cebd a6c3 823d 0948 3c3c 8e04 9e3c
000003d0: abcc b8bd af5b 7cbc 92c3 f7bd 3bf6 9d3d
000003e0: e6ee fcbd c125 03be c5f2 fd3d e91e 5bbc
000003f0: 52da a5bd 0cd4 b23d 32e1 f7bd b176 86b8
-0.06480834 0.08040816 0.07602587 -0.053519923 0.05689144 -0.12524278 0.03340813 -0.100188665
-0.11329714 -0.0155320065 0.07154479 0.10393588 0.11768215 -0.09824834 -0.04423306 -0.01091641
-0.11707839 -0.026601048 -0.11956547 0.013210934 0.1362343 -0.08875715 0.055076677 0.16288161
-0.10284279 -0.039854363 -0.028825328 -0.062439207 -0.0081022205 -0.046385452 0.04644741 -0.12245438
0.119339325 0.07732446 -0.08481753 -0.096263215 -0.1142541 -0.08800268 0.04927388 -0.08869127
0.12816696 -0.08410919 0.058301523 -0.03731077 -0.11019784 -0.012141821 -0.11704618 0.05095406
0.050863896 -0.05653439 0.013270759 0.036837086 -0.09145694 0.04705898 0.08754788 -0.0920139
0.094297804 0.08271799 -0.078633286 0.13318284 -0.13956615 0.109197095 0.0010663483 0.1104155
0.046187755 -0.0839906 0.044933453 -0.007779989 -0.008486804 0.12464652 -0.08931978 -0.013345238
0.009143815 -0.013595888 -0.05635885 0.015703604 0.13542742 -0.040012915 -0.113702916 -0.13415718
0.00031989889 0.008418169 -0.07156195 0.093926944 -0.12080042 -0.01975475 -0.16471565 0.048908964
0.10815235 -0.13660182 0.09148253 -0.005807899 0.09640393 -0.040483274 0.1262782 -0.058347136
-0.110004306 0.070173346 0.11208628 -0.07381672 -0.12518694 -0.02581257 -0.029304454 -0.04705048
-0.16163631 0.035890754 0.104725115 0.0010505267 -0.13941267 0.08961879 -0.084908165 0.09038058
0.03959982 -0.05586151 -0.04490393 -0.08280975 0.08804519 0.11704293 -0.13626646 0.03692928
-0.08634825 0.10598121 -0.1297836 0.08931663 0.040805027 -0.006984899 -0.041356016 -0.12440785
0.03714473 -0.030031271 -0.059277844 -0.009325816 -0.07405837 -0.10118974 -0.14210908 -0.030507233
-0.032971974 0.044670817 -0.105444364 -0.02040834 -0.029222613 -0.024899146 -0.07800004 -0.064780004
-0.0037509128 0.032065757 0.060492348 -0.10493394 0.042535577 -0.07867895 0.09495234 0.15673147
-0.10763217 -0.09482466 0.12258252 0.018759875 0.013290306 -0.058899175 0.026233751 0.087093405
-0.11199617 -0.0035257635 0.024262752 0.09296531 -0.107182205 -0.0906215 0.10410962 -0.09066573
-0.01649518 -0.1344236 -0.12081975 -0.042162128 0.08805146 -0.08271662 0.06027521 -0.11584394
0.115861654 0.08444536 0.13240197 0.025204912 -0.114411995 -0.12649637 -0.0036148694 0.08695964
-0.12605958 0.055810817 -0.002156546 -0.08475155 -0.053630654 0.013508079 -0.075301535 0.06535502
-0.12069606 -0.0026005583 0.018844672 0.0447162 -0.16883604 0.14035316 0.1274609 0.113139346
0.008322368 -0.12739964 0.052533682 -0.034877807 0.13613366 -0.13635875 -0.009539543 -0.08060971
-0.05650579 0.105051175 -0.0029385798 0.08599621 -0.042085595 0.06905489 0.14286786 0.122590005
-0.15736745 -0.038876217 0.13920997 0.035120912 -0.087205335 -0.09941608 -0.11933343 0.015206404
0.05696802 -0.12074574 -0.09633391 -0.13721408 -0.048206642 -0.16227873 -0.1653394 -0.051702894
0.11077487 -0.06602721 0.11275545 -0.016659373 0.012728255 -0.076245 -0.068148054 -0.081454605
-0.10089896 0.06384973 0.011491784 0.019289281 -0.09023412 -0.015402718 -0.12097849 0.0771298
-0.12350254 -0.1280737 0.1239982 -0.013374069 -0.08098282 0.08731851 -0.121034995 -6.411726e-05

models.0.rnn.weight_hh_l1 f4 [48, 48]
00000000: a820 c13d 7de2 cb3d 7107 6f3c edb3 f03d
00000010: 9627 b0bd 780f a0bd 15c9 4ebd f84d 12bc
00000020: 5e33 02be a8e8 003e f5dd 6bbb 7a1b a13d
00000030: fbe4 44bd 04bc b6bd a889 e53d 37fb fabd
00000040: 70b1 06be a4a6 8d3c ff15 5bbd 33aa bc3b
00000050: d3a4 29bc 2a5e 10bd 1371 bebd 20cc 773b
00000060: ffea 6c3d ee9b febc 4b37 be3c 10e6 9bbd
00000070: 8263 0fbe 733c 353d 6da2 80bd eb26 f4bc
00000080: c6d0 1cbd 4c4f 913d d464 553c 0ae4 82bd
00000090: fb2a 3c3d 9c2e febd 10a7 603c a42e ecbc
000000a0: df36 0fbd 6afa 8abd 59a7 e43d c51c 0e3e
000000b0: cf3c 7e3d 9d54 81bd 35aa 673d 7687 70bd
000000c0: b73f 103e 2a91 443d f2e8 373d 93a5 983d
000000d0: 9636 5abc 9c3c aa3c 1347 85bd 2631 963d
000000e0: 9d83 6a3c 27bb aa3d f786 adbc 9f61 19bd
000000f0: 77e6 643d d500 603d 0f1b 293d b2b7 803a
00000100: a4e9 3ebd 06b2 01be 9c03 173e 15cb 17bd
00000110: 9c55 5c3d 550b 0ebe 7412 f3ba 78e6 1abd
00000120: 642d 123e da28 e83d 1020 8a3d 0d01 22bd
00000130: 8bec 0dbe 193d bfbd e506 af3d ebe7 dabc
00000140: eaaa b13d 294b 27bd 1f5e 8ebc 05fa cc3c
00000150: e4dc a7bc 3612 92bc 3865 633d 25a1 9bbd
00000160: 9700 ea3d 6794 e7bd ec89 ebbc d0a2 043e
00000170: 100b b43b 04b9 8a3d 3a23 a23c 7440 00be
00000180: b4c9 4bbb 20fe a1bc 63e3 66bc 7531 9f3d
00000190: bfdc 79bd d293 a7bd 83a5 8d3d 1c3f a73d
000001a0: f56a 8fbd bb9b c6bd 8614 d6bd bf43 0bbe
000001b0: 77fa ff3d 25c4 97bd 8dd6 ef3d 8214 e8bd
000001c0: 14f1 57bd cf98 c3bc 5944 413d d091 5bbc
000001d0: 60f2 57bb 65fd 043e 3d73 f13d 8ce4 1dbb
000001e0: 1614 14be 1c5d 16bd 28e9 f53d bfc9 1dbe
000001f0: fca3 d8bd 8bed 8d3d 5ebc a1bd 5c3c bf3d
00000200: 4db1 06bd 45f5 92bd 90a6 7ebd f8d9 293b
00000210: adf8 6f3d 41a2 02be e79b f3bc 016f 84bd
00000220: 0fcb fbbd 5c82 d93d e778 93bc 016c 71bb
00000230: 591a 123e db0c 873d 850a bebd 3afc 783d
00000240: 23dc f2bb f418 4d3d f3f1 1a3e a4a0 973d
00000250: 53a2 493c b755 ff3d f68b b5bd 9b14 133e
00000260: dadc ea3c 1dc8 df3d 2bca 59bd 9802 f8bc
00000270: a7f5 b2bd e7fe 19be 579b c63d 463b f6bc
00000280: b900 993d 8f5a bbbc 2ebd e93c 805e 363c
00000290: df9c 1dbc 4247 debd 0cba 8c3d 29db be3d
000002a0: a4e9 823d d982 1d3d 5562 f5bd a467 cd3d
000002b0: fdcc 303b 4181 bebd 1fc0 f43c 37c3 babd
000002c0: 4b52 dbbd 2015 173e c24d a0bc 3102 f0bc
000002d0: 4ae0 eebc 7a40 1cbb 0b5e dcbd 1327 fbbc
000002e0: 4d42 2b3d b290 523d 2e08 d0bd d97f f8bd
000002f0: 639e 40bd 3ba4 6b3d 55c9 263d 3807 323b
00000300: 6905 d73b 0e8c 0b3d 21a4 ff3c 7cc9 b9bd
00000310: ff76 09be d54e ee3d 1f39 913b 92e3 b33d
00000320: 5422 d3bd e306 d0bd fde4 583d 9663 b1bd
00000330: e555 763d de9f 1d3d ec08 103e 1aca b6b8
00000340: bc6b d33c e49d 00be 0036 f6bc 7897 75bd
00000350: f9cb 76bd 48ef 61bc 43b4 373d 4b54 27bd
00000360: 7b77 7f3d 3a57 f43d eeb0 61bd 8997 71bc
00000370: a81f acbd 971e 5c3d 2932 493d 736e 3e3d
00000380: d9be 98bd 90ee fabd 243f e3bc 364b f93d
00000390: b33f cf3d c790 b2bd cfe0 18be efcf fa3d
000003a0: 2431 21bc 3916 44bd c152 1c3e 1f13 3d3c
000003b0: 9516 813d 77d0 29be ed1f 70bd ac84 193d
000003c0: c09f 893d 0484 343d fce3 d03d e6ec a1bd
000003d0: 58b7 d73d 1b9e 51bd 4f8f 9f3c 249d 97bd
000003e0: 212d 1abe 3164 453d 8a85 bdbd f665 2a3c
000003f0: 301f 34bd aa62 47bd 9751 ea3d 90aa 00be
0.09430057 0.099553086 0.0145891765 0.11753068 -0.086013004 -0.078154504 -0.050484736 -0.008929722
-0.12714908 0.12588751 -0.003599045 0.07866569 -0.048069935 -0.0892258 0.112078965 -0.12254947
-0.13153625 0.017291375 -0.053487774 0.005757594 -0.010354239 -0.03524605 -0.09298911 0.0037810877
0.057841297 -0.031080212 0.023219725 -0.0761224 -0.14002803 0.044247102 -0.0628098 -0.029803714
-0.03828504 0.07095203 0.013024528 -0.06391151 0.045939427 -0.12411234 0.013711706 -0.028830834
-0.03496444 -0.06786044 0.111647315 0.13878162 0.06206971 -0.06314967 0.056558806 -0.058722936
0.14086805 0.04799 0.04489989 0.07453456 -0.013318678 0.020780854 -0.06507697 0.07333593
0.014313606 0.08336478 -0.02118252 -0.037446614 0.05588385 0.054688293 0.04128557 0.000982037
-0.046609536 -0.12665567 0.1474747 -0.03705891 0.05379258 -0.1387151 -0.0018544928 -0.03781745
0.14275128 0.11335917 0.06744397 -0.039551783 -0.13859765 -0.09337825 0.08546237 -0.026721915
0.086751774 -0.040843163 -0.017378865 0.025021562 -0.020491071 -0.01783095 0.05551645 -0.07599095
0.11425894 -0.113076024 -0.02875229 0.12952733 0.005494483 0.0677357 0.019792188 -0.12524587
-0.0031095566 -0.019774497 -0.014092299 0.07773105 -0.061001536 -0.08182491 0.069163345 0.08166334
-0.07002822 -0.09697672 -0.10453133 -0.13600062 0.12498944 -0.074104585 0.11710844 -0.113320366
-0.052720144 -0.023876576 0.047184322 -0.013401464 -0.0032950863 0.12987287 0.11789558 -0.0024092523
-0.14460787 -0.03670989 0.12007362 -0.15408991 -0.105781525 0.06930073 -0.07897256 0.093376845
-0.03288393 -0.07175688 -0.062170565 0.0025917273 0.058586765 -0.12757207 -0.029737426 -0.06466485
-0.1229459 0.10620567 -0.018001987 -0.0036838057 0.14267863 0.06594249 -0.0927935 0.060787417
-0.0074114962 0.050072625 0.15131359 0.07403687 0.0123067675 0.12467521 -0.08864586 0.14363329
0.028669763 0.109268405 -0.053171318 -0.030274674 -0.08738261 -0.15038644 0.096975975 -0.03005756
0.07470841 -0.02287033 0.02853259 0.011130929 -0.0096199205 -0.10853435 0.06871423 0.09319145
0.0639222 0.038454864 -0.11981646 0.100295335 0.0026977651 -0.09301997 0.029876767 -0.091192655
-0.107090555 0.14754152 -0.019568328 -0.02929792 -0.029159684 -0.0023842142 -0.10760125 -0.03065828
0.041811276 0.051407523 -0.1015781 -0.1213376 -0.04702605 0.05752967 0.04071935 0.0027164947
0.0065619242 0.034069113 0.031206192 -0.09071633 -0.134243 0.1163613 0.004431858 0.0878364
-0.10309282 -0.101575635 0.052952755 -0.08661573 0.06014051 0.03848254 0.14065903 -8.7160806e-05
0.025808208 -0.1256023 -0.030055046 -0.059958905 -0.060253117 -0.013789959 0.044849645 -0.040851872
0.062369805 0.119307 -0.055100374 -0.014745601 -0.084044755 0.05374011 0.049120102 0.04649205
-0.07458276 -0.122525334 -0.027740069 0.121725485 0.101195715 -0.0871902 -0.14929508 0.122466914
-0.009838376 -0.047872756 0.15265943 0.011540203 0.06303135 -0.1658343 -0.058624197 0.03748004
0.06719923 0.044071212 0.101997346 -0.07906513 0.10533017 -0.05117617 0.019477515 -0.07403019
-0.15056278 0.048191253 -0.09253986 0.010400286 -0.043975055 -0.048678078 0.11441343 -0.12565064

models.0.rnn.bias_ih_l1 f4 [48]
00000000: b94b a33a ccff bbbd b068 003e 1a0f 6dbd
00000010: 8ee8 c2bd 36f9 acbd e6d8 bcbc ec42 5a3d
00000020: 7989 2fbc 3817 13bd dff6 a5bc 799f 743d
00000030: 4890 86bc 2a09 86bd 3a83 083e 0635 1a3e
00000040: 9a73 f6bc 2f0b 463d f1b7 f23d 8f63 9d3d
00000050: e429 513c 7ea9 943d 5c68 f3bd d91c f53a
00000060: fc84 c2bc 041a 643d 780a 023e fef7 393c
00000070: 3f38 f53d 85e7 c1bd a327 e23d de72 11bd
00000080: 0fe8 a13d 57e8 363c 963d 433c 10fe d73d
00000090: a8c5 94bd 2d61 b03d 471b a7bd a2ad df3d
000000a0: 1789 0dbe 8094 16be 7910 0d3e 2792 e23d
000000b0: a554 92bd 27aa 5f3d 696d 183e 8a8e 8dbc
0.001245848 -0.09179649 0.12539935 -0.05787573 -0.095170125 -0.08445971 -0.023052644 0.053286478
-0.010713928 -0.035910815 -0.020259319 0.059722397 -0.01642622 -0.06544717 0.13331309 0.1505929
-0.03008442 0.04835051 0.1185149 0.07685005 0.012766335 0.072588906 -0.11885139 0.0018700614
-0.023745053 0.055688873 0.12699306 0.01135063 0.11973619 -0.09467987 0.11042716 -0.035509937
0.0790559 0.011163793 0.011916539 0.105465055 -0.072642624 0.08612285 -0.081594996 0.1092179
-0.13821827 -0.14705086 0.13775815 0.110630326 -0.07145051 0.05460563 0.14885487 -0.017279882

models.0.rnn.bias_hh_l1 f4 [48]
00000000: d1b9 8fbb 0b60 94bd a222 78bd 8222 9b3d
00000010: fc79 07bd 9e37 d1bd d46d d73b d22a 62bd
00000020: be21 2b3d d853 963d e41c b5bd 2da7 c4bd
00000030: 4432 ae3c 208b abbb 4506 eb3d 91ba 473d
00000040: 4783 babd d5e3 b2bd 1a0f b93a 31ba ac3d
00000050: 6d0b dcbd ab66 f1bd fd52 c1bd 2203 f73d
00000060: 065c ec3d b8aa 2cbd 59d7 e8bd a752 42bb
00000070: e86e 3c3d af8b eebd e8ea 9abd 06a4 403d
00000080: 4f19 ec3d ed54 8e3c f601 953d 9ae4 d1bd
00000090: c374 bcbb 92c1 03bc d835 0b3e 4b74 54bd
000000a0: 7ada 5bbd e8c4 4a3d f28b 85bd 921f 3e3d
000000b0: c74c 383c 5869 9a3c b506 ce3d 35d1 bdbd
-0.0043861647 -0.07244881 -0.060579903 0.07574941 -0.033075318 -0.10215686 0.006574372 -0.055216618
0.041780226 0.07340211 -0.08843401 -0.09602199 0.021264203 -0.005235091 0.11475805 0.048761908
-0.091070704 -0.08734862 0.001411888 0.08433951 -0.10744367 -0.117871605 -0.09439657 0.120611444
0.115409896 -0.042154998 -0.11369199 -0.0029651315 0.046004206 -0.11647736 -0.07564336 0.047031425
0.11528265 0.01737448 0.07275765 -0.102486804 -0.005751224 -0.008041756 0.13594759 -0.051868718
-0.053675152 0.04950419 -0.06520833 0.046416827 0.011248774 0.01884906 0.10059873 -0.09268419

models.0.fc.weight f4 [2, 48]
00000000: 8c29 243e 163c 8f3c f8c5 bb3c 5e06 f03d
00000010: 1a9c d33d 155d 223e 9d08 2f3d e0bf ebbc
00000020: 750f bcbb 8df0 95bd 8965 be3d 7683 e33d
00000030: ae8d 073e 9226 993d af04 cfbd 11d2 f63d
00000040: fc6e c53d 4364 1ebd ed7f 163e bb69 193d
00000050: 8b9f c3bc a3a6 3abd fcea 63bd ff2e 05bc
00000060: 8773 c93d 0f48 28be e22c 9aba 169e f93d
00000070: a43d 003e 1ced 37bd 11fe b1bd 28fc c8bb
00000080: fcaa c03d e600 c4bd 22bd afbb 5e57 903d
00000090: 2c72 a9bc 86b4 e43d aeb8 b73d 1640 b8bd
000000a0: 3c3d 00be 9113 4ebd 5447 a43d f031 f0bd
000000b0: b6d0 0d3e b9e7 573d 7aa2 edbc ddd5 f33d
000000c0: 12ca a13d b5d3 ff3d adc3 9b3d c5f4 e23d
000000d0: fa28 083e fc67 643b 79bc 123e 27be 943d
000000e0: ce23 ef3c db89 343d a36a 1ebe 9d0d 16be
000000f0: 82ba d43d 4e88 15be 42bb d13c dcdc 0d3e
00000100: 4c12 14be ad2d f83d 9bc0 363d 53a0 e43d
00000110: 2836 03be 3484 f4bd bbfe 1ebe 00b1 04bd
00000120: c844 003d 3ab2 893d 1743 c0bd 43a1 043c
00000130: b7d9 5dbd b3c1 f7bc f660 a6bc febf b13d
00000140: cadb 58bd a387 6b3c 06f8 a53d f928 12bd
00000150: c10e 323d 732f 9f3c 6336 9cbd 06a4 adbd
00000160: f1b6 45bc 7ce4 f8bd 24a4 c9bc dcf3 973d
00000170: a7e0 3dbd 4a6c 1bbe f54d 523d c6e3 c2bd
0.16031474 0.017484706 0.022921547 0.117199644 0.103325084 0.1585582 0.042732824 -0.028778017
-0.0057391473 -0.07321272 0.0929671 0.111090586 0.1323764 0.0747806 -0.10108315 0.12051786
0.09640309 -0.038669836 0.14697237 0.037454348 -0.023879787 -0.045569073 -0.05564402 -0.0081288805
0.09836488 -0.16433738 -0.0011762644 0.121883556 0.12523514 -0.04490386 -0.086910374 -0.006133575
0.09407613 -0.09570484 -0.0053631226 0.07047914 -0.020684324 0.111672446 0.08970772 -0.089965984
-0.12523359 -0.05031163 0.08021417 -0.11728275 0.13849148 0.052711222 -0.029008139 0.119060256
0.0789987 0.12491552 0.076056816 0.11081842 0.13296881 0.0034852019 0.14329709 0.07262831
0.029191878 0.04407678 -0.15470366 -0.1465363 0.10387136 -0.14602777 0.025601987 0.13853782
-0.14460105 0.12118087 0.044617277 0.11163392 -0.12813628 -0.11939278 -0.1552686 -0.032395363
0.031315595 0.06723447 -0.09387796 0.008095088 -0.054162707 -0.03024373 -0.020309906 0.08679198
-0.052943982 0.0143756 0.08103947 -0.035683606 0.0434711 0.019431805 -0.07627561 -0.084785506
-0.012067542 -0.12152955 -0.024614401 0.07419559 -0.046356823 -0.15178028 0.051343877 -0.095161006

models.0.fc.bias f4 [2]
00000000: de74 85bd 9ca9 953d
-0.06516431 0.07307741

models.1.rbf.centers f4 [16, 4]
00000000: de56 eabf f3ed 1a3f ef9b 783e 1ff5 313f
00000010: ce7c 5f3f 1676 7fbf 162e 92bd 196b 343e
00000020: de87 d3bb f455 0b3f 7eec ea3f 323c fdbf
00000030: c7d0 ec3e 399c 75bf 9c52 c33e 3af1 abbe
00000040: 6e39 913e 658e 0ebe 3bf6 7e3f 52f2 c5bc
00000050: d343 a7be d88b b33f fa03 a43f 1076 6fbf
00000060: 3073 3bbf 3434 88bf 5e58 e6be 8a82 e23e
00000070: 9e59 6dbf b253 1a3f 16b5 e8be 4f84 8ebf
00000080: 0bdd dfbe 36d3 cabf 6b07 c93b 6413 19bf
00000090: 4ff4 543f fb8f bfbf 3471 0b3f a966 543f
000000a0: 1b06 083f a3b9 9f3e 3a29 63be 2ff6 9f3f
000000b0: e01b 303f 279c 34bf 76c8 773f 322b 02bf
000000c0: c79b af3e 0fba 6ebe 90f5 5e3f 776d babe
000000d0: 399b a43f 40b6 a4bf 93f0 debe 2c2a d83f
000000e0: 0ca1 aabf a14e c13f 7fc4 35bf d2ec 793f
000000f0: ae06 d83f f42e 56be b60a ae3e 369c 853e
-1.830776 0.6051933 0.24278234 0.6951465 0.8729981 -0.9978956 -0.071376964 0.1761898
-0.0064554056 0.5442803 1.8353422 -1.9783995 0.46253034 -0.959415 0.38148963 -0.3358248
0.28364128 -0.13921507 0.9959447 -0.024163399 -0.32668933 1.4027052 1.2813714 -0.93539524
-0.7322264 -1.0640931 -0.44989294 0.44240218 -0.9271487 0.6028396 -0.45450658 -1.1134127
-0.4372333 -1.5845706 0.0061349175 -0.5979521 0.83185285 -1.4965814 0.5446961 0.82969147
0.53134316 0.31196317 -0.22183695 1.2497004 0.68792534 -0.7055077 0.96790254 -0.5084716
0.34298536 -0.23313163 0.8709345 -0.3641164 1.285987 -1.2868118 -0.4354292 1.688787
-1.3330398 1.5102121 -0.71002954 0.97626984 1.6877038 -0.20916349 0.33992547 0.26095742

models.1.rbf.log_sigma f4 [16]
00000000: 3543 2ebc e54e c8bb a2a0 de3b d1ba 8339
00000010: d287 e43b 782e 2f3b cb8b 15bc 06ad fabb
00000020: 5c3c 893c d931 26bc 6167 f9bb 596b 81ba
00000030: 7a41 91bc b96a b6bb b79e e6bc fd6d 5cbb
-0.010636141 -0.0061129206 0.0067940513 0.00025125456 0.006974199 0.0026730578 -0.0091275675 -0.0076500205
0.016752414 -0.010143721 -0.0076112007 -0.0009873911 -0.017731417 -0.0055669216 -0.028151853 -0.0033634894

models.1.rnn.weight_ih_l0 f4 [48, 16]
00000000: 729b 88bd 3e3f 08be bad0 59bb 6cf5 843b
00000010: cfb9 643d 5968 153a 80d3 16be 0282 13be
00000020: eb02 72bd 2d6b ab3d 057e 9d3c 2b2f fabd
00000030: 0b04 103e 5b1e 4dbd ea5c 2bba cccb 493d
00000040: 2254 8dbd 1be3 33bc beae 50bb 49bb d6bc
00000050: 83f0 80bd 0520 793d 4db7 b8bd 406c 943d
00000060: b2b2 303c f0e5 c7bc b2a0 54bc 5d7b 9dbd
00000070: 973a dabd d321 a3bd d49f e8bd 771b e2bc
00000080: cb63 c83d 105f 52bd c5e7 c8bc fef6 103e
00000090: 4259 20bc 872b 1cbe d32f b5bd b32c 6f3c
000000a0: 11f5 b23c f133 ba3d 696a f63d 3482 03bd
000000b0: 955e 283d 7bc7 e73c 8fb1 4f3d 8136 c43d
000000c0: 634a 103d a251 483d c98d c0bd c1f4 0abe
000000d0: b4b1 3fbd 4d8e 92bd 08dd 893d 320e a1bd
000000e0: 9f35 a5bc 52e4 acbd 0f40 303d f18f b6bd
000000f0: e306 dfbd 2373 b83d 05d7 53bd 606d 9bbd
00000100: decd de3d 3f53 edbd 328e f23c b09d 81bd
00000110: d390 56bd cc99 d43b 1275 183d c383 923c
00000120: caf1 d33d e5d5 02be 70ee c6bc 6f9a 0abe
00000130: 594f 96bd f340 b73c 709c 65bd 3f4f 8e3d
00000140: 4f3d e63d 1db0 803d d55d dfbd af7a 2d3d
00000150: 3ff7 ebbc 0790 073b 674f 143e d5be 603c
00000160: 9b17 833d 903a db3d a4c1 e33c 9aa8 0bbe
00000170: 2ad5 c83d 81ca 0d3e 8d72 ab3d 83f0 cc3d
00000180: f625 e03d 67de 05be 56f7 973d 5b95 b4bd
00000190: 8072 9c3d a67f 153e eb42 2b3d 681a bf3c
000001a0: 9dc1 583b efdf 27bd b6bc e43d 749f 0b3d
000001b0: ae3e 95bc 3fbf 943d e700 fdbd 5d42 063e
000001c0: 07d4 88bd c069 fa3c e74d 84bd 76c1 923c
000001d0: 4d7f 1bbe 4a5e 38bd 99ca bbbc 7a6c 383d
000001e0: c8d3 d3bd 2466 d7bd c0e9 af3d 746e a83d
000001f0: 9b84 bf3d 54b7 313d 6663 18be 4c8e 323d
00000200: e148 113e 5e95 8f3c a8e8 0c3e e7c4 903d
00000210: a1ac dcbd fcf4 79bd 0a42 51bd 74dc ca3d
00000220: 3e93 a2bd c6a9 c4bc dcb3 01be 1609 ff3d
00000230: 6012 1c3c ccd0 1e3d 9f81 eabb 4081 eabd
00000240: 9d32 bb3d eb22 39bd a953 153d 20c5 e2bd
00000250: be1a 9fbd 776b 8dbd 3ed6 47bd 4af0 ad3b
00000260: e7e8 5a3c 2865 15bd 6905 8e3d 81d7 62bd
00000270: 41ae dfbd e856 1a3e 3174 0e3e 559e 03be
00000280: e742 cc3d ff1e b63d 2db9 e8bc d525 17bc
00000290: 3813 c7bc 31ef 0e3e a2ed 73bd 88f0 efbd
000002a0: 6ad7 1abe 3673 f9bd c746 e6bd e54d 143d
000002b0: 853a d13c 1882 f5bc ec08 143e 3d75 843d
000002c0: c86c fabd 497d e2bd 357b b6bd 1ef5 593d
000002d0: aef4 bbbd 6af1 a9bd 7d46 903c 5270 2f3d
000002e0: 1576 4bbb 9b36 a23d 0e69 1cbc 0994 d4bd
000002f0: 23f1 98bb c2f0 773d 0c4a edbd 16c6 13be
00000300: cc36 003e 8f03 76bd 1f36 043e a187 8c3c
00000310: 4d60 113e e2bd 5e3d f0ca ffbd 1647 04be
00000320: d9ca 0dbd a92f 01bd bd3d e2bd be77 b63d
00000330: 9700 84bd b4c4 ccbd 96aa 81bc 8397 93bc
00000340: 882c 883d e0e8 8abd 3e56 c23c 3fb4 9bbd
00000350: 5157 9c3d 9674 fbbd edb4 2c3d 2b37 f5bc
00000360: 68d8 02be 236f 10be ea0c c7bd 5924 b6bd
00000370: 6853 9abc b8f1 23bd 9d63 2dbc 75e0 bb3d
00000380: 1537 713d 6a8f 403d b57b fcbc 91bb eebc
00000390: 25ec c33d 13d1 023e ba53 e8bd 1c35 0dbe
000003a0: 3644 c2bd e39a 09be 48c0 e03c 3b35 12bd
000003b0: 93e9 03bd 9de4 18bd 499f 0fbe d7db 19be
000003c0: f325 98bd 81ba efbc fa45 d73d 78fd f73d
000003d0: 1582 fc3d 54c1 b7bd fd27 1d3e 0243 873c
000003e0: 865e e23d 7473 2abd b55f d2bc 25b7 c83d
000003f0: 2a4a c33d 85b8 b7bd 5351 09bd 36c2 043e
-0.06670274 -0.13305375 -0.0033235983 0.004057577 0.055841263 0.0005699448 -0.14729118 -0.14405063
-0.059084814 0.083700515 0.01922513 -0.12216028 0.14064042 -0.050077777 -0.00065369776 0.04926662
-0.06900813 -0.010979439 -0.0031842436 -0.026212351 -0.06295874 0.06082155 -0.09019337 0.072472095
0.010784792 -0.024401635 -0.012977766 -0.07689545 -0.106557064 -0.07965436 -0.1135861 -0.027600987
0.09784659 -0.05136019 -0.024524579 0.1415672 -0.009786906 -0.1525098 -0.08847012 0.0145980595
0.021845372 0.09091938 0.12032015 -0.032106593 0.041105825 0.028293362 0.050706442 0.09580708
0.03522719 0.048905976 -0.09402043 -0.13569929 -0.04680033 -0.07156048 0.067316115 -0.07864036
-0.02016717 -0.08441986 0.04302984 -0.089141734 -0.108899854 0.090063356 -0.05171873 -0.07589221
0.1087911 -0.115881436 0.02960882 -0.06328905 -0.05238421 0.0064880606 0.037221022 0.017885095
0.10348852 -0.12776907 -0.024283618 -0.13535474 -0.07339353 0.022369837 -0.056057394 0.06948709
0.112421624 0.06283591 -0.10906569 0.04235333 -0.02880442 0.0020685212 0.14483415 0.013717373
0.06400987 0.10704529 0.027802296 -0.13638535 0.09806283 0.1384678 0.08371458 0.100068115
0.109447405 -0.13073121 0.074202225 -0.0881755 0.07639027 0.14599475 0.041811865 0.023328021
0.0033074387 -0.040985044 0.11168806 0.034087613 -0.018218365 0.0726304 -0.12353688 0.13111253
-0.06681066 0.030568004 -0.06460171 0.017914515 -0.1518528 -0.045011796 -0.022923755 0.045025326
-0.103431284 -0.10517529 0.08589506 0.08224192 0.09351464 0.043387726 -0.14881667 0.043592736
0.14187957 0.017527279 0.13760626 0.07068806 -0.10775114 -0.06102465 -0.05108837 0.09905329
-0.079382405 -0.024006736 -0.12666267 0.12452905 0.009525865 0.038773343 -0.0071565653 -0.11450434
0.09140513 -0.045199316 0.036456738 -0.11072755 -0.077687725 -0.06905263 -0.0487883 0.0053081857
0.013361192 -0.036473423 0.06934626 -0.0553813 -0.10921908 0.15072215 0.13911511 -0.12853368
0.09973698 0.08892631 -0.028408611 -0.009225328 -0.024301156 0.13958432 -0.059552796 -0.117157996
-0.15121236 -0.12180178 -0.112439685 0.0362071 0.0255406 -0.02996926 0.14456528 0.06467674
-0.122277796 -0.110590525 -0.089102186 0.053212278 -0.09177528 -0.08297999 0.017611736 0.042831726
-0.0031045724 0.079205714 -0.009546531 -0.10379798 -0.0046674176 0.06053234 -0.11586389 -0.14431033
0.12520903 -0.060061987 0.1291127 0.017154517 0.14196892 0.054380305 -0.12489879 -0.12917742
-0.03461728 -0.031539593 -0.11046932 0.08909558 -0.06445425 -0.09998456 -0.015828412 -0.018016582
0.06649119 -0.06782699 0.023722764 -0.076027386 0.07633842 -0.122780964 0.04216473 -0.029933533
-0.12777865 -0.14104895 -0.0971926 -0.088936515 -0.0188386 -0.040025443 -0.010582832 0.09173671
0.05889042 0.04701177 -0.030820707 -0.029142173 0.09566525 0.12775068 -0.113440946 -0.13789791
-0.094856665 -0.13437991 0.027435437 -0.035695296 -0.032205176 -0.037327398 -0.14025606 -0.15025268
-0.07429113 -0.029263737 0.10511394 0.12108892 0.12329499 -0.08972421 0.15347286 0.016511444
0.11053185 -0.04161401 -0.025680402 0.09800557 0.0953563 -0.08970741 -0.033524822 0.1296471

models.1.rnn.weight_hh_l0 f4 [48, 48]
00000000: e36a dbbd ddc6 eebc a6ab d03d 243c 6d3c
00000010: d5e2 fe3d 43d2 dbbd 5563 4f3d 3d0f 8b3b
00000020: 36e5 053e 8474 8d3d 0991 843d bb7e a83d
00000030: fe71 393d cafe f03d 6b41 0b3e 9e58 fd3d
00000040: e080 b63d e647 313d 11a5 a4bd 14e6 ffbb
00000050: 0b34 af3c 1e35 eebd 9bf2 cf3d ff17 923d
00000060: d10e 0a3e 50df e23d 8298 aabd 4c7e 11bd
00000070: 469e 9a3c 9446 e4bc 4ce5 54bd 1907 d4bd
00000080: 0e0a 023d e75f f8bd 5f06 f63c 0257 babd
00000090: 6913 19bd 5d5b 553d 7020 aabd 16b1 9abc
000000a0: 9095 b3bd 9487 a33d 80de 943d 82b7 b93b
000000b0: 4383 a7bd 94b5 00be 147b 7d3c 2250 2a3e
000000c0: 3248 afbd 6dd3 973d 6dbc 6f3d cc97 183d
000000d0: 6876 a43d f764 dc3d 8ba9 323d fc53 c9bd
000000e0: 54f2 f1bd 9d62 623c de58 93bc 947a 15bd
000000f0: febf fd3d 2928 10be 7b7f 18be 9da3 98bd
00000100: 7bad 0cbe 9fd6 b93d 99a8 0d3e ae1d 54bb
00000110: 2906 02be 95c6 243d 06cd 67bd 1d69 febc
00000120: ab23 063e 329c c9bd 277a a13d 3ec1 aebc
00000130: f8ca cbbd 00a9 39bd ed0a b73d 9a9f 043e
00000140: 4f16 b4bd 7d2c 51bd e7d4 abbd 187c 61bd
00000150: ca9d 063e 40e0 fb3d bdb4 f7bd 79ba 403d
00000160: 0d72 cbbc ae4a 1a3d e0fb e4bc 3ee6 fabd
00000170: 82d3 b0bd 22ea f63b b8fc 0dbe c395 b6bd
00000180: 895e 0dbe 92be a23d 6ec4 03bd b53f f9bd
00000190: b852 673d f004 373c 874f a93b af11 d63d
000001a0: 1cd2 03be 2b2b a7bd 4bfc 1bbe 2c78 c8bc
000001b0: fee3 293c 452a d8bc 6e4b 7c3d d1d0 793d
000001c0: 03ee a1bd 10b4 36bd 3976 133e 6ab0 203d
000001d0: 3156 923d 269e 65bd 6e97 acbd 710c 033e
000001e0: dc4c a23d fd82 0b3e 2efd ecb9 25a0 da3c
000001f0: c6ff 84bd af57 f93d cbc3 9ebd e515 3dbd
00000200: 5533 b73d db07 67bc 1547 bebd 23ca 083d
00000210: 55f9 1b3d bce9 0b3e 6069 5d3d 1db8 f0bd
00000220: 1874 0fbe 6610 1b3d 37e0 e1bd 1f65 c4bd
00000230: e0e0 0cbe 0305 ca3d c8d6 fabd f571 1dbe
00000240: 3e68 8d3d c196 4abc c0b9 26be dcfb 843c
00000250: 9949 003e afd2 253d e94f 053e c91f b33c
00000260: 4b66 debd d800 03bd e75a 873a 6bc3 d23c
00000270: 1adf 6f3d 34a7 123e 60ad 753c dc95 edbd
00000280: 6ac8 babd c8ec c53d b6e8 493b 8370 ddbd
00000290: a4f1 f7bd b1eb 8b3d d730 fdbd 3abd 973d
000002a0: 7a64 013e 3560 fb3d c2a3 9abc 306c efbd
000002b0: a86e 4a3c e205 a93d 59e0 abbd 3568 2fbd
000002c0: fb3e 07be d1dd 8a3d 4a12 1bbd 5c2b 51bd
000002d0: ca25 b73c 3077 9b3d 9833 143c 03c8 e93d
000002e0: b814 7e3d b2f0 093c 3e23 043e 3b89 243e
000002f0: 3739 1fbd c839 333d f7d2 c4bd 4866 a2bd
00000300: ae7a 9dbd 86cd 97bd 0aac c5bd 43be c6bd
00000310: 61b0 9cbd 53d9 94bd f6c3 f8bd c4e9 2bbe
00000320: 797e b23d 65e4 f33d 9237 b6bd 3fe8 56bd
00000330: b879 b7bd 6aa8 073e 2387 13bd 6093 113d
00000340: 25dd 33be 769a 0f3d 179b db3d c609 b23d
00000350: 4d4f 013e c077 4cbd cdef b93c d4b2 eebd
00000360: 9cde ebbd eeab ca3d b4a2 a1bc 3f66 aebd
00000370: 92aa b9bd 20e4 dd3d 9cf7 24bd bc2b 65bd
00000380: 98d3 ebbd 3302 8b3c 97ca c1bc 8eec f6bd
00000390: 08a3 7cbd 3a3f 91bc 8edf 9abd 4798 94bd
000003a0: 3ee9 0fbd 2048 55bd 7f4c 57bd db4a a53d
000003b0: 7ac4 c13d 2642 16be 093d 093d 0cff 52bc
000003c0: 46bb dfbd 8a5b 493c 3a63 793d b59d 073d
000003d0: 4817 173d b9c5 313c 1a3d edbd c87e 113e
000003e0: 70bf aebc d6e0 113e 8e43 083e 4251 42bd
000003f0: 00d9 943d 8060 8bba 16af e73c 70f8 94bd
-0.107137464 -0.02914756 0.10188989 0.014479671 0.124456085 -0.107334636 0.05063184 0.00424376
0.13075718 0.06906989 0.06472976 0.08227297 0.045274727 0.11767347 0.13599174 0.12370418
0.089113 0.04328146 -0.080392964 -0.00780941 0.02138712 -0.11631225 0.10153695 0.07133483
0.13482215 0.1107775 -0.0832987 -0.035520837 0.018874299 -0.027865686 -0.051976487 -0.10352916
0.03174787 -0.12127667 0.030032335 -0.09098627 -0.037372027 0.052089084 -0.08306968 -0.01888327
-0.08768761 0.07984844 0.07269001 0.005667628 -0.08179333 -0.12569267 0.015471239 0.1663213
-0.08558692 0.07413373 0.058529306 0.03725414 0.08030397 0.10761445 0.04361872 -0.09830472
-0.118137985 0.013817457 -0.017986711 -0.036493853 0.12390135 -0.1407782 -0.1489238 -0.07453082
-0.13738053 0.09074139 0.13833846 -0.0032366323 -0.12697662 0.040228445 -0.05659201 -0.031055981
0.13099544 -0.09844245 0.07884627 -0.02133238 -0.099508226 -0.045327187 0.08937631 0.12951508
-0.087933175 -0.051067818 -0.08390217 -0.055049986 0.13146129 0.12298632 -0.1209502 0.047052834
-0.024834657 0.037668876 -0.027952135 -0.122509465 -0.08634092 0.007535235 -0.13865936 -0.089152835
-0.13805594 0.07946505 -0.03216975 -0.12170354 0.05647537 0.011170611 0.005166951 0.10452592
-0.12873119 -0.081625305 -0.15232961 -0.024471365 0.010369299 -0.026387343 0.061595373 0.06099016
-0.07906725 -0.044605315 0.14400567 0.03923074 0.07145346 -0.056059025 -0.084273204 0.12797715
0.07924816 0.13624187 -0.0004520206 0.026687691 -0.064940974 0.121749274 -0.07752188 -0.04616346
0.08945338 -0.014100994 -0.092909016 0.033395898 0.03807958 0.13663381 0.05405557 -0.11753867
-0.1400913 0.037857436 -0.11029094 -0.095896 -0.13757658 0.09864237 -0.122479975 -0.15375502
0.06904648 -0.012365044 -0.16281796 0.016233377 0.12528075 0.040484127 0.13018765 0.021865742
-0.108593546 -0.031983227 0.0010326774 0.025727948 0.058562376 0.14321595 0.014994949 -0.11600849
-0.09120257 0.09664303 0.0030808873 -0.108124755 -0.12106636 0.06832064 -0.12362831 0.07409139
0.12635985 0.122742094 -0.018876914 -0.11690557 0.012355484 0.08253075 -0.083924 -0.04282399
-0.13207619 0.06780589 -0.03785924 -0.05106674 0.022356886 0.075910926 0.009045504 0.11415102
0.062031478 0.008419203 0.12904069 0.16067974 -0.038872924 0.043756276 -0.09610551 -0.07929665
-0.07689415 -0.07412247 -0.096519545 -0.09704258 -0.07650829 -0.07268014 -0.121467516 -0.16788393
0.08715529 0.11908797 -0.08897318 -0.05246758 -0.08958763 0.13247839 -0.03601755 0.03554094
-0.17564829 0.035059415 0.107229404 0.086932704 0.12627907 -0.04991889 0.022697354 -0.116552025
-0.11517069 0.09896074 -0.019730903 -0.08515596 -0.09065737 0.10834527 -0.0402752 -0.05594991
-0.11514968 0.016968822 -0.023656173 -0.12056838 -0.061678916 -0.017730344 -0.07562171 -0.07255607
-0.035134546 -0.052070737 -0.052563187 0.08070918 0.09461303 -0.14673671 0.033505473 -0.012878191
-0.109243914 0.012289891 0.060885645 0.033109386 0.036887437 0.010850363 -0.1158392 0.1420852
-0.021331519 0.14245924 0.1330702 -0.047440775 0.07267952 -0.0010633618 0.02828173 -0.07273948

models.1.rnn.bias_ih_l0 f4 [48]
00000000: cea8 39bd bb4e f2bc f7c2 13be 8117 dc3c
00000010: 0da7 28bd 9a74 613d c9dd 093c 98e7 f0bd
00000020: e627 f13d 7b7c 87bc ebfc a23d aec8 053e
00000030: 4a77 2e3d b073 113d a672 0e3e e649 0bbe
00000040: 1d72 cebd 5e57 ec3d 9daf ac3b 3878 4fbd
00000050: c5ec 4ebd 4e6a 7f3d 7a62 c5bd d55f 983d
00000060: f24a 343d 38e7 203c f73a f7bd 23d3 bc3d
00000070: c4e1 843b 8924 0abe a44a d9bd 49be de3d
00000080: 0e6d 09bd 3034 ca3d e600 dcbd 66b1 0e3c
00000090: 113c 83bd 4557 89bd 83f4 58bd 5a40 f9bd
000000a0: e94c f83d 597b 383d 4aac 54bd 9da1 ccbc
000000b0: 2480 fabd c4aa d0bd 8a40 023e 3a7c 2f3d
-0.045327 -0.029578557 -0.14429842 0.026866676 -0.041174937 0.05504284 0.008414694 -0.11762923
0.11775188 -0.01653885 0.079583965 0.13064834 0.04259423 0.03551072 0.13910922 -0.13602409
-0.10080359 0.115401015 0.005269958 -0.05065176 -0.05051877 0.06235724 -0.096379235 0.074401535
0.044016786 0.009820752 -0.120717935 0.09219959 0.0040552337 -0.134905 -0.1060994 0.10876138
-0.03355127 0.09873235 -0.10742359 0.008709287 -0.06407941 -0.067060985 -0.05296756 -0.12170477
0.121240444 0.04503951 -0.05192212 -0.024979407 -0.12231472 -0.10188821 0.12719932 0.04284308
