best_regression_model.pth (torch, 21268 bytes, 6 tensors)

fc.0.weight f4 [64, 4]
000000 b4 07 a5 be e2 00 96 3e 2a e7 8d be 40 45 af 3c
       -0.3223244 0.2929755 -0.27715427 0.021395326
000010 2f 9f 0e be 8e d7 df 3e 4a 20 ff 3e 6b ec 0d 3e
       -0.13927911 0.43719143 0.49829322 0.13859718
000020 b7 8b ce be 29 55 0f 3f 5f 3c 94 3e ee f7 a8 bd
       -0.4034097 0.5598932 0.2895231 -0.08250414
000030 97 ea 1a bf ba f3 26 3e 35 a9 8b bc 95 9d 99 bc
       -0.60514206 0.16303912 -0.017048458 -0.018751899
000040 0a 03 6b be 65 49 25 be 5f 44 e6 be 4f 80 74 3e
       -0.22950378 -0.16141279 -0.44974038 0.23877071
000050 6a 67 87 3e 70 4a ac 3e 0a 3d e8 be c6 fb 8d be
       0.26446086 0.3365054 -0.4535907 -0.2773115
000060 68 d3 f3 be 48 58 cd bd 1c 11 75 be 24 82 37 be
       -0.47622228 -0.10026604 -0.23932308 -0.17920738
000070 f4 52 7b be c8 df 9f 3e 73 c8 34 3e 69 14 e5 3e
       -0.24543363 0.3122542 0.1765459 0.44742134
000080 17 d1 e1 be 77 67 04 3f 33 57 12 be a4 cd 63 3e
       -0.44104835 0.51720375 -0.14291076 0.22246414
000090 30 61 87 be 91 31 a4 be 78 71 97 be 49 03 01 3f
       -0.26441336 -0.32069066 -0.29578757 0.5039564
0000a0 fc 2d 70 3e 50 99 52 be fd f8 bc be 26 87 d1 3e
       0.23455042 -0.20566297 -0.36908713 0.40923423
0000b0 70 2b a7 be 43 81 b8 3e 73 f3 99 be 63 a4 43 bc
       -0.32650328 0.3603612 -0.3006855 -0.011941048
0000c0 40 26 a1 3c 76 4c d3 be 60 bd 01 3e 58 b0 2a 3e
       0.01967156 -0.41269273 0.12669897 0.16668832
0000d0 c0 e8 73 be 80 5a 0d 3e c0 d4 85 bd 8c c5 5e be
       -0.23819256 0.13804054 -0.065347195 -0.21755046
0000e0 56 18 f8 3e 04 1e 8f 3e 62 8c 4b 3d 3e 45 c1 bd
       0.48456067 0.27952588 0.049694426 -0.09437035
0000f0 32 6b e7 3e 85 8f 85 be 9b d2 95 be ba dc 9d 3d
       0.4519897 -0.2608606 -0.29262242 0.07708116
000100 b6 cf ed be 18 a0 b7 3d 08 e9 d7 be f0 50 21 3d
       -0.46447533 0.08966082 -0.42169976 0.03938383
000110 b0 ff 1b be 54 b2 1f 3e 18 16 97 be 40 8a 92 be
       -0.15234256 0.1559537 -0.29509044 -0.286211
000120 87 77 55 3e a5 1e a0 3c 0e 2d 9e 3d dc 69 8d be
       0.20846377 0.019545862 0.07723437 -0.27619827
000130 7a ea 52 bc df 25 99 bd 75 5d 83 be e4 0a b6 3e
       -0.012873286 -0.074779265 -0.2565724 0.35555184
000140 c1 cf 9f 3e 62 80 18 3e 52 33 08 3f d3 e8 59 3e
       0.3121319 0.14892724 0.5320331 0.21280222
000150 7c ed b7 3e b9 38 c4 bc 39 68 00 3f 20 5f 8b be
       0.35923374 -0.023952829 0.5015903 -0.27221012
000160 1f 86 bf 3e bd 89 30 3e 0f 15 97 3e 4f 65 f8 3d
       0.37407014 0.17240043 0.29508254 0.12128698
000170 40 8d b7 3d 6d 9e 98 3e 3a 2e f3 be 35 51 6d bd
       0.08962488 0.2980837 -0.47496206 -0.057938773
000180 0e 41 ae 3e a8 31 07 bd c6 6f a6 be a6 d7 93 be
       0.34034008 -0.03300634 -0.3250715 -0.28875464
000190 81 98 bd 3e 68 d1 2b 3e 4c 95 85 be 69 08 f5 be
       0.37030414 0.16779101 -0.26090467 -0.4785798
0001a0 43 cf b2 be 87 cf 02 be af ba 83 be fa 59 92 be
       -0.34923753 -0.12774478 -0.25728366 -0.28584272
0001b0 aa cf 99 3d 6f be ec 3e c4 d2 32 be d3 6d 7e 3e
       0.07510312 0.4623904 -0.17463213 0.24846582
0001c0 ce d2 ef be 94 42 f1 be 30 0d 9d bd 68 ec f9 3d
       -0.4684052 -0.47121108 -0.07668531 0.12203294
0001d0 39 2e 4c 3e bf dc 83 3d de 86 db 3d 30 f1 d0 3c
       0.19939508 0.06438588 0.10719083 0.025505632
0001e0 b8 c1 70 be 70 72 ec 3d bc 78 73 be 36 0d da be
       -0.23511398 0.11545265 -0.23776525 -0.42588204
0001f0 d1 93 dd 3d 35 57 4e be e4 70 29 3e c6 8b 38 3e
       0.10819209 -0.20150454 0.1654697 0.1802207
000200 48 d9 79 be 7c 21 59 3d da 26 62 3e f7 16 02 3f
       -0.24399292 0.05301045 0.22085133 0.5081629
000210 67 77 4d 3c 9b aa 34 3e b5 d5 0e 3f b2 7f cd 3e
       0.012540675 0.17643206 0.5579484 0.40136486
000220 a0 2f 9f 3d 60 ca dd bd 4e e2 8c 3e 0e f4 b6 be
       0.077727556 -0.108296156 0.27516407 -0.35733074
000230 06 2e 9d 3d a9 a2 73 be 96 16 c6 3e b0 e3 06 3e
       0.07674794 -0.23792519 0.38689107 0.13172793
000240 82 f4 c4 be 68 38 97 be d4 19 af 3d 02 be 40 3c
       -0.38467795 -0.29535222 0.08549848 0.011764051
000250 ee 5c 10 bf c5 14 fb be 3d 54 27 be 44 8d ec 3e
       -0.563918 -0.49039283 -0.16340728 0.46201527
000260 3d 87 88 3e 77 4a a4 3e d7 a5 b1 be 96 c5 fa bd
       0.2666568 0.32088062 -0.34696838 -0.12244718
000270 f1 75 3b 3e 54 be 7a 3e e8 c9 37 be 9f 11 b1 3d
       0.1830671 0.24486667 -0.17948115 0.08645939
000280 2d 60 e3 bc ad c6 a3 be 44 9c da bd 28 24 96 3e
       -0.027755821 -0.31987515 -0.106743366 0.2932446
000290 b4 d8 18 3e 3c 56 3a be c6 5a ef 3e 06 5c f9 be
       0.14926416 -0.18196958 0.46748942 -0.4870302
0002a0 fd e7 a8 3e 54 76 de 3e 93 62 8e 3e ab 31 83 3b
       0.32989493 0.43449652 0.2780958 0.0040037236
0002b0 76 b0 62 3e 41 f1 09 3e ef 52 54 3c fe 4c 28 be
       0.22137627 0.13470937 0.012959226 -0.1643562
0002c0 ca f0 8c be 3e 0a d9 3e 86 d7 13 3f 98 ee 5c be
       -0.27527457 0.42390627 0.5775074 -0.21575391
0002d0 6a a2 47 3e 44 81 66 be 54 ba 98 be 48 89 bf 3e
       0.1949555 -0.22510248 -0.29829657 0.37409425
0002e0 2a bf a8 3e 5f e7 d9 3e fe ed f6 bd 49 d2 a4 3e
       0.32958347 0.42559335 -0.12057112 0.32191685
0002f0 ac d2 46 3e 1a 2e e0 3e c0 15 88 bc 20 74 b6 be
       0.19416302 0.43785173 -0.016611934 -0.3563547
000300 0c 85 bc be 8c 29 1e 3e 00 c4 00 ba 10 ba 73 be
       -0.36820257 0.15445536 -0.0004912019 -0.23801446
000310 9a be 8f 3e 13 fb e9 3e d7 8c ca 3e 03 40 92 3d
       0.28075105 0.45699367 0.39560577 0.071411155
000320 e3 8a a0 3e dc c8 17 be 3d c3 49 3e ba d8 7d 3e
       0.31355962 -0.14822716 0.19703384 0.24789706
000330 58 31 98 3e 9e 6d e2 be be 81 51 3e c5 df 25 3e
       0.29725146 -0.44224256 0.20459649 0.16198643
000340 d5 8e 63 3c b3 d7 c9 be 6d c0 41 3e 74 54 ee 3e
       0.013889034 -0.39422378 0.18921061 0.46548808
000350 87 7a 80 bd 06 75 ef 3e 03 1d 42 3e b9 a7 e5 be
       -0.0627337 0.4676897 0.1895638 -0.44854525
000360 1c eb 24 be 76 ad d2 be 14 7a ab 3e d8 56 b3 be
       -0.16105312 -0.41147965 0.33491576 -0.35027194
000370 9f 98 3d bf e8 b1 a4 be e9 ac e7 3e d7 02 0e 3e
       -0.74061006 -0.32166982 0.45249107 0.13868271
000380 0e d4 89 3c 89 f9 aa 3e 2a 2d 84 be 8d 1b 24 3e
       0.016824748 0.33393505 -0.25815707 0.16026135
000390 9c 45 26 3e 0c 8c 6b be 04 00 75 3e 3e c6 ee be
       0.16237491 -0.23002642 0.23925787 -0.46635622
0003a0 10 88 0c bd 5c ab ff 3e 28 e3 bc be 88 0b b1 bd
       -0.034309447 0.49935424 -0.36892056 -0.086447775
0003b0 7d 99 93 be 2e 49 c3 be 36 cf c3 3e 50 1b 8a 3e
       -0.2882804 -0.3814177 0.38244027 0.26973963
0003c0 14 55 96 3e 68 00 9c be 42 27 97 be 42 7e a6 be
       0.29361784 -0.3046906 -0.2952214 -0.32518202
0003d0 36 69 c1 be 80 3d b2 3e a4 74 1f be f8 2c 9f be
       -0.37775582 0.34812546 -0.15571839 -0.31088996
0003e0 e6 42 ae be 2a 91 9a be c8 0c 7f be d8 32 f6 3d
       -0.34035414 -0.30188876 -0.2490722 0.120214164
0003f0 9e fd 40 3d 6d 94 42 bd d4 54 ef bd 84 d0 17 be
       0.04711687 -0.04750483 -0.116861016 -0.14825636

fc.0.bias f4 [64]
000000 48 b9 be bd 68 e6 eb be 41 09 ce 3e e3 45 0b 3e
       -0.09312683 -0.46074224 0.40241435 0.13600878
000010 1f 16 c4 3e 80 4e ca be 80 91 41 bc 3f 35 c6 be
       0.38298127 -0.39513016 -0.011814475 -0.387125
000020 58 58 b8 be fb 12 b4 3e bf 06 7a 3e 6a 7a ab 3e
       -0.360049 0.3517073 0.24416636 0.33491832
000030 74 f6 89 be 90 08 43 be 6e 13 c2 be 83 d5 7e 3e
       -0.2694584 -0.19046235 -0.3790545 0.24886136
000040 20 1b 8d bc 40 48 23 be f1 cf 39 be ee db da ba
       -0.017224848 -0.1594553 -0.1814573 -0.0016697624
000050 3d 9f d5 3a 70 e5 d2 be 00 da cf 3e 2b 7a 42 3e
       0.0016298067 -0.41190672 0.40596008 0.18991916
000060 9f 3e d6 bd 16 7c 98 be 94 b5 cf 3e ae 17 81 bb
       -0.10461163 -0.2978217 0.4056822 -0.0039395904
000070 10 c4 fb bd 45 10 c8 bb c0 df 97 bc cb a8 36 3e
       -0.12293255 -0.006105455 -0.01853931 0.17837827
000080 00 c1 dd 3e 6e 29 f1 3d b8 57 a0 bd 83 a0 e9 3e
       0.4331131 0.1177548 -0.07829231 0.45630273
000090 ba a3 9d 3e 8a 0f fc bd 3f d4 0a 3e 06 06 25 3d
       0.30788976 -0.12307651 0.13557528 0.040288948
0000a0 2a ee ac 3e 04 99 82 be 1f 65 13 3e d4 97 cf 3d
       0.33775455 -0.25507367 0.14394043 0.10136381
0000b0 bb c8 70 be 8d 34 c7 3d c3 7d be be c2 ea e1 be
       -0.23514073 0.0972682 -0.37205324 -0.44124418
0000c0 68 c7 4e be 5e 6e c9 3d 7b f4 ef 3e 94 76 a4 bd
       -0.20193255 0.09835504 0.4686621 -0.080304295
0000d0 c2 8a 5a 3e 91 24 64 be 40 c8 72 bc 50 91 fe bd
       0.21341994 -0.22279574 -0.014818251 -0.1243006
0000e0 1f 86 ce 3e 58 ee 8a be 18 b9 8b be ac 88 a1 3e
       0.403367 -0.27134967 -0.27289653 0.31549585
0000f0 5c a1 a6 3e 44 a8 f1 be 90 19 97 bd 77 d2 20 3e
       0.32544982 -0.4719869 -0.073779225 0.15705286

fc.2.weight f4 [64, 64]
000000 9c 11 9f bd 5f 30 e2 3d af 06 14 3e af 82 a6 bc
       -0.077670306 0.11044382 0.14455675 -0.020325987
000010 4b ed f9 3c d4 13 ac bd c4 5d 13 bd 7c c8 1a 3d
       0.030508658 -0.084022194 -0.035978094 0.037788853
000020 23 78 04 3e c6 c4 f5 bd dc 01 ec 3d 56 91 a7 3c
       0.12936454 -0.12000422 0.11523792 0.020455044
000030 48 fe c8 bc f6 66 ae 3d 9c bf 61 3d f3 c6 71 bd
       -0.024535313 0.08515732 0.055114374 -0.059027623
000040 b0 b3 0e bc b0 aa b8 3d b6 d0 62 bd d0 09 d3 bd
       -0.008709833 0.09016931 -0.055374824 -0.10304606
000050 f2 e9 e4 bc 4a 15 ac bd 52 5b 50 3d 0c 94 12 3d
       -0.027943585 -0.08402498 0.05086834 0.03578572
000060 17 22 50 3c 2d c7 6c bd 39 24 1c be 26 c2 a1 3d
       0.01270344 -0.057807136 -0.15248193 0.07898359
000070 f2 98 eb 3d cb a6 ff 3c 92 43 c2 bd e6 84 cb 3c
       0.115037814 0.031207463 -0.09485544 0.024843644
000080 c8 35 7f bc aa f6 b6 3d 10 9f 05 bc 5c 0e 2a 3d
       -0.015576787 0.08933766 -0.008155599 0.0415176
000090 6e bc c5 bd 4d 8d a1 bd 05 3d b6 bd 92 f6 3f bd
       -0.09655081 -0.07888279 -0.08898357 -0.046866007
0000a0 b7 2f 8f bb 3c 4d cb 3d f4 17 f9 3d a2 fe ff 3c
       -0.0043697017 0.09926841 0.12162772 0.031249348
0000b0 cd d1 14 bd 92 33 4a be e1 e8 06 3e 00 eb c9 bc
       -0.036332894 -0.19746235 0.13174774 -0.02464819
0000c0 30 fe 75 3d 55 c3 40 3d 78 15 26 3d 9b c9 9c 3d
       0.060056865 0.047061283 0.040547818 0.07655641
0000d0 cf 8f d0 3d dc 17 c6 bd c8 8a 5e 3d 26 15 81 3d
       0.10183679 -0.096725196 0.05433157 0.06302862
0000e0 3a a4 99 3d 92 ed db 3d a8 7e f5 3c a1 31 a7 3d
       0.07502027 0.10738672 0.029967621 0.08163763
0000f0 95 2f b2 bd 42 db 87 3d d2 fc 8c 3d a5 e8 ec bd
       -0.08700482 0.06633617 0.06884159 -0.11567811
000100 e2 cb 8c bd 28 2a ee 3c f8 3e ab 3c e8 e4 63 3d
       -0.06874825 0.029072836 0.02090405 0.055638224
000110 68 f1 13 bd 72 55 dc bd f0 fb a8 bc a0 f2 03 bc
       -0.036118895 -0.10758485 -0.020627946 -0.008053452
000120 1c 3c 33 bd e0 dd 2b 3d f2 26 fd bd 10 56 39 bc
       -0.043758497 0.041959643 -0.12360944 -0.011312023
000130 4c 0d 7e 3d 96 56 ed 3d 60 1f 38 bc cc 36 71 bd
       0.0620244 0.115887806 -0.011237949 -0.05889015
000140 76 93 df bd fe c3 9e bd 36 05 83 3d 58 43 8f bd
       -0.10916798 -0.07752226 0.06397478 -0.06995267
000150 00 0d af bd ca f9 ca bd d8 86 c7 bd 5e 5e 83 3d
       -0.085474014 -0.09910925 -0.09742516 0.064144835
000160 98 8e 3f 3d 88 4c d6 3d 66 fa 80 3d c0 c0 03 bb
       0.046766847 0.10463816 0.0629776 -0.0020103902
000170 ec 1c f2 bd b8 ce 22 bd 78 5b d0 3c 6c f1 f4 bd
       -0.11821923 -0.039747924 0.02543424 -0.1196011
000180 1e 8b ca 3d f0 e1 3f 3c 80 ba 30 3b 94 87 19 3d
       0.09889816 0.011711583 0.0026966631 0.037482813
000190 58 34 90 3c 3e 77 fc bd d2 b0 ca bd f0 61 c2 bc
       0.017603084 -0.12327431 -0.09897007 -0.02372834
0001a0 1a 9d 88 3d c8 0b 98 3d 2c ee af 3d 8a 2e ea bd
       0.0667059 0.07424122 0.085903496 -0.11434658
0001b0 50 47 b5 bc 38 47 78 bd c8 1a 58 3d d0 33 0d bc
       -0.022128731 -0.060614794 0.052759916 -0.00861831
0001c0 28 d9 8d bd b8 97 e7 bc 6c d4 78 3d de cf f8 bd
       -0.06926185 -0.028270587 0.060749456 -0.121490225
0001d0 28 4b 74 bd 8c 8e e3 bd 80 c1 f4 bc 62 ea ce bd
       -0.059641987 -0.11111173 -0.029877424 -0.10103299
0001e0 f8 8a 98 3c 00 01 c9 ba 90 d8 e5 3d ca 8f 93 bd
       0.018620953 -0.0015335381 0.11222947 -0.0720516
0001f0 46 cf d3 bd 60 21 9f bc 70 c8 39 3d 60 75 11 3d
       -0.10342269 -0.019425094 0.045357168 0.03551233
000200 94 44 07 3d 48 2c 1c bd b0 bf d4 3c 9e e9 b5 3d
       0.033024386 -0.038128167 0.02597031 0.088824496
000210 c2 1f db 3d 80 cb a3 bd fc 14 21 3d 48 b9 8f bc
       0.10699417 -0.07997799 0.039326653 -0.017544404
000220 08 be 98 bc 08 00 a9 3c b0 43 72 3c 2a 9e 95 bd
       -0.018645301 0.020629898 0.014786646 -0.07305558
000230 60 79 ed 3d 8c 2f cf 3d be 90 c1 3d 06 23 f6 bd
       0.11595416 0.10116491 0.094514355 -0.12018399
000240 88 b6 e2 bd 38 da b6 bd 10 32 46 bc dc 27 95 3d
       -0.11069971 -0.08928341 -0.012096897 0.07282993
000250 a0 70 3f bd 9a ad b7 3d 48 b7 e2 bc 4e c0 c7 3d
       -0.046738267 0.08968659 -0.027675286 0.09753476
000260 6c 8d b2 bd 5c 73 ce 3d 20 bc aa 3d fa 28 97 3d
       -0.0871838 0.10080597 0.08336663 0.073808625
000270 6c 5a 30 3d b4 ba 36 bd 64 5a 6e 3d 08 b4 9f bd
       0.043054983 -0.044611648 0.058191672 -0.0779801
000280 4a 2f 92 bd c0 03 bb 3b 6c cd 99 3d c8 76 58 3d
       -0.07137926 0.005707234 0.07509884 0.052847654
000290 c0 44 62 bc b2 a3 fb 3d 44 74 11 3d 00 71 8f bb
       -0.013810337 0.12287082 0.03551127 -0.0043774843
0002a0 9a 8a cd bd 12 46 94 bd d8 89 9d 3d 90 d5 62 bc
       -0.10036202 -0.07239927 0.07692307 -0.013844863
0002b0 c0 b0 d8 3c 20 99 db bb 22 41 ff 3d c0 fc f7 bd
       0.026451468 -0.0067016035 0.12463595 -0.12108755
0002c0 08 24 cb 3d b6 ca 9f 3d cc 5f 0a bd f8 4d 83 bc
       0.09918982 0.07802336 -0.033782765 -0.01602839
0002d0 ca 8c 97 bd c0 fe 4d 3b 0e 8c be 3d 80 fb 54 bc
       -0.073999 0.003143236 0.09304057 -0.012999415
0002e0 58 de d7 bc 60 63 8e 3b 08 d9 6f 3d 22 9f c5 bd
       -0.026351139 0.0043453425 0.058556587 -0.09649493
0002f0 e0 24 37 3d 86 97 ef bd 92 af 80 3d dc a1 fd 3d
       0.0447129 -0.11698823 0.062834874 0.12384388
000300 28 59 f3 bc 07 b0 80 bd 54 57 82 3d 3b 1f 81 3b
       -0.029705599 -0.062835746 0.06364313 0.0039404905
000310 28 53 e3 3c 00 cc 58 3c 58 b1 e1 bd f9 2f 3d 3e
       0.027749613 0.013232231 -0.11020154 0.18475331
000320 8e 97 80 3d 0d 0d 4b ba 03 a0 5f 3d dc d3 dc 3d
       0.06278907 -0.000774578 0.05459596 0.107825965
000330 88 55 f7 3c f8 98 31 3d 34 b0 2a bd ac 2f c8 3a
       0.030192152 0.043358773 -0.041671947 0.0015272996
000340 aa 77 da 3d b4 4e 16 bd a5 27 e1 3c 5c 98 95 bd
       0.10667355 -0.03669615 0.027484724 -0.07304451
000350 dc f7 60 bd 4d 7c e2 bc f3 59 58 3c 1a c1 6d 3d
       -0.054923877 -0.027647162 0.013205039 0.058045484
000360 85 a3 58 3d 1b d3 85 bb 49 a0 01 be 32 09 ec 3d
       0.05289032 -0.0040840036 -0.126588 0.11525191
000370 88 e3 29 bd fc e7 c5 3d 8c 8f 64 bd 29 84 da 3d
       -0.041476756 0.09663388 -0.05580096 0.10669739
000380 e6 de e7 3d 88 3b 18 3e ac f8 ed 3d aa 53 de bd
       0.113218114 0.1486646 0.11619696 -0.108558014
000390 94 15 d4 bd bb b4 a1 3d c0 fd e9 3c ab aa 52 bd
       -0.10355678 0.078958 0.02856338 -0.051432293
0003a0 1d e5 c6 3d 18 27 ee bc 33 dd 31 3d b9 91 20 bc
       0.09711669 -0.029071376 0.043423843 -0.009800368
0003b0 da c6 c6 ba 26 bc 47 be 7b 50 e1 bc 3a 29 d3 bd
       -0.0015165464 -0.19505367 -0.027504196 -0.10310598
0003c0 4c f9 d1 3d 9e d7 5b bb 30 22 a5 3d be 9b b1 bc
       0.10252628 -0.0033545266 0.080631614 -0.021680709
0003d0 77 1f ce bd 54 cd 01 bc b6 72 c5 bd ab 32 35 bd
       -0.10064595 -0.007922489 -0.0964102 -0.044237774
0003e0 92 ed cc 3d 12 6f ea 3d d4 3f eb bd bb 83 ec 3d
       0.100062504 0.11446966 -0.114867836 0.11548563
0003f0 75 b8 3b be 50 2b d4 bd d6 d3 98 bd df 67 6e bd
       -0.18332084 -0.10359824 -0.074622795 -0.058204528

fc.2.bias f4 [64]
000000 8d 5c 4b bd a0 10 51 bd 3c 87 fc bd 03 12 91 bd
       -0.04964881 -0.051041245 -0.123304814 -0.070835136
000010 4d ba 08 3d 48 cd 67 bd 8a 68 f0 3d d8 6b 4f 3d
       0.033380795 -0.056592256 0.11738689 0.050639957
000020 b4 e9 4c bd a8 d0 b5 3c e1 6f 27 3d c3 46 03 bd
       -0.050027564 0.022194222 0.04087818 -0.032049906
000030 60 c9 25 3d d8 cf d3 3d f4 99 1e bd cf 29 b9 3b
       0.04047525 0.103423774 -0.03872104 0.005650736
000040 17 78 cf 3d a9 e6 91 3d 6e 5a 8e bd a3 d5 5c 3d
       0.10130327 0.07124073 -0.06950842 0.053914677
000050 55 f9 ac bd f5 b8 f9 3d cb 0f b7 3d 78 ff b4 bd
       -0.08445994 0.12193481 0.08938559 -0.08837789
000060 b0 5f fe bd 88 28 49 3c 70 0a 23 bc e2 81 3a bb
       -0.12420595 0.01227773 -0.009951219 -0.0028458764
000070 e4 e9 27 bd df 0a 95 3d b8 54 c2 3d 38 24 dc bc
       -0.04099454 0.07277464 0.09488815 -0.02687274
000080 83 ba 9f 3d 53 53 af 3d 22 30 aa 3d 8b fa 33 bd
       0.07799246 0.08560815 0.08309962 -0.04394011
000090 96 12 b6 3d ce 0f ef 3c 46 37 f8 bb 7a 1b e1 3d
       0.08890264 0.029182341 -0.0075749485 0.10991569
0000a0 c5 7f ac 3d 65 a9 a9 3d 0a fd 31 3d e1 c3 c7 bd
       0.084228076 0.082842626 0.043454207 -0.09754158
0000b0 40 49 6d bc 9f 8c 98 3c 2c 1d 87 bd 64 b1 56 bd
       -0.014482796 0.01862174 -0.06597361 -0.052415267
0000c0 03 ef 4a 3d 08 40 b4 3c 22 ca e4 bd a6 c0 a0 3d
       0.049544346 0.022003189 -0.11171366 0.07849245
0000d0 1e b9 91 bd a9 ae bf bc d8 40 b2 3d 22 d7 18 3c
       -0.071153864 -0.023398714 0.08703774 0.009328635
0000e0 3a 3b 00 3d f9 fd 89 bd fc 39 90 3d 8b 4a da 3d
       0.031306483 -0.067378946 0.0704231 0.10658749
0000f0 38 58 05 bd 44 ec 45 bd 42 7f 30 bc 4a 3f 84 bd
       -0.032554835 -0.048321024 -0.010772528 -0.06457384

fc.4.weight f4 [2, 64]
000000 5d 70 87 3c f4 09 6d bd 8a a2 de 3d 51 94 db 3d
       0.016533071 -0.05787082 0.108708456 0.107216485
000010 ac 09 85 3d 20 9b a7 bb 0c 66 06 bd 1e cc de bd
       0.064959854 -0.005114928 -0.032812163 -0.10878776
000020 6d 50 50 bc 5c 80 1c bd 6c 5b 1f 3d cc a4 24 3c
       -0.0127144875 -0.03820835 0.038905546 0.010049056
000030 b9 c4 8c bd ef cd 03 3e 14 1a b7 bd 0a bb 8f 3d
       -0.06873459 0.12871526 -0.08940521 0.07018097
000040 8d 44 3b 3d cd a1 4f bd d0 b0 9c bc fb e9 4b bd
       0.045719672 -0.050691415 -0.01912728 -0.049783688
000050 eb 76 bf 3d f0 c1 ea 3d 47 da bc 3d 05 74 cd bd
       0.09348854 0.11462772 0.092213206 -0.100318946
000060 b8 a4 50 bd 04 05 f2 bc 60 60 91 3c 68 22 8d bc
       -0.050938338 -0.029543407 0.01774615 -0.01722832
000070 46 25 c5 bd ed 7d e5 bd 8c d6 ef 3d ca 69 e8 bd
       -0.0962625 -0.11205659 0.117108434 -0.11348303
000080 c1 93 0c 3d 2d b3 06 3e 01 ca 34 bd ee 54 b9 3d
       0.034320597 0.13154288 -0.04413796 0.09049402
000090 28 22 b2 bc 42 85 52 bd b3 a0 6a 3d 18 6f 1b 3e
       -0.021744803 -0.051396616 0.05728216 0.15179098
0000a0 3f c2 1b be 89 99 67 bd 9d d7 e1 3c d0 4a d3 3c
       -0.15210818 -0.056542907 0.027568633 0.02579251
0000b0 9a 9a e8 3d 80 54 cc bd 14 e6 b7 3d a2 18 df bd
       0.11357613 -0.099770546 0.08979431 -0.1089337
0000c0 54 d3 be bc b6 a5 ca bd 30 12 08 bd f5 bf 0c bd
       -0.023294128 -0.09894888 -0.03322047 -0.034362752
0000d0 82 e7 c4 3d 70 c5 2e 3d d1 df 9c 3d 81 84 61 3c
       0.09614469 0.04266876 0.07659877 0.013764502
0000e0 39 cd 46 3d 86 2d d0 bd 59 05 b6 3c 64 62 38 bd
       0.04853556 -0.10164933 0.022219347 -0.045015708
0000f0 e0 62 cf bb 08 43 fa bd 9f ec 2d 3e d2 91 48 3d
       -0.0063289255 -0.122198164 0.16984795 0.04896719
000100 1d 4d 08 3e 4e 4c ad 3d 8e 8a a1 bd d1 e6 35 3d
       0.13310666 0.084618196 -0.07887755 0.044409577
000110 63 6d 2f 3c b8 86 74 3d f1 da fa 3d 00 7c 85 ba
       0.010707232 0.05969879 0.12248791 -0.001018405
000120 0a 18 6a 3d 10 65 1e 3c 8e 92 a9 3c 46 94 46 3b
       0.05715183 0.00966765 0.020699766 0.003030078
000130 b7 0e 11 3e 71 f8 c6 3d ae bd 8c bd 2a b2 42 3d
       0.1416577 0.09715355 -0.06872116 0.04753319
000140 e1 27 8b bd 63 b5 15 be 5c 11 1e 3d 54 ef 14 bd
       -0.06794716 -0.14619975 0.038590774 -0.036361054
000150 4a 8b c9 bd 4d d3 6d 3d 3c ca d4 3d 3f 4b 5a bd
       -0.098410204 0.05806284 0.10390136 -0.053294417
000160 72 45 ae bd 30 7f a7 3d 04 b6 55 bd be be 86 bc
       -0.085093394 0.08178556 -0.052175537 -0.016448375
000170 12 77 f3 3d eb 4f c8 3d 85 dd 09 3d 98 ce 13 3d
       0.11887945 0.09780868 0.033658523 0.036085695
000180 e9 bf 66 3d 80 a4 03 3e 66 52 22 bc 1b 7b 98 3d
       0.056335364 0.1285572 -0.009907341 0.074453555
000190 10 0e 45 bd 6f e5 91 bc db 45 8a bc d3 39 3a bd
       -0.048109114 -0.017809598 -0.016879013 -0.0454653
0001a0 c7 6b a3 bd 62 33 e7 bc 1e 6d 71 bd 5b fd 3f bc
       -0.07979541 -0.028222743 -0.058941953 -0.0117181195
0001b0 45 bc f2 bb 4c 8e 0c bd 14 d8 85 3d 8e a4 a5 bd
       -0.0074076974 -0.034315392 0.06535354 -0.08088027
0001c0 f0 32 87 bb 88 13 1a 3d 78 10 a1 bd f0 be ce 3d
       -0.0041259453 0.037616283 -0.07864469 0.10095012
0001d0 6c b4 41 bd 96 90 c2 3d 53 72 34 3d 05 54 2c bd
       -0.047291204 0.09500234 0.04405434 -0.042072315
0001e0 64 44 0f ba e8 77 15 3d d4 97 19 bc c1 39 20 3e
       -0.0005465208 0.036491305 -0.009374578 0.15647031
0001f0 b0 28 ff bd 20 2c bc 3b a3 90 8b bc a3 c7 53 bd
       -0.124589324 0.005742565 -0.017036742 -0.05170406

fc.4.bias f4 [2]
000000 d9 09 72 bc 7f 2e 67 bd
       -0.014772856 -0.056440827
