best_model.pth (torch, 274274 bytes, 18 tensors)

lstm.weight_ih_l0 f4 [192, 5]
000000 cc fc b6 3d 7a 46 72 bc 77 c5 98 bc a8 fc fb bd
       0.08934936 -0.014787311 -0.018648846 -0.1230405
000010 6a 2d 6e bd d9 8c 9e bd 3b 19 0f be fa 6b b3 3d
       -0.05814878 -0.07741708 -0.13974468 0.08760829
000020 a8 51 d4 bd b8 f7 33 3b fa da 0e 3e 39 f5 23 be
       -0.10367137 0.0027460884 0.1395072 -0.16011514
000030 13 aa 73 bd df 3c 35 bd 95 4c 38 3d 31 b9 05 3e
       -0.059488367 -0.044247504 0.04499491 0.13058926
000040 7d 3d 82 bd 76 a6 e8 3d 82 a7 05 3d 3b ad 35 3e
       -0.06359384 0.11359875 0.03263045 0.17741863
000050 6b 19 aa bb 84 a3 2f 3e e2 34 b0 3d ac 8f 09 3e
       -0.0051910183 0.1715222 0.086038366 0.13433713
000060 da 91 34 bc 42 66 70 bd 4f 4a 46 3e 24 73 51 3c
       -0.011021102 -0.05869127 0.19364284 0.012783799
000070 29 4d 6e 3d 41 e1 5f 3d c1 d3 c1 38 13 bc 2b 3e
       0.058179054 0.05465818 9.2423994e-05 0.16770963
000080 d3 d3 40 3d 86 08 44 3d 1f 22 96 3d d1 fa 91 bc
       0.04707701 0.04785969 0.07330727 -0.017819794
000090 32 39 f7 3d f6 1d 90 bd 7d 21 de 3c b1 6e d9 3d
       0.12071456 -0.070369646 0.027115578 0.10616816
0000a0 c5 bb cd bd 99 43 2a 3e c3 08 3a 3e b8 84 84 bc
       -0.1004558 0.16627349 0.18167405 -0.016176566
0000b0 ae cd e4 bc 3b 2b 81 3c 0c dd d5 bd 17 3e 6b 3d
       -0.027930107 0.015767684 -0.10442552 0.05743226
0000c0 07 38 f6 bc 85 aa 81 3d 28 73 83 bb 8f d0 a5 3d
       -0.030056013 0.06331352 -0.0040115304 0.0809642
0000d0 9a 97 e4 3d ed 58 47 3d 62 86 14 3e 4d b0 35 bd
       0.11161728 0.04866879 0.14504388 -0.044357587
0000e0 3a da 57 be 12 41 1a be 44 55 08 bd 39 33 60 bd
       -0.2107934 -0.15063885 -0.03328444 -0.05473635
0000f0 1a af 3b 3d 4d 13 b8 bb 72 57 52 3d 63 a3 a8 3d
       0.045821287 -0.005617535 0.051352926 0.082342885
000100 07 5e c5 bc 5e 72 18 3e 2a 03 ca bc 60 0c b3 bd
       -0.024092687 0.14887378 -0.024659712 -0.08742595
000110 06 01 57 3e 83 f6 53 3d 85 94 56 bd b7 6f 60 3e
       0.20996484 0.051748764 -0.052387733 0.21917616
000120 7b 89 4b 3d 25 91 c3 3d b5 c5 44 3e c0 a5 ae 3d
       0.04969166 0.095491685 0.19216044 0.08527708
000130 96 bb 2e 3d c9 21 45 3e ae 93 e8 bc ec b2 f6 3d
       0.042659365 0.1925117 -0.028390732 0.120458454
000140 05 d1 78 bd 4b 8b 1f 3e 89 60 0c 3d ac 24 f2 3c
       -0.06074621 0.1558048 0.03427175 0.029558502
000150 bc 75 b7 3c c6 69 73 bd 2f a9 3e 3e 93 5c a1 3d
       0.022395007 -0.059427045 0.18619226 0.07878985
000160 1b 9a b3 3c 59 77 b8 3d 16 5d 07 bd bd c6 d9 3b
       0.02192407 0.09007139 -0.033047758 0.006646006
000170 1b f5 9d 3c 17 14 92 3d cf ba 01 3e f0 14 02 be
       0.019281914 0.07132738 0.12668918 -0.127033
000180 37 aa a2 3d e7 bb 2a 3e f0 e6 12 3e e8 1f 0e 3e
       0.07942622 0.16673242 0.14345908 0.13879359
000190 cc a9 b5 bd 2b c0 c3 3d b3 61 b7 3d 56 fe 9a bd
       -0.08870277 0.095581375 0.089541815 -0.07568042
0001a0 89 b3 c3 bd 0d 25 33 be fd 7c 04 be 56 9c b5 bd
       -0.09555728 -0.17494603 -0.12938304 -0.08867709
0001b0 9f f1 e1 3d d5 2a b9 bb c6 dd 58 3c eb ca 7d bd
       0.11032414 -0.005650858 0.013236469 -0.061961096
0001c0 01 a3 42 bd 4c 88 22 bd 9e 9f d5 3d 95 f9 b6 bc
       -0.047518734 -0.039680764 0.10430835 -0.022335807
0001d0 f3 28 db bc e5 aa d2 bc 5c f6 db 3d d7 35 c4 3d
       -0.026752925 -0.025716254 0.10740349 0.09580582
0001e0 fc 84 80 3d 55 02 21 3c bd a5 8c 3d bb 0b d4 bc
       0.06275365 0.009827216 0.068675496 -0.0258845
0001f0 cb 69 47 3e a6 c3 4f 3c 77 88 77 bd 3a 51 22 3e
       0.1947395 0.012680924 -0.060432877 0.15851298
000200 59 78 7c 3d 08 4f be 3d 43 6b 01 3b f4 66 86 bb
       0.06163821 0.09292418 0.001974777 -0.0041016284
000210 10 76 4d 3e 1d 62 a3 3c b0 1e e8 3d 61 bb 4a 3d
       0.20064569 0.019944245 0.11333978 0.049495105
000220 77 74 6a bc 2e 04 8d bd ed a4 06 3e 97 d4 93 bd
       -0.014309994 -0.06885563 0.13148852 -0.07218283
000230 53 69 0d 3e 14 a0 16 3d b6 42 3b bd e3 79 00 3e
       0.13809709 0.036773756 -0.045717917 0.12546496
000240 6c 34 3d b9 64 07 34 3e 42 d3 99 bc 0c 14 b0 bd
       -0.00018043973 0.17580944 -0.018777493 -0.08597574
000250 22 80 18 bd a5 86 07 3e 7a af f9 bd 3a f5 58 bd
       -0.037231572 0.13234957 -0.121916726 -0.05296824
000260 d1 44 53 3e 72 77 3d bd 42 60 ce 3c d1 5d 77 bd
       0.2063172 -0.04625649 0.025192384 -0.060392205
000270 f2 d8 88 3d 9f 4c fe 3d e6 91 8e 3d 2c 6e 34 bc
       0.06682004 0.12416958 0.06961422 -0.011012595
000280 32 ea bd 3d b1 db 4d bd 3d 7e 04 be 84 54 38 3d
       0.09273185 -0.050258342 -0.12938781 0.045002475
000290 42 33 00 3e 20 3b a7 3d 09 b3 37 3e 2e b3 38 3e
       0.12519553 0.08165574 0.1793939 0.18037102
0002a0 1f 8b 78 bd eb 67 29 bd 32 c3 15 bd 04 7a 10 bd
       -0.06067955 -0.04135887 -0.036563106 -0.035272613
0002b0 b6 f6 1b 3e 38 a1 25 ba cc f6 b4 3d 77 c6 6b bd
       0.15230832 -0.0006318274 0.08836135 -0.057562318
0002c0 c0 8e 7e 3d 38 2f 82 bb e7 dd f6 3d 59 00 d2 3d
       0.062147856 -0.003972914 0.12054043 0.102539726
0002d0 cd 4a 46 3c 07 2a 18 be 75 2f d4 bd f0 14 b3 bd
       0.012102795 -0.14859782 -0.10360614 -0.08744228
0002e0 3e a6 46 bd eb 7e 81 bd d8 23 9b 3d fc fb 0e 3e
       -0.048498385 -0.06323036 0.07575196 0.13963312
0002f0 3a b6 22 3e bf 6e 82 bd 0b 1d 9b bd bb d6 95 bd
       0.15889826 -0.063687794 -0.07573899 -0.07316347
000300 f2 64 2b 3e 3d fc 05 3e d7 28 fd bc 8c 41 a0 bc
       0.16737726 0.13084503 -0.030903263 -0.019562505
000310 4f f9 42 3b 81 7c e1 3d ad 14 61 3e f7 d7 8a 3d
       0.002975065 0.11010075 0.21980543 0.06779473
000320 e4 66 e4 3d 49 a9 69 bd 89 6a 87 3a e2 d6 fd 3c
       0.11152437 -0.05704621 0.0010331433 0.030986253
000330 bb f4 b8 3d 5e 3f d9 3d 9c cc 47 bd fa c2 17 3e
       0.09031054 0.106077895 -0.048779115 0.14820471
000340 5c 7d 26 3e b3 be be 3d 58 cf 3a 3c 9c 3c 37 3d
       0.16258758 0.09313717 0.011401974 0.044735536
000350 27 7c 03 bc 49 5a ac 3d 12 0d 74 bd 8c 0a df 3d
       -0.008025206 0.08415658 -0.059582777 0.108906835
000360 0f d5 9e 3c 92 17 5b 3e 5a e1 c6 3d a5 1e 70 3d
       0.019388704 0.2139571 0.09710951 0.058622975
000370 5e 71 ec 3c 83 b7 a9 3d f3 a0 09 3e 79 91 12 3e
       0.028862651 0.08286955 0.13440304 0.14313306
000380 21 85 24 bd 9d 5c 31 3e 5f a7 36 3d b2 f3 2e 3e
       -0.040166024 0.17320485 0.04459321 0.1708515
000390 9f 61 c9 bb 10 0b f4 3d 7d 53 b0 3d 75 ed 90 3e
       -0.0061456705 0.119161725 0.08609674 0.28306165
0003a0 9c b8 15 3d bb d5 0c 3e 36 85 61 3c 94 bf 1c 3e
       0.03655301 0.13753407 0.01376467 0.15307456
0003b0 03 41 ef 3d 3b 6b 40 3e eb 6d 06 3e 20 3e 28 3c
       0.11682322 0.18790905 0.13127868 0.010268718
0003c0 4b c9 24 be b0 23 2a be d7 3c a7 bc 2a 10 a1 bd
       -0.16092412 -0.16615176 -0.020414753 -0.07864411
0003d0 c8 f0 d3 bd a4 e8 8d bd 80 d9 42 bc 56 48 e1 3d
       -0.1034866 -0.06929138 -0.011892676 0.11000125
0003e0 bf 31 b8 bd ad bf 5f bd 84 8f 87 3d 8d 06 1a be
       -0.08993863 -0.054626156 0.0661917 -0.15041561
0003f0 8f 77 c9 bd 03 64 85 bd b0 43 ad 3b 00 cf cf bd
       -0.09837257 -0.06513216 0.00528761 -0.10146904

lstm.weight_hh_l0 f4 [192, 48]
000000 65 9a 8d 3d 00 41 84 3d 99 55 0c be 0d fd 80 bc
       0.06914214 0.0645771 -0.13704528 -0.015745664
000010 b9 34 9f bd 18 e4 a2 bc b4 05 73 3d 9c 3d 01 be
       -0.07773728 -0.019884154 0.05933161 -0.12621158
000020 93 2a 8b 3d 69 1f d5 3d 0d 48 dc 3d 80 58 0b 3e
       0.0679523 0.10406382 0.1075593 0.13607979
000030 a2 a9 cf bd e5 19 8c 3d 6e 9e 37 3e 07 1b 4b bd
       -0.10139777 0.068408765 0.1793153 -0.049586322
000040 6d ad 86 3d 5e 5b 48 bd 57 d4 bf 3d c1 50 d9 bd
       0.06576047 -0.04891526 0.093666725 -0.10611106
000050 38 b9 38 3e 27 c8 c1 bd 53 ef 08 be 2a 71 e9 bc
       0.18039405 -0.09462004 -0.13372545 -0.028496344
000060 f3 95 30 3d 09 1a ac bd bf ed 17 3e b1 ea a2 3d
       0.043111753 -0.08403403 0.14836787 0.0795492
000070 06 18 a8 3d 64 0d bb bd fd 75 25 3e fd 97 7d 3b
       0.08207707 -0.091334134 0.1615829 0.0038695328
000080 cd 6d 84 bd 1e 70 4c bd 39 e6 00 3e d3 d9 d9 bd
       -0.06466255 -0.04991161 0.12587823 -0.1063725
000090 24 72 a3 3d d1 d5 12 3e 49 b0 0d 3e 6c 1a a8 3d
       0.07980755 0.14339377 0.13836779 0.082081646
0000a0 7e e6 28 bd 04 8a 8a bd 0e 36 2b be 1e ae 9a 3d
       -0.04123544 -0.06764606 -0.16719839 0.075527415
0000b0 2c 2c 20 be ba d3 d9 bd 11 db 0c be 9a 1e 4f bd
       -0.1564185 -0.10636087 -0.13755442 -0.050566293
0000c0 67 e0 84 3d 1f 03 19 be 09 c6 06 3e 6e bb 49 3b
       0.06488114 -0.14942597 0.13161482 0.0030781883
0000d0 f9 62 63 3c 81 3b 89 bd df d5 33 bd 58 3a cc 3d
       0.013878577 -0.067008026 -0.043905135 0.09972066
0000e0 f1 e3 46 3b 38 20 17 be 3f 84 ff 3d 07 cd bb bd
       0.0030348266 -0.14758384 0.12476396 -0.09169965
0000f0 e7 34 a3 bd 23 08 da bc 49 3c 9a bc a4 92 d0 bd
       -0.07969075 -0.026615208 -0.018827574 -0.101842195
000100 67 c5 2c bd 25 4a ce bd d7 39 3c 3e 5f 1c b4 bd
       -0.042180445 -0.10072736 0.18381439 -0.08794474
000110 07 8a e1 3d ca 9e e9 3d 7c be ce 3c 5e 68 28 3b
       0.11012655 0.1140724 0.025237314 0.0025696973
000120 96 46 00 3e 82 7f 2d be 37 72 09 be 53 45 3d bd
       0.12526926 -0.16943172 -0.13422476 -0.04620869
000130 59 cf d9 3d ec 8d 83 3d 03 39 f0 bc 79 4e 04 3e
       0.106352516 0.06423554 -0.02932406 0.1292056
000140 f0 f7 86 bd 0d de c4 3c 2c 4b 08 be 59 25 66 3d
       -0.06590259 0.024031663 -0.13309926 0.05618796
000150 23 ba af bc 26 8d 01 3e cf e6 55 bd 76 ff 2f bd
       -0.021451062 0.126515 -0.05222207 -0.042968236
000160 61 8b f4 bd 4e 13 96 bd d2 c9 9e bd 27 18 38 bd
       -0.11940647 -0.07327901 -0.07753338 -0.04494491
000170 1d d8 d7 bc b6 2d 0a bd aa 6d 77 3d ee 8b 77 bd
       -0.026348168 -0.033735 0.06040732 -0.06043618
000180 84 fb 96 bd 88 9c d6 3c b0 26 00 be 79 ba ca 3d
       -0.073721915 0.026197687 -0.12514758 0.09898848
000190 22 7a 35 3d e2 bf f4 bc 89 bd 0c 3e dc 61 9a bc
       0.044305928 -0.029876653 0.13744177 -0.018845491
0001a0 2d 02 dc 3d 2d 1d 9b 3d a4 1b 46 3c f0 c6 9c 3d
       0.107426025 0.07573924 0.012091551 0.07655132
0001b0 a9 5b b8 3d ed fd f3 3c 12 81 c1 3d 9e 4f d0 bc
       0.09001858 0.029784167 0.09448446 -0.02542859
0001c0 2a a7 10 be 5e cf f8 bd ac 76 0e bd 95 a5 98 bd
       -0.14126268 -0.12148927 -0.034781143 -0.07453457
0001d0 17 a2 34 be 19 0d b8 3c d2 b4 98 3c ee 21 77 3d
       -0.17639957 0.022467183 0.01864091 0.060335092
0001e0 ed ea 6b 3d 04 09 12 3d 41 ab f2 bd 7f a4 56 3d
       0.05759709 0.03565313 -0.1184907 0.05240297
0001f0 f1 b8 4d 3d b3 0a 9e 3d 45 8c be 3d 6d 69 83 bd
       0.050225202 0.077168845 0.09304098 -0.06416593
000200 e3 fa 0e bd f6 19 eb 3d 9f 24 02 be 99 26 5b 3b
       -0.034907233 0.11479561 -0.12709282 0.0033439754
000210 81 24 28 bd 87 4e a3 bd 58 3f 12 bd 4c 8f d0 3d
       -0.041050438 -0.07973962 -0.03570494 0.10183582
000220 66 ec 44 bd d2 44 c6 3d eb ef a2 3c 63 c7 81 bd
       -0.04807701 0.09681095 0.019889792 -0.06336858
000230 cd 65 fe 3d e9 66 c5 3d f1 e1 33 be a0 33 5d bd
       0.12421761 0.09638769 -0.17566659 -0.05400431
000240 48 19 5a bd b7 55 a0 bd c0 cf 12 3e f8 03 07 3c
       -0.053246766 -0.07828849 0.14337063 0.008240692
000250 5f db 9b bd 62 ab 89 3c 10 2d 45 be 44 59 e9 3d
       -0.07610201 0.016805355 -0.19255471 0.11393979
000260 ca 1f 98 3d b0 2d f1 bc 1f 22 57 3d 35 85 f0 3c
       0.07427938 -0.02944073 0.052522775 0.029360393
000270 82 db 12 bd b9 5f bd bb 8e 41 f6 3b 55 cf ea 3d
       -0.03585387 -0.0057792333 0.007515139 0.11465327
000280 87 be 08 3c 15 c6 44 be 74 a7 03 3d 7c f9 c7 bd
       0.0083462065 -0.19216187 0.032142118 -0.09764382
000290 0b 2c 8e bd 98 63 5b 3d f1 86 c0 bb aa d7 1b 3e
       -0.06941994 0.053561777 -0.0058754613 0.15218988
0002a0 33 82 2c 3e 18 e4 02 3d ee 39 64 bd c2 42 7a bd
       0.16846542 0.03195581 -0.05571931 -0.06109882
0002b0 6c 34 bf bd 6d aa 5d bd 81 3e a9 3d 23 8d 63 bd
       -0.093361706 -0.05411761 0.08263875 -0.05555452
0002c0 a6 8c f0 3d f2 b0 d1 bd 83 f4 f2 3c 89 57 63 3d
       0.117455766 -0.10238828 0.029657608 0.055503402
0002d0 33 6b 1e 3c 6f 06 18 bd 78 c5 c0 3c 7c d2 2f be
       0.009669113 -0.03711551 0.02353166 -0.17170137
0002e0 32 ed cd bc 3a 0d 23 be 36 fc ba 3c 84 dd ac 3c
       -0.025137518 -0.15923014 0.022825342 0.02110172
0002f0 ab b1 fe bc 3e 55 84 3d 84 ef 24 be ef da 09 bd
       -0.031090578 0.06461571 -0.16106993 -0.033656057
000300 6d 24 f0 3d bc c7 f8 3a a5 03 32 3d 43 20 24 bd
       0.11725698 0.0018980424 0.043460507 -0.04006983
000310 f2 d3 0c be 51 2e 2c 3d d2 19 2d 3b 8b af fb bc
       -0.13752726 0.04203636 0.0026413095 -0.030723354
000320 95 b6 e9 3d 3f 39 00 3e 5d c8 ae 3c 7a 3a b0 3d
       0.11411778 0.12521838 0.021335775 0.086049035
000330 3a 0c 56 3d 0b cc 20 3d 41 57 a3 3d e7 e6 f8 3d
       0.052257754 0.03925709 0.07975627 0.12153416
000340 cb 02 09 3e 8c 64 aa 3d a0 33 89 bd 5c 48 80 bc
       0.13379972 0.08319959 -0.066993 -0.015659504
000350 be 8a 00 be 18 f8 2b 3e 54 2d d0 bc 1a 72 93 bd
       -0.12552926 0.16793859 -0.02541224 -0.071994975
000360 ec f8 f8 3c 8d 06 90 3d bc f0 1b be 5a 91 73 3d
       0.030392133 0.070324995 -0.15228552 0.05946479
000370 53 7a 17 bd ab 84 cf 3c c0 1a 57 bd 43 51 94 3d
       -0.03698189 0.025331816 -0.052515745 0.07242062
000380 e8 9e 13 be 27 eb 84 3d b0 b5 a8 bd ac 02 07 3e
       -0.14416087 0.06490164 -0.08237779 0.13184613
000390 55 11 36 3e dc c0 19 3d ce ff c0 3d 8a 28 35 3d
       0.17780049 0.03753744 0.09423791 0.044228114
0003a0 0e ea 47 3e 50 7c 15 be 46 8d ce bd aa 3d f2 3b
       0.19522879 -0.14598203 -0.100855395 0.007392605
0003b0 25 70 28 3e 91 13 cd bd bd 1f b0 bd d4 49 52 3d
       0.1644903 -0.100134976 -0.085998036 0.05133994
0003c0 e3 c4 2b 3d 46 bd aa bd b6 43 27 bd 0b de 1d bc
       0.041935813 -0.08336882 -0.04083606 -0.009635459
0003d0 0a cd 5b bd af 49 14 be ac 1f e5 bd 4e 2b ee 3c
       -0.053662337 -0.14481233 -0.111876816 0.029073384
0003e0 69 81 ee bd d6 db df 3c 10 d9 c5 3c fe 06 6f bd
       -0.11645777 0.027326506 0.024151355 -0.058356278
0003f0 00 99 51 bd 3a 6d 02 3d 63 f4 fe bd 59 9e 68 bd
       -0.051171303 0.031842448 -0.12448957 -0.056791637

lstm.bias_ih_l0 f4 [192]
000000 db ad 31 bc ac b1 8f bd 67 25 09 bd ab 22 e3 bd
       -0.010844673 -0.0701631 -0.033482935 -0.11090597
000010 0c 05 ac bd da 06 44 3c 04 65 68 bc b6 77 2c 3e
       -0.083994 0.011964524 -0.01418424 0.16842541
000020 fc 3f 26 3e f6 b3 c7 3c 01 a1 40 bd 75 45 51 3d
       0.16235346 0.024377804 -0.047028545 0.05109163
000030 13 c1 03 be 62 28 71 bd 19 6a b5 3d 08 29 62 bd
       -0.1286662 -0.058876403 0.08858127 -0.05521491
000040 7c 1e 9a 3e 0b 19 59 3e 82 12 90 bd 6d 10 e8 3d
       0.30101383 0.2120096 -0.0703478 0.11331258
000050 16 1c a3 bd 82 2d 9c 3b 2b 74 27 3e 5f 03 89 3d
       -0.07964341 0.004766167 0.16352908 0.06690096
000060 35 e8 4b 3e dc 59 b5 3d 9e 84 78 3d 5f 88 b2 bd
       0.19912799 0.0885503 0.06067335 -0.08717417
000070 4b ad 8b 3d 90 fe cb 3d b8 32 06 3d bf 62 9d 3c
       0.068201624 0.09960663 0.032763213 0.019212125
000080 5f 64 cd 3d 26 23 18 3e 82 80 a3 bd 92 dc e0 3d
       0.1002891 0.14857158 -0.07983495 0.109795704
000090 ac eb 2c 3d 58 3e ba 3d f4 c2 82 3d 18 85 de 3d
       0.04221694 0.090939224 0.063848406 0.10865229
0000a0 5f 6b c0 bd 9e 58 0a 3e d3 ad 19 3d 8c 4f 60 3e
       -0.093954794 0.13510367 0.037519287 0.21905345
0000b0 9e 39 ff bd f7 ed 5a bd 5f 2d 64 3e 0f 18 a7 3d
       -0.124621615 -0.053449597 0.22282933 0.08158886
0000c0 f1 07 68 3d 35 6a 0b 3b 84 72 65 bd e5 48 07 be
       0.0566482 0.002127302 -0.056017414 -0.13211401
0000d0 eb e1 1a bd bd db 3c 3d 96 62 1f 3c 16 c1 12 3e
       -0.03781311 0.046107996 0.009728095 0.14331469
0000e0 7f 33 0a 3e 0c 31 a3 3c 9b 9a 07 3e ef a4 1c bc
       0.13496207 0.019920848 0.13242571 -0.009560808
0000f0 88 28 cb bd 1c 31 02 be 8e 32 8d 3c 67 de 7c bd
       -0.0991984 -0.12714046 0.01723602 -0.061735537
000100 f2 5e 93 bd a4 af b0 bd eb 0d 48 3e f5 4f a6 bd
       -0.07195844 -0.08627251 0.1953656 -0.08120719
000110 0a 00 50 bb 1f a6 d4 3c 37 68 4f 3d 67 33 ca 3d
       -0.0031738305 0.025958119 0.050636496 0.098730855
000120 24 5e 82 bd ab 09 97 3d b1 ce d0 3d 22 cc 00 3e
       -0.06365612 0.07374891 0.10195673 0.1257787
000130 24 83 4e 3c 74 cc 08 bd 4f 80 4d bd f5 cc f6 bd
       0.012604509 -0.033398107 -0.050171193 -0.12050811
000140 bc b8 94 3d c2 6b 0b 3e 50 e3 11 3e 83 9a 40 bd
       0.07261798 0.13615325 0.14246869 -0.047022354
000150 bd 92 6c 3c d6 b6 ed 3d 66 38 f3 3d 58 05 fa 3c
       0.014439282 0.11607139 0.118759915 0.030520126
000160 aa dc 12 bd 31 ff 80 3d 0a a0 0b 3e db 7a 14 3d
       -0.035854973 0.06298674 0.13635269 0.036249977
000170 1f ce c0 3d 08 34 eb 3d c8 50 8f bd b7 1b a7 3d
       0.094143145 0.114845335 -0.0699783 0.08159583
000180 25 8f e9 bd de 41 84 3d 93 07 f9 3d 54 1e 61 bd
       -0.11404256 0.06457876 0.12159648 -0.054960564
000190 56 84 8e bd a1 7c e9 bb 4c 21 b0 3d 82 10 c2 bb
       -0.06958835 -0.0071254526 0.08600101 -0.005922378
0001a0 a8 45 71 bd 8a 6e b2 bd 21 e6 27 bc d1 77 90 bc
       -0.05890432 -0.0871249 -0.010247738 -0.017635258
0001b0 8b d3 a0 3c 6c c4 1c bd fb 42 d6 bd 1a 7c 14 3e
       0.019632122 -0.03827326 -0.10461994 0.14500466
0001c0 78 2f 23 3d 72 30 8a bd 78 7a 07 3e 3f 7d 5b 3d
       0.03984019 -0.067475215 0.13230312 0.05358624
0001d0 bf 7f dc 3c 30 3d f5 bd cc 1f e5 3c 67 77 62 3d
       0.026916383 -0.11974561 0.027969263 0.055289652
0001e0 da 5f 81 bd 86 fa 17 be e7 0b 6b bd 0f 6b 1b 3e
       -0.0631711 -0.14841661 -0.057384398 0.15177558
0001f0 8a 68 8a bc de 83 bc 3d 8b 47 72 3d b0 32 d6 bc
       -0.016895551 0.09204839 0.05915026 -0.026147217
000200 b1 bd c1 bd 5c e7 71 bd a2 da 64 3d 8b 38 b0 3d
       -0.09460009 -0.059058532 0.055872567 0.08604535
000210 e7 2f c9 3d 24 a7 12 3e 10 e9 2e bd 59 c4 7b bd
       0.0982359 0.14321572 -0.042702734 -0.06146655
000220 39 2a 48 3d 21 81 61 3d e5 d5 c6 bd 49 5e b5 bc
       0.04886839 0.055054788 -0.09708766 -0.022139685
000230 d8 3b f4 3d 2c 59 ab 3d 9f d5 3b bc 09 49 1f 3c
       0.11925477 0.083666176 -0.011464505 0.009722003
000240 70 e2 44 bd 13 83 b3 bd 45 57 a0 bd 4c 3c f4 ba
       -0.04806751 -0.08765235 -0.07829145 -0.0018633693
000250 14 f0 3e 3e bd a8 65 bb a3 ed d8 3d 19 05 69 bd
       0.1864627 -0.0035043203 0.105922006 -0.056889627
000260 5c 6c b7 3d 8f ff c4 bc 43 d4 32 3e f4 22 53 3b
       0.08956215 -0.024047641 0.17463784 0.0032216879
000270 6a 51 0b be 0b 5f 80 bc 2b d6 68 bd 1f c9 d9 bb
       -0.13605276 -0.01567032 -0.05684487 -0.00664629
000280 e0 ef 50 3e 47 1a fd 3d 21 ab d5 3c ee dc 84 bd
       0.20404005 0.12358528 0.026082577 -0.064874515
000290 86 84 97 bc b9 71 1c bd 8e ec f2 3d 99 dc f1 3c
       -0.01849581 -0.038194392 0.118615255 0.029524134
0002a0 16 1e 03 3d 06 8d 5b bd cb bb 26 3e 89 c8 0b bd
       0.032011114 -0.053601287 0.16282575 -0.034126792
0002b0 bf 8a 49 3e cf 6b 16 3e 2c 00 53 3e 74 d5 f1 3c
       0.19681834 0.14689563 0.20605534 0.029520728
0002c0 d7 9f 98 bd 25 15 86 3d 63 31 f6 3d c2 8a fd 3d
       -0.07452362 0.06547002 0.120211385 0.123799816
0002d0 eb f2 36 3e e9 3f 06 bd ac a8 02 be 67 ea e6 3d
       0.17866103 -0.032775793 -0.12759656 0.112751774
0002e0 04 f1 5c 3d 33 86 f3 3d fe 98 0f 3e 97 9b 3c 3e
       0.053940788 0.11890831 0.14023206 0.18418728
0002f0 59 97 f3 bc 99 69 48 bd fe e7 4c 3e 55 49 a9 3d
       -0.029735254 -0.04892883 0.20010373 0.0826594

lstm.bias_hh_l0 f4 [192]
000000 1c be 7d bd 34 c7 9b bd 58 78 76 3c 4b 26 8f bd
       -0.06194888 -0.07606354 0.015043341 -0.06989726
000010 5a b6 ff 3d d2 84 9a bd 07 07 ba 3d 77 93 cc 3c
       0.12485953 -0.07544865 0.090833716 0.02497266
000020 a4 51 0b bd 9e 9d e1 3d 19 de 1d bd 70 f7 42 3d
       -0.034013405 0.11016391 -0.038541887 0.047599256
000030 ed 53 ee bd a5 b4 e3 bd ff 7e c5 3d 24 b9 38 3d
       -0.11637101 -0.111184396 0.09643363 0.04509844
000040 c4 bf da 3d 0e a5 67 3e 37 c6 0f 3e b1 af c8 3d
       0.10681108 0.22621557 0.14040457 0.097991355
000050 d0 c1 b2 bc f8 1b 40 3e 4d 0e 45 3c 59 fb 9b bd
       -0.021820933 0.18760669 0.012027335 -0.076163
000060 dd 34 32 3e 54 45 75 bc 30 43 93 bd 28 30 fd bd
       0.17402978 -0.014970142 -0.071905494 -0.12362701
000070 2e 32 50 bb 8a c0 86 3d 1e f7 bb 3d 59 ee ca 3b
       -0.003176819 0.06579693 0.09177993 0.006192964
000080 ba e3 0b 3d a3 14 7d 3d 17 1e 95 3d 3d 5e 20 3d
       0.034152724 0.06178726 0.0728113 0.039152373
000090 47 d6 8c bd 69 93 3e 3e f6 97 b0 3d 38 25 4b 3e
       -0.06876808 0.1861092 0.08622734 0.19838417
0000a0 41 23 ef 3c 83 9e fc 3d f6 28 72 3e dd 31 e5 3c
       0.029191615 0.12334921 0.23648438 0.027977878
0000b0 33 33 7a 3d d2 16 f0 3d 15 e0 26 3e 3b 46 01 3e
       0.061083984 0.11723103 0.16296418 0.12624447
0000c0 7d 60 d7 3d 70 53 e9 3d 59 e6 0b 3d 6b 59 e5 3d
       0.105164506 0.113928676 0.034155224 0.11198696
0000d0 69 c5 3a 3d 6f c6 29 bd bc ba 9b 3d 47 04 b8 3c
       0.04559842 -0.041449007 0.07603976 0.022462977
0000e0 52 c8 bc bd c1 24 6a 3e d2 b0 ad bd 08 23 9b bd
       -0.092178956 0.22865583 -0.084809914 -0.07575041
0000f0 de 2c 80 bc ec 02 e6 3b e6 e5 c6 bd ce 47 6f 3d
       -0.015646394 0.0070193913 -0.097118184 0.058418088
000100 4c df ec bd 74 39 ee bd 6c 5b be 3c 0d 75 97 3d
       -0.11566028 -0.11632052 0.023236953 0.073953725
000110 1e 73 93 3d ee 94 38 3c fb aa 77 3d f5 90 b9 3d
       0.07199691 0.011265976 0.060465794 0.090608515
000120 b7 4d d8 bd 2b ab ba bc df 9d c6 3d d5 16 c4 3d
       -0.10561698 -0.022786697 0.0969808 0.09574667
000130 1a f0 8c 3d 97 fa d4 bd 14 fb 14 3e 7c a9 87 bd
       0.06881733 -0.10399359 0.14548904 -0.066241235
000140 c4 ef c7 bd 90 e8 34 bd 8c 01 dd 3c 89 6d 7c 3d
       -0.097625285 -0.0441671 0.026978277 0.0616279
000150 5f a8 30 3d 8c 53 bf bd 10 23 90 bd e2 16 10 3e
       0.04312932 -0.09342107 -0.07037938 0.14071229
000160 3d 00 0a be 2c 98 4b 3d 43 60 72 bb 44 a0 96 3d
       -0.13476653 0.04970567 -0.0036983646 0.07354787
000170 d2 31 cd 3b 8b e0 78 3d 9a 03 1d 3e f7 41 be bd
       0.0062620426 0.060761016 0.15333405 -0.092899255
000180 e1 82 ca bd 7f f8 0b be 8b 03 9c 3b 03 10 9b bd
       -0.098882444 -0.13669012 0.0047611645 -0.07571413
000190 13 05 38 3d dd 1e 90 3d 3c 90 a8 3d ac b8 c0 3d
       0.044926714 0.07037137 0.082306355 0.09410223
0001a0 c2 9b 04 be 07 f8 0c 3e be 20 84 bd 23 ce 00 3e
       -0.12950042 0.1376649 -0.064515576 0.12578635
0001b0 63 fb f1 3d 70 ae 2d bd 79 2b 93 3d c2 b2 f7 bc
       0.11815526 -0.042402685 0.07186026 -0.030236606
0001c0 04 02 c9 bc 69 ae 05 3e 72 5f e4 bd 6a f3 b0 bd
       -0.024537094 0.13054813 -0.11151017 -0.086401775
0001d0 a5 39 ee 3c ac 6f f8 3d 06 bf 9e 3d 5c 0e cb 3c
       0.029080221 0.12130675 0.077512786 0.02478712
0001e0 75 07 ff 3c d3 54 63 3d 45 39 c5 bb 39 de 3e 3d
       0.031131485 0.055500817 -0.00601879 0.046598647
0001f0 84 14 d3 bd 48 8d 99 3d 8d f4 53 3c 60 b1 09 be
       -0.103066474 0.074976504 0.012936723 -0.1344657
000200 34 d1 bc 3d 16 f8 4e 3d c2 a2 13 be f1 ee b2 3d
       0.0921959 0.050529562 -0.14417556 0.08736981
000210 cc 3a 3d 3c 95 fc 3c bd 91 f9 eb bd b0 a4 9f 3d
       0.011549663 -0.04613932 -0.115222104 0.077950835
000220 95 6d 7a bd 40 90 ac 3b e0 e6 24 3d 52 a7 e4 bc
       -0.06113966 0.0052662194 0.040259242 -0.027911816
000230 c6 40 07 be a9 32 58 3d b7 5d 90 3a 5b 9d 0c 3e
       -0.13208303 0.05278269 0.0011014257 0.13731901
000240 52 da 63 bc 7d 08 bf 3d 71 25 91 bd ca ae c5 3d
       -0.013907032 0.09327791 -0.070872195 0.09652479
000250 d8 ee 9e bd 3c e0 87 3d ab 43 bb bd 97 9d 9f bc
       -0.077603996 0.06634566 -0.09143766 -0.019484324
000260 82 ae c3 3d 16 65 a5 3d 56 e3 24 3e 61 73 00 3d
       0.09554769 0.08075921 0.16102347 0.031360034
000270 17 97 c9 bd 4a 3d 74 bd 4e ff be bd cd fc 70 bd
       -0.09843271 -0.059628762 -0.09326039 -0.05883484
000280 3b 5d de 3d 43 96 8e 3e 92 f2 36 bd 75 a6 51 3d
       0.10857626 0.27849016 -0.044664927 0.051184136
000290 3e fb ef 3d e9 0d de 3d 23 da 21 3c a4 ec 33 bc
       0.117178425 0.10842497 0.009878668 -0.0109817125
0002a0 7f f3 9c 3d bf da e9 3d e1 63 cd bb 21 fb a3 3d
       0.07663631 0.11418676 -0.00626801 0.080068834
0002b0 82 7e 04 3d 03 72 75 bd a4 ac 05 3e 6a 31 e1 3d
       0.03234721 -0.059923183 0.13054138 0.10995753
0002c0 0a a3 2f bd df bf 55 bc 30 db 10 3e 9e 95 17 3e
       -0.042880096 -0.013046234 0.14146113 0.14803168
0002d0 d3 7c 37 3e 2f ee f4 3d 11 82 be bc 9c 92 b9 bc
       0.1791871 0.119594924 -0.02325538 -0.022652917
0002e0 e7 20 b8 bd d4 40 d3 3c 93 c6 56 3e bd a2 29 3e
       -0.089906506 0.025787748 0.20974188 0.16565986
0002f0 63 9a fc 3d 92 3e 4d 3e 41 b9 83 3e 59 46 9e 3d
       0.123341344 0.200434 0.25727275 0.077282615

lstm.weight_ih_l1 f4 [192, 48]
000000 a3 17 94 3b 09 10 83 bd f9 c4 e2 3c 13 d4 e9 3c
       0.0045194193 -0.06399543 0.027681815 0.028543508
000010 d6 76 1a be eb 84 b6 bd 5f dc 84 3d e6 f2 7f bc
       -0.15084395 -0.08912071 0.06487345 -0.015621876
000020 7d d8 b4 3d ca 51 c0 bd f3 65 3e 3d 98 4f d0 3b
       0.08830354 -0.093906 0.046483945 0.0063571446
000030 ba 0d 82 bd 31 31 12 be 65 db ff bd 0f f0 98 3c
       -0.063502744 -0.14276578 -0.12493018 0.018669156
000040 e2 54 1e be 12 98 00 3c bb a9 c9 bc 4e ed cb bd
       -0.15462068 0.007848756 -0.024617067 -0.09957372
000050 f1 b4 de bc 71 f5 8f 3d e8 c0 84 3a f2 8b 1c 3e
       -0.027185889 0.07029236 0.0010128291 0.1528776
000060 cf 11 fa bb 85 0c 71 bd 9d a7 35 3d bf 9a 00 3e
       -0.0076315175 -0.05884983 0.0443493 0.12559031
000070 5d 13 98 3d 35 ee bc 3c 39 44 8e bd 3d c3 16 3e
       0.07425568 0.023062805 -0.06946606 0.14722915
000080 c1 9b 1a 3d 59 47 9f 3d fc cc c8 3d 24 b4 34 3d
       0.037746195 0.0777728 0.09804723 0.044117108
000090 14 4b 5d 3d 7b e3 43 be 96 d1 ff bd fb 63 85 bd
       0.05402668 -0.19129746 -0.12491147 -0.065132104
0000a0 32 c6 9f bd 88 26 12 be ae 7a 7c 3c f7 3c 0e 3d
       -0.07801475 -0.14272511 0.0154101085 0.03472611
0000b0 7e 07 ce bd a7 70 b2 bd 10 f3 df 3c fe 1b 5e 3d
       -0.10060023 -0.08712893 0.02733758 0.054225914
0000c0 88 91 16 3e 41 da 5e bc 7e 54 82 bd 86 dd 24 3d
       0.14703953 -0.0136018405 -0.06363772 0.040250324
0000d0 88 ca a9 bd 6e 45 7f 3d 1d 23 25 be aa 2b 4c 3d
       -0.08290583 0.062322073 -0.16126676 0.04984633
0000e0 20 90 c3 bd dd 53 2f 3d 50 03 1e 3e 4b 46 fa bd
       -0.09548974 0.042804588 0.15430951 -0.122204386
0000f0 79 a3 f3 3d 96 95 3d bd 86 1d 0b 3e 92 58 15 be
       0.11896414 -0.046285234 0.13585481 -0.14584568
000100 78 01 f0 bc 06 0e 84 3d 65 40 c4 3d cb 39 78 3b
       -0.029297575 0.06447987 0.09582595 0.0037876244
000110 28 71 da bc bc 39 69 bd bc ff 49 bd 46 ad 0f 3e
       -0.026665285 -0.056939825 -0.049316153 0.14030942
000120 b6 4d 3c bd 6b 5f 71 3d 80 02 e7 3c 90 29 cb bd
       -0.04597255 0.05892889 0.028199434 -0.09920037
000130 22 54 8c bc 74 8f f1 3d 46 14 80 3c 09 4f 21 3c
       -0.017129961 0.1179494 0.015634667 0.009845504
000140 9c 3c 6a 3d 71 9b d6 bd b3 1c 6c 3d 03 c9 64 3c
       0.057186708 -0.10478867 0.057644557 0.013963941
000150 58 1f bf 38 7c 4f 11 be 5a f5 db bd 2c d0 fe b9
       9.113428e-05 -0.14190477 -0.107401565 -0.00048601755
000160 29 0b 63 bd 03 8d 8d 3a df a1 50 3e 81 1d 06 3e
       -0.055430565 0.0010799471 0.20374249 0.13097192
000170 1a 80 8b 3d 9d c7 9a bd 17 bf 2c bc ef 93 c4 bd
       0.06811543 -0.075576045 -0.010543606 -0.095985286
000180 51 85 a1 bd a5 cc c0 3b 71 26 b8 3d 1e e5 10 bd
       -0.07886756 0.0058837705 0.08991707 -0.035374753
000190 c1 8d 17 3d ee 1d 44 be ed d8 64 be 8c dd 91 bd
       0.03700042 -0.19152042 -0.22348376 -0.07122335
0001a0 44 84 93 bd 06 e8 30 bd 0e e9 bd bd dd 2e 4e be
       -0.07202962 -0.043190025 -0.09272967 -0.20135064
0001b0 e6 59 8f bd e0 65 05 3d 51 4c 1a be cb 6b d4 3b
       -0.06999569 0.03256786 -0.15068175 0.0064825765
0001c0 63 09 d2 bc fd 19 eb 3c 83 a8 34 3e 10 b2 21 bd
       -0.025639242 0.028698916 0.17642407 -0.039476454
0001d0 42 e1 a3 3d 09 76 e3 bd 32 34 65 be cb af dd 3c
       0.08001949 -0.11106498 -0.22383192 0.027061364
0001e0 72 d8 52 3e bd 19 0d 3d 9f 33 40 bc 2a e2 e2 3d
       0.2059038 0.034448374 -0.011731057 0.110782936
0001f0 b2 09 42 be ba a0 35 be 8e 2c d4 bd bf 4c 4c 3e
       -0.18949011 -0.17737094 -0.10360061 0.19951151
000200 a8 82 af 3c e2 e5 dc bd 7c 92 cc b9 c0 2e 3d bd
       0.021424606 -0.10786034 -0.00039019051 -0.046187162
000210 c8 19 ef bd 00 6c 6b bd 29 4b f2 3b 2f 87 87 3c
       -0.11674839 -0.057476044 0.0073942137 0.016543953
000220 b2 50 4e bc 7e 6c 0c be c2 bc 4b 3e d8 e6 76 bb
       -0.012592481 -0.13713261 0.19896224 -0.0037674215
000230 2c 85 88 39 77 fd d4 bd 52 97 f6 bd d3 c1 7d be
       0.00026039162 -0.10399907 -0.12040581 -0.2478097
000240 e3 06 98 bd 2f 43 17 be 7f a9 1b 3e 0b e1 2b be
       -0.074231885 -0.14771722 0.15201376 -0.16785066
000250 7b 17 20 bd ed b0 7d bc fe 76 56 3d 94 40 1c 3e
       -0.039084893 -0.015484077 0.052359574 0.1525901
000260 86 39 1f be 27 50 2a bc be 9c 4a bc 22 10 81 bc
       -0.15549287 -0.010395086 -0.012366472 -0.015754763
000270 ec 88 d4 3d 5e f0 8b 3d d8 41 ec bd 4e 9b 9c bb
       0.10377678 0.06832956 -0.11535996 -0.004779256
000280 75 a6 06 be da 49 20 3d 5c 02 f3 3d 9b ee 07 3d
       -0.13149436 0.03913293 0.118656844 0.033186536
000290 68 fa d7 bc 20 c5 56 3d 92 36 14 be 29 7f df 3d
       -0.02636452 0.052434087 -0.14473942 0.10912926
0002a0 33 cf 43 3e b6 3d fe 3d db a3 12 be 07 23 8f 3c
       0.19122009 0.12414114 -0.14320318 0.017472757
0002b0 16 79 a4 3b 33 3d 24 3d 91 87 c0 bd 2f 91 0d 3e
       0.0050193174 0.040097427 -0.09400857 0.13824914
0002c0 b3 e6 a5 bb 0e 7a 11 3d 18 dc 08 3d e1 ad 98 3d
       -0.005062902 0.03551679 0.033413023 0.0745504
0002d0 4d b5 c2 bd a8 ad 17 bd f4 af 0e 3d fb 55 ab 3c
       -0.09507237 -0.037030846 0.03483577 0.020915022
0002e0 8d 04 80 bc af b3 ba 3d 8a 6d a5 3c cc e6 0f 3d
       -0.01562717 0.09116303 0.020193834 0.035132214
0002f0 25 7c d2 3d 96 40 ab bc d3 46 a2 bd c7 95 a4 bd
       0.10277585 -0.02090482 -0.07923665 -0.0803638
000300 9a b6 19 be 83 88 86 3d 29 29 45 3d ec 7d f4 3d
       -0.15011063 0.06569006 0.048134957 0.1193808
000310 3b 56 08 be 70 f7 0a be 35 b5 90 3c d3 d4 a2 bd
       -0.13314144 -0.13570952 0.017664531 -0.07950749
000320 93 6b a4 3d 6b 22 c5 bc ef 69 d7 3d 81 05 03 3e
       0.08028331 -0.024064263 0.10518252 0.12795068
000330 0a 2f 8d 3d 02 b8 e3 bc 5d 96 30 3c 25 7c 60 3d
       0.068937376 -0.027797703 0.010778037 0.054805893
000340 3c 29 e0 bd f9 eb 4c be 00 a5 e6 bd f4 1d 0a be
       -0.10945365 -0.20011891 -0.1126194 -0.13487989
000350 07 b0 40 3d d4 a6 cd 3d 11 8d 7c 3c de 21 7a ba
       0.047042873 0.100415856 0.015414492 -0.000954179
000360 4a 76 25 3e e5 c7 a0 3d 52 f1 fa bd cd 9c fc bd
       0.16158405 0.07850627 -0.122530594 -0.12334595
000370 c7 79 36 be e4 64 73 bd 47 c7 d0 3d 05 1d ee 3d
       -0.17819892 -0.05942239 0.10194259 0.11626629
000380 6b 22 37 3d a9 24 6b bd 5e ed b3 bb 5d c9 73 3d
       0.044710558 -0.05740801 -0.005490943 0.059518207
000390 e0 ef da 3d ad 60 04 be 26 b2 bb bd a0 f6 cb 3d
       0.10690284 -0.12927504 -0.091648385 0.09959149
0003a0 26 3a 10 3e b3 82 5f bd bc 2a 42 bd 88 7c 28 3e
       0.14084682 -0.054568004 -0.047404036 0.16453755
0003b0 b6 ef 01 3e 3c 60 d6 bd 9c 0d 1b be a6 78 f5 bd
       0.12689099 -0.10467574 -0.1514191 -0.119859025
0003c0 28 b3 2c be a8 a2 eb 3c 0f 5c b7 bc d1 cc 1f 3d
       -0.16865218 0.028764084 -0.022382764 0.039013688
0003d0 86 35 80 3d fd 8c e3 bc 4e 2d 18 bc a2 e1 bd ba
       0.06260209 -0.02777719 -0.009288145 -0.00144868
0003e0 00 7d 1e be ce 1a b7 3d 06 9f ff 3d a6 7d 91 3b
       -0.15477371 0.089406595 0.12481503 0.0044400273
0003f0 a7 5f 59 3c 3d 0c ec bd af 48 30 3e db 85 c2 bd
       0.013267434 -0.11525772 0.17215227 -0.09498187

lstm.weight_hh_l1 f4 [192, 48]
000000 e1 3a e5 3d 30 89 01 3e f5 fa 98 3d 52 a0 8c 3d
       0.11192871 0.12649989 0.07469741 0.06866516
000010 35 7f 48 ba a3 4b ab 3d 48 33 0b be 9f ac 93 3c
       -0.000764835 0.08364036 -0.13593781 0.018026648
000020 c4 2c 1e bd 77 3a 07 3e 97 75 8c ba 41 cb 05 3b
       -0.03861691 0.13205896 -0.0010716197 0.0020415338
000030 b0 22 78 bc d1 b1 15 bd 5d 53 13 be c0 bf c8 bd
       -0.015144989 -0.036546532 -0.1438727 -0.098021984
000040 ef 38 08 be cd ff ee bc cf 92 21 bd fb 5c c6 3d
       -0.13302968 -0.02917471 -0.03944665 0.09685703
000050 ca ff a0 bd 0c c8 7b 3c e0 34 f0 3d 39 c7 7a 3d
       -0.07861288 0.015367519 0.11728835 0.06122515
000060 0b 7a 11 3e 5c cd c0 bd 24 29 e5 3d a8 9e a5 bd
       0.14206712 -0.09414169 0.111894876 -0.08086902
000070 93 7b f0 3d 87 90 a7 bd de 53 c3 bc 89 0e e8 bc
       0.1174232 -0.08181863 -0.023843702 -0.028327243
000080 20 4b 96 3d 30 8a 50 bd 18 ac 14 bd ca a1 df 3d
       0.07338548 -0.050913036 -0.036296934 0.10919531
000090 fe 06 f4 3d a1 98 0b 3e 75 94 fb bd 0b d2 48 bd
       0.11915396 0.13632442 -0.12284175 -0.049028438
0000a0 48 03 b3 3b a7 84 fd bd a9 56 f0 bd 60 2b c6 3c
       0.0054630376 -0.12378817 -0.11735279 0.024190605
0000b0 f0 b0 bc bb 92 9d 27 3e 12 9f 7e bc c5 56 fb bd
       -0.0057583973 0.16368702 -0.015540855 -0.12272409
0000c0 cd 6b a2 3d c0 05 d7 3d c3 51 a5 bd 92 0a d2 bd
       0.079307176 0.104991436 -0.080722354 -0.102559224
0000d0 c0 a5 b0 bd 5d f1 e1 3b 28 de fa bb 81 65 38 bd
       -0.08625364 0.006895228 -0.0076558776 -0.045018677
0000e0 59 73 1f bd f1 26 94 bc 71 92 35 bd d4 a4 0c 3e
       -0.038928363 -0.018084975 -0.04432911 0.13734752
0000f0 6e 5d 07 3e 93 5f 1e 3d 56 05 98 3d bf cd c8 bc
       0.13219234 0.038665365 0.07422893 -0.02451217
000100 a4 9c fc bd 17 54 d4 3d a5 0f 01 3e 7c 37 26 bd
       -0.12334564 0.10367601 0.12603624 -0.040580258
000110 a0 31 1b be 64 ba a2 bd 26 13 b8 3d c2 dd 0a bd
       -0.15155649 -0.079457074 0.08988027 -0.03390289
000120 31 8b d1 3d 4e 9f 49 3d 32 44 8f 3d 98 aa fe 3d
       0.10231627 0.04922419 0.06995429 0.12434882
000130 88 1f ec bd 1f e9 f4 bd 60 af be 3d 75 a4 83 bd
       -0.115294516 -0.11958527 0.09310794 -0.06427852
000140 79 9a c2 3d 05 e7 45 bd 0d 8f a9 bd 63 56 a3 bd
       0.095021196 -0.04831602 -0.08279238 -0.07975461
000150 5b be ab bd f1 0f 5c 3c 5e f8 98 3d 2a 37 30 3c
       -0.08385917 0.013431535 0.07469247 0.01075534
000160 f7 03 b3 bc d7 b4 0b be ce a1 b3 bd 9d 5b ba 3d
       -0.021852477 -0.13643204 -0.08771096 0.09099505
000170 f3 06 d5 3c 59 33 01 bb 29 db bc bd bb 5f 55 3d
       0.02600429 -0.0019714443 -0.09221489 0.05209325
000180 91 1e ab 3b 1e c4 98 3d b5 3d 03 be 79 6c 1f 3e
       0.0052221497 0.074592814 -0.12816508 0.15568723
000190 b1 7b bc bd be 25 b2 bd bc 59 da bd 37 0e 5b 3d
       -0.0920328 -0.08698605 -0.10661647 0.053480353
0001a0 66 72 d8 3d 05 f9 0e bd c2 a9 1f be c1 84 10 3d
       0.10568695 -0.034905452 -0.15592101 0.035282854
0001b0 ff 3d be 3d 25 ec 50 bd 16 3e 01 3e 94 68 bf 3c
       0.092891686 -0.051006455 0.1262134 0.023365296
0001c0 a0 80 1a bc 68 6e 75 3d 93 35 f9 bc 49 d2 3c bd
       -0.009430081 0.059919745 -0.030421054 -0.04609898
0001d0 01 4c ce bd 29 74 11 be 9f eb 84 bd e4 35 15 bd
       -0.1007309 -0.14204468 -0.06490254 -0.036428347
0001e0 9a f9 e3 bb 47 7f 3d 3d a6 b4 d8 3d 8a 21 dc 3d
       -0.006957245 0.04626396 0.10581331 0.107485846
0001f0 b3 9e 94 bd 95 0c 99 bd dd 42 38 3d 69 88 ce 3d
       -0.07256832 -0.07473103 0.04498564 0.10084612
000200 2c 77 07 3e 57 e6 f9 3d a6 67 93 3d dd 65 ce bd
       0.13229054 0.12202137 0.07197504 -0.10078023
000210 5c 00 10 3e 17 b5 0b 3d c5 d2 a2 bd c8 39 5e 3d
       0.14062637 0.034108248 -0.07950357 0.054254323
000220 b6 b6 ed 3d d8 33 79 bd 0f 6e 03 3d 9d 5d b7 bd
       0.11607115 -0.060840458 0.032087382 -0.08953402
000230 b2 b6 00 3e 6a db e3 3d 54 61 91 3d cc 6d d0 bd
       0.12569693 0.11125834 0.07098642 -0.10177192
000240 17 0d 95 bd 05 35 a4 3d 34 4a 49 bd 77 a8 23 3e
       -0.07277887 0.08017925 -0.04914303 0.15982233
000250 dd 91 77 3d 4e 1e 88 bd a3 90 3b 3d f8 37 17 be
       0.06044184 -0.06646405 0.045792233 -0.14767444
000260 3c f4 b6 bd f8 b4 2c 3d 2e e5 a2 bd 29 7e 3e bd
       -0.08933303 0.042164773 -0.07953869 -0.046507034
000270 c7 bb ac bd 21 fd be bd 5a b4 d8 3c a9 92 1d bd
       -0.08434253 -0.09325624 0.026453186 -0.038469944
000280 70 b1 1a bd fa 46 9e 3b 8a bc 5a 3c a6 b8 5c 3b
       -0.037766874 0.0048302384 0.013350615 0.0033679395
000290 6f 1c f2 bd 7b 5f 4a 3d 34 1c a6 3c 84 ca 8a 3d
       -0.118218295 0.049407464 0.02027712 0.06776908
0002a0 18 4a c4 3d cd 83 1e 3d ee 3b 31 bc 09 de b4 bd
       0.09584445 0.038699914 -0.010817511 -0.08831412
0002b0 b4 65 17 be aa ea a3 bd 54 b8 34 bd c1 8e 52 bc
       -0.1478489 -0.08003743 -0.0441211 -0.012851418
0002c0 54 a1 6d 3c 29 36 8c bd c8 6e f0 bd fe 21 ea 3d
       0.014503796 -0.06846268 -0.1173988 0.11432265
0002d0 fa 95 8f bd df c6 ba 3d 18 cd 42 bd 9b c0 ba bd
       -0.07011028 0.09119963 -0.047558874 -0.09118768
0002e0 b5 e7 f0 bd 93 8e d2 bd 9c b0 b3 bd 7d 09 01 3e
       -0.117629446 -0.102811 -0.0877392 0.12601276
0002f0 89 32 01 3e 98 ea df 3b ca 15 35 3d 32 fb db bc
       0.12616934 0.0068333857 0.044210233 -0.026853178
000300 4a 45 ba 3d 43 df 3a 3d b8 0c cc bd 05 a5 08 3e
       0.09095247 0.045623075 -0.099633634 0.133442
000310 6b 60 12 be eb 8a cc bd c8 aa a2 bb 6c 8e a8 3d
       -0.14294593 -0.09987434 -0.0049642064 0.0823029
000320 f1 90 39 3e 28 9a e6 3d 70 f4 fb 3c a1 37 04 be
       0.18121697 0.11259872 0.030756205 -0.12911846
000330 50 6e 94 3d 8d 77 02 be 1a 3f a3 bd 15 32 c1 bc
       0.07247603 -0.12740918 -0.0797102 -0.023583451
000340 f2 f0 f7 bd 44 b4 cf bd ff 45 27 bd fb c8 eb bd
       -0.121065035 -0.10141805 -0.040838238 -0.11512943
000350 33 93 2d 3e ad 55 28 be 98 62 6f 3c 6e 9d 85 3a
       0.16950683 -0.16438933 0.014610909 0.0010194012
000360 5e 5e bf bd 11 b1 08 3d f0 96 fa 3d e2 63 2d be
       -0.09344171 0.03337199 0.1223582 -0.16932634
000370 6a 52 cf 3d 56 11 63 3d 8c 5b 4c 3a ae 33 1a 3b
       0.10123141 0.055436455 0.0007795624 0.0023529339
000380 10 07 53 3e 3e 24 f4 bc 21 e8 45 3c 03 6f da 3d
       0.20608163 -0.029802438 0.01207927 0.10665705
000390 21 95 82 bd 36 bb 34 3a ce c4 d1 bd eb 00 97 bc
       -0.063761 0.00068943517 -0.10242616 -0.018433055
0003a0 e7 57 50 bb 52 dc 46 3d 43 8b f9 bc 48 49 12 3d
       -0.0031790675 0.048549958 -0.030461913 0.035714418
0003b0 23 13 4b 3d 79 55 10 3c 79 53 9d 3d f1 77 c4 bd
       0.049578797 0.008809441 0.07681937 -0.095931895
0003c0 02 4a de bd 3d b1 42 bd 6c 31 ad 3d f2 78 07 be
       -0.108539596 -0.04753231 0.08456692 -0.1322973
0003d0 2a 42 0a 3d fb f6 8a bd 72 8a 24 3e 80 ec dd 3c
       0.033754505 -0.06785389 0.16068438 0.027090311
0003e0 c9 b2 9f bc df e6 b5 bd 59 1f 0f 3e 2b 29 a5 bc
       -0.019494431 -0.08881926 0.13976802 -0.020161232
0003f0 1f 7e c1 bd 30 84 1a 3d 2c fb 34 bd 71 fb e2 3d
       -0.09447884 0.03772372 -0.04418485 0.11083115

lstm.bias_ih_l1 f4 [192]
000000 2a 58 5f bc 31 de 0e 3c e8 9f 9c 3d 9c f2 b5 bd
       -0.01363186 0.008719967 0.07647687 -0.08884165
000010 01 d5 97 3b a7 ef cc 3d 4c 49 31 bd bb 07 34 3e
       0.0046335463 0.100066476 -0.043282792 0.17581074
000020 1d f7 28 3e cf 1f 59 bd ac 69 af 3b b3 0a 72 bb
       0.16500516 -0.05300885 0.0053531732 -0.0036932647
000030 21 2a 91 bd 88 e8 98 3d f1 71 a8 bd f4 86 bf 3c
       -0.070881136 0.07466227 -0.082248576 0.02337978
000040 97 bc de bc 78 b4 21 3e 55 03 11 3d 94 cc f1 3c
       -0.027189536 0.157915 0.03540357 0.029516496
000050 ef 58 e5 bd 2c 9a 13 3e 6e a6 e7 3d de 0c 2b 3c
       -0.11198603 0.1441428 0.11311041 0.0104400795
000060 81 78 ed bc e9 88 46 3e 16 9d 36 bd 56 f8 b2 3d
       -0.028988125 0.19388165 -0.044583403 0.087387726
000070 ac b4 a3 3b 80 54 00 be b9 ac b9 bd d3 94 9d bd
       0.004995903 -0.12532234 -0.09066147 -0.076944016
000080 81 f4 29 3e 90 64 c0 bd 06 c3 eb 3b 47 71 96 3d
       0.16597177 -0.09394181 0.0071948795 0.07345825
000090 18 6d c0 3c e3 17 34 bd 48 02 6d bd 2d 94 80 bd
       0.02348952 -0.043968093 -0.057863504 -0.06278262
0000a0 dd 01 78 3d 7d f4 07 be 9c 06 7e bc 48 54 77 bd
       0.060548652 -0.13276859 -0.0155045055 -0.06038311
0000b0 69 1f 40 bb dc b1 e1 bd bc fb 43 3e ff f3 8d 3c
       -0.0029315597 -0.11020252 0.19138998 0.01732826
0000c0 bf 9b 49 3d 7e 1e 0e 3e ce 34 f1 bd 3e e9 7c bd
       0.049220797 0.1387882 -0.1177765 -0.061745875
0000d0 93 d7 48 bd ae da cd 3d 57 a1 d4 bd 2f 5d 0a bc
       -0.049033713 0.100514755 -0.10382336 -0.008445068
0000e0 68 92 37 bd 09 07 3e 3c 74 d5 ff bd 76 df 87 bd
       -0.04481736 0.011598357 -0.12491885 -0.06634419
0000f0 48 8c f7 3c ad 20 81 3d 3c 38 c6 bb 1e 9c 18 3d
       0.030218259 0.063050605 -0.006049184 0.03725826
000100 38 08 98 3c b2 6f 92 3d 22 48 62 bd de 9f d7 bd
       0.018558607 0.071502104 -0.055244572 -0.10528539
000110 96 45 89 bd aa ea 0e be 1f 99 db 3d 83 68 c8 3d
       -0.067027256 -0.13956705 0.10722565 0.09785559
000120 79 ba 11 bd 8a c7 37 be 04 87 75 3d d1 d2 11 3d
       -0.035578225 -0.17947212 0.059943214 0.03560144
000130 1b 38 fe 3c 63 d2 8c 3c 30 68 98 bd 30 23 d1 3b
       0.031032613 0.017190164 -0.07441747 0.0063823685
000140 39 66 30 3c 2d 40 aa bd 7a 0c 62 bd cc 03 f1 3d
       0.010766559 -0.08313022 -0.05518768 0.11768302
000150 ce 79 0c be 98 e8 f0 bd fb 73 04 3e 44 4d fa 3d
       -0.1371834 -0.11763114 0.12934868 0.122217685
000160 ee 91 89 3c 5b ed fe bd 42 ac a0 3c b4 ff 00 3c
       0.016793218 -0.12447616 0.019613389 0.007873464
000170 64 e3 ac bd 61 77 03 be 7e cf 05 3e 30 67 db bd
       -0.08441809 -0.12838508 0.13067433 -0.10713041
000180 80 99 c3 bd 6a 6a cc 3d da aa f9 3d 3d 02 b3 3d
       -0.09550762 0.09981234 0.121907905 0.08740661
000190 e7 19 e2 bd 3d 92 f6 bb 1b a3 eb 3d 11 e0 b9 3d
       -0.11040097 -0.007524757 0.11505719 0.090759404
0001a0 8f d2 b3 3d 18 7d c1 3d 10 ad d0 bd 5a c5 11 be
       0.08780395 0.09447688 -0.10189259 -0.1423544
0001b0 c1 15 ba bd f9 ad 0e 3d e9 4e 5f bc ee 71 4f bb
       -0.090861805 0.034833882 -0.0136296535 -0.00316536
0001c0 74 3f 4e bd c2 98 05 3d 50 3a b0 bd dd 78 95 3d
       -0.050353482 0.032616384 -0.08604872 0.072984435
0001d0 f3 b5 ca bd c2 27 7a 3d 41 f4 df 3d f5 f9 74 bd
       -0.09897985 0.061073072 0.109352596 -0.05980869
0001e0 ff 32 ef 3d 48 ca bc 3c 02 7c 9f bd 9b 8d 82 3d
       0.116796486 0.023045674 -0.077873245 0.06374665
0001f0 9c 23 a0 bd 93 bf c4 bd 8f 64 70 3d 33 71 cf bc
       -0.07819292 -0.096068524 0.05868965 -0.025322532
000200 64 6a 0e 3e 14 71 f3 3c 03 c1 81 bd 97 87 01 3d
       0.13907772 0.029717006 -0.06335642 0.03162345
000210 f8 79 97 3b 5f b2 3a bd b4 fe 9f 3d 30 2e 56 3d
       0.004622694 -0.045580264 0.07812253 0.05229014
000220 5d fa e5 3d 80 a7 cf 3d 5a 9c 83 3d c8 6b b4 3d
       0.11229394 0.1013937 0.06426306 0.0880962
000230 cf 45 66 bd 20 24 04 be 79 4e c7 bd f5 cf 08 be
       -0.05621892 -0.12904406 -0.09731764 -0.1336058
000240 a9 da 00 be c4 27 2a 3d e1 b8 77 bd 1c 7d e5 bb
       -0.12583412 0.04154183 -0.06047905 -0.0070034396
000250 a0 c9 83 bd e3 45 13 3e 20 9e 12 3d 64 ec 83 3c
       -0.06434941 0.14382128 0.03579533 0.01610393
000260 e0 fd f5 3c 5f 23 91 bd 8b 97 79 bd 7a f5 8a 3d
       0.030028284 -0.070868246 -0.06093554 0.06785102
000270 1f 08 ba 3d cf 5a a3 3b 90 f7 03 3e 24 c5 8c 3d
       0.0908358 0.0049851905 0.12887406 0.06873539
000280 47 e2 26 bd 3d 0d 06 bd f2 f1 b2 bd 53 a8 0e bd
       -0.04074314 -0.03272747 -0.08737554 -0.034828495
000290 89 ee 55 bd ef 24 f2 3d 82 e0 39 3e 2a 4a 2d 3e
       -0.052229438 0.11823451 0.18152049 0.16922823
0002a0 13 66 20 3e a2 12 cf 3d 31 0b 3d 3c 01 58 3b bc
       0.15663938 0.10110976 0.011538313 -0.011434556
0002b0 52 51 37 bd c3 0e ab 3d b6 f1 09 bd f0 d8 16 3e
       -0.044755287 0.08352425 -0.03367778 0.14731193
0002c0 b6 4d 6a 3e b3 c4 30 3d a1 43 33 3e ce 97 c4 bd
       0.22881207 0.043156337 0.17506267 -0.09599267
0002d0 2d ff 04 3e b7 73 ac bd 93 e8 c2 bd 85 af ec 3d
       0.12987967 -0.08420508 -0.09517016 0.11556915
0002e0 9c 4b a2 3c d7 10 ea 3d 60 c3 ed bd df d3 55 bd
       0.019811444 0.11428993 -0.116095304 -0.05220401
0002f0 1d fa a7 bd 5f c9 ad 3c 94 ca af 3d ad 0b 48 bd
       -0.08202002 0.021214185 0.085835606 -0.04883926

lstm.bias_hh_l1 f4 [192]
000000 5a b6 ba 3c ec 66 00 bc eb 11 97 3c 31 ae cf bc
       0.02279203 -0.0078370385 0.018441161 -0.025351616
000010 2d ac 86 3c 78 6d 6e 3d 1f 9c a2 3d 74 54 93 3b
       0.016439522 0.058209866 0.07939934 0.0044961516
000020 12 b8 1a bd e7 13 85 bc 86 85 c3 3a 32 92 ed bd
       -0.0377732 -0.016244842 0.0014917112 -0.1160015
000030 b3 ab 28 3d 5c 46 f2 bd bd 36 94 3d e0 1d 0d 3e
       0.04117937 -0.11829826 0.07237003 0.13780928
000040 9b 2d e4 bc a1 c4 ce bc 85 3c 96 3d ae 78 ff 3d
       -0.027853778 -0.025240244 0.07335762 0.1247419
000050 73 e0 98 3d ce 5c 94 bd b7 55 bb 3d 95 71 d7 3c
       0.07464685 -0.072442636 0.09147208 0.026299277
000060 ae 8e d7 3d bd 11 fa bc 05 6b f3 bd 1a e0 b8 3d
       0.10525261 -0.030526036 -0.11885647 0.09027119
000070 c5 42 a0 3d d0 17 29 bc 65 46 33 3e 44 71 9e bd
       0.07825235 -0.010320619 0.17507322 -0.077364475
000080 f9 12 52 3e e0 36 f6 3d 44 f4 20 3e 73 08 e1 bd
       0.2051505 0.12022185 0.1571818 -0.1098794
000090 e5 fc df bd 53 f7 40 3d 46 40 24 bd a9 ce 99 bd
       -0.10936908 0.047110867 -0.04010036 -0.075101204
0000a0 e1 ec f0 3b ab 51 40 3d 92 b9 97 bd 14 38 0b 3e
       0.007352457 0.046952885 -0.074084416 0.13595611
0000b0 8b d6 a4 bc 6e f0 49 3b 23 70 22 3e c2 7e 81 3d
       -0.020121833 0.0030813473 0.1586309 0.06323005
0000c0 40 8c e1 bc 28 70 02 3e 45 1d 42 bd 13 36 98 3d
       -0.027532697 0.12738097 -0.047391195 0.07432189
0000d0 e6 ec 1d be 6b 18 13 3d 86 3c 66 bd ba 0c a0 bc
       -0.15422401 0.03591196 -0.056210063 -0.019537318
0000e0 3b 57 ab 3c 68 d7 ad 3d f9 8f a1 3d cc bb 09 3c
       0.020915618 0.08488351 0.07888789 0.008406591
0000f0 ad f2 c5 3d 45 6a 33 bd e3 fd 11 be 4d 72 c1 bb
       0.09665427 -0.04380252 -0.14257006 -0.0059035183
000100 4a 7f 56 bd ee ce 93 bd 44 b1 bf 3c 7b 34 0d 3e
       -0.052367486 -0.07217203 0.023399957 0.13789551
000110 18 1e 99 3d a4 73 dc 3b e2 c7 12 be 4f 34 03 3e
       0.07476443 0.0067276526 -0.14334062 0.12812923
000120 e5 32 cf 3d 74 89 fa bd c4 2a d8 3d 1a 9f c4 3d
       0.10117129 -0.12233248 0.10555032 0.09600659
000130 aa b9 52 bd 95 04 6d 3d 16 22 9b bd bc cd 9b 3d
       -0.051446594 0.057865698 -0.07574861 0.076076
000140 ab e8 be bd d7 52 be 3d 18 5e 81 3d 7b 0f 57 bd
       -0.09321722 0.09293144 0.06316775 -0.052504998
000150 de 85 f2 bd 04 26 f6 3d a9 82 ac bc 00 e9 28 be
       -0.118419394 0.1201897 -0.021058397 -0.16495132
000160 80 ab c8 bc 37 cd 2c be 8c e7 d8 bd 4d e9 7f 3d
       -0.02449584 -0.16875158 -0.10591039 0.062478352
000170 57 79 de bd 0e 0b ff 3a ef e7 2f 3e 22 b1 0d 3d
       -0.108629875 0.0019458251 0.1717832 0.034592755
000180 d6 02 38 bd f2 d8 9e bd 93 06 24 3d 39 8b cd bd
       -0.04492458 -0.07756223 0.040045332 -0.1003632
000190 0f ad 15 3d 60 3c d9 bd d6 6b 58 3d 0f d0 b8 bd
       0.036541995 -0.10607219 0.052837215 -0.09024059
0001a0 55 42 83 bd ae 81 2e bd a2 32 c9 3d cc 67 b0 3d
       -0.06409136 -0.04260414 0.098241106 0.08613548
0001b0 e6 e9 3f 3d a1 aa 83 ba e1 90 3e 3d 54 cc 8f bd
       0.046853922 -0.0010045358 0.046524886 -0.07021394
0001c0 7c c5 1c 3d a6 9e b6 bd 92 ac 19 bc 7d 64 ea bd
       0.038274273 -0.089169785 -0.009379523 -0.11444948
0001d0 63 3f b4 3d 89 5c c6 bb cb 55 cb bd 0d e4 19 3d
       0.088011526 -0.0060535115 -0.09928473 0.037571
0001e0 03 92 90 bd 26 32 72 bc 79 a2 e4 3d a7 60 d7 bd
       -0.070590995 -0.014782464 0.11163802 -0.10516482
0001f0 b7 4e 1d bc b0 69 d7 bd 9f f5 db 3c 55 c3 8a bd
       -0.009601287 -0.10518205 0.02685052 -0.06775538
000200 5a 26 da bd 10 6e 8c bd 74 0e bc 3d f2 5e c9 bd
       -0.10651846 -0.0685693 0.09182444 -0.098325625
000210 f4 c1 7d 3d b2 16 95 3c 1f 23 d2 3b c7 7f a4 bd
       0.061952546 0.018199299 0.006412878 -0.08032184
000220 07 da e4 bd c2 17 25 3d c4 ca a7 3d 8a 6c d4 bd
       -0.11174398 0.04030586 0.08192971 -0.10372265
000230 18 a6 8a 3d 3d 63 06 be 83 83 0c 3d 73 3d 4c 3c
       0.06769961 -0.13123794 0.034305107 0.0124658225
000240 ab ad 47 3d db ad ed bd 4d 92 36 bc 02 b0 13 3d
       0.048749607 -0.11605426 -0.011143279 0.036056526
000250 8c 25 42 3e df ed e7 3c 7a 9a 91 3c 5b 33 0b bc
       0.18959635 0.028311668 0.017773855 -0.008496131
000260 c6 e4 67 3d 79 5d c1 bd 34 c2 87 bb f7 3b 08 3e
       0.05661466 -0.094416566 -0.004143024 0.13304125
000270 b3 e3 15 3d 07 90 bb 3d d4 42 cc 3d 9e e5 2a 3e
       0.036594104 0.091583304 0.09973684 0.16689155
000280 4f 8c ad bd 9d 6f 01 3e f0 14 f7 bb 79 33 95 3d
       -0.08474027 0.12640233 -0.0075403377 0.07285208
000290 1d 89 f4 3d 80 48 36 3e 98 eb 49 3d f5 6e 94 3c
       0.11940215 0.17801094 0.049296945 0.018119315
0002a0 44 e4 03 3e fd 20 00 bd aa 89 ef bd 4e 85 85 3e
       0.12880045 -0.03128146 -0.11696179 0.26078266
0002b0 81 17 81 bd 15 1e 12 bd d1 3a f2 bc 29 2b c5 3d
       -0.06303311 -0.03567322 -0.029569061 0.09627373
0002c0 3c 68 66 3e 8a ec a1 bd 18 ec 86 3d c5 32 0d bd
       0.225007 -0.07906444 0.06588 -0.034472246
0002d0 b5 0e 0c bd 97 44 af 3d 13 3d 2c 3e 20 86 d7 bc
       -0.034193713 0.08558004 0.16820173 -0.026309073
0002e0 a6 62 a0 bd 4d 5d 4d bc 65 6d ea bb c6 e0 87 3d
       -0.07831316 -0.012534452 -0.007154154 0.06634669
0002f0 83 fb 30 3d 42 7b a3 bd 6b 35 b0 3b f5 71 b8 bc
       0.04320861 -0.07982494 0.0053774617 -0.022515276
