best_model.pth (torch, 271529 bytes, 18 tensors)

lstm.weight_ih_l0 f4 [192, 5]
-0.03339317 0.037888687 0.12627476 0.12402499 -0.008360197 0.09525596 -0.014052552 0.1552025
0.15081033 0.114754595 -0.14904553 0.094552584 0.026693678 -0.077655464 -0.089994304 -0.0041792016
0.10319172 0.29453424 0.05683108 0.17637572 0.08560811 0.085768856 -0.002248479 0.08604876
0.08335422 -0.09789559 -0.13539864 -0.10435379 0.13582428 -0.077361315 -0.07243301 0.29016733
0.021687431 0.19794267 0.06877312 -0.0827733 0.066011764 -0.004720273 -0.04963049 0.111568175
0.12024932 0.16728638 0.19602709 -0.008532269 -0.038092464 -0.12591483 -0.05998214 0.1288573
-0.06194613 0.078712 0.1339559 -0.041013267 -0.048151385 0.12701096 -0.048425872 0.20105359
0.24134216 0.23050743 0.1163468 0.016825229 -0.13204914 -0.13599889 -0.1858406 -0.041110918
-0.1799374 0.13236395 0.19851877 0.11418656 0.2088554 0.0037694725 0.14047769 0.15446396
0.25964677 0.18253294 0.033125732 0.1377965 0.024049548 0.03801804 -0.10514246 0.11357373
-0.13765928 -0.18076833 -0.13691382 -0.08756057 -0.10592468 0.13186659 -0.026829502 0.14462228
-0.018616885 -0.102349445 0.025838153 0.12448759 0.063257106 -0.036929537 0.22864906 -0.04900431
0.13617149 0.0026130285 0.09225454 0.22118333 0.1392957 0.043777093 0.13477892 0.20592321
-0.01617277 0.019075504 -0.012360628 -0.05039162 0.16755901 0.15521398 0.059554998 0.23770735
0.098158285 0.20451069 0.1385871 0.18422368 0.06315174 0.22631982 0.04946613 0.1668877
0.101573035 0.058957268 0.19447947 -0.01846494 0.07274111 -0.047971316 0.013825642 -0.016737739
0.0773107 0.21768303 0.19895731 -0.016019884 0.13481824 0.188111 0.07184883 -0.055129874
0.07662692 0.20744723 0.19384924 0.040122204 0.026907105 0.012842027 -0.045142684 0.081879884
0.08868606 0.0043413783 0.21199669 0.11710393 0.19737782 0.07365478 -0.14258829 0.0012178726
-0.017808855 0.065596625 0.043385867 0.06539802 0.106993854 0.07111449 0.26390216 0.08751183
-0.012786384 0.061932 0.1655976 0.06686048 0.13228178 -0.11893175 -0.025622128 0.14282632
0.047725637 0.1736706 0.06929398 0.12354613 0.17488006 0.0742007 0.17579548 0.15932916
0.04315591 -0.050564025 0.17116854 -0.015571127 0.074130125 0.10672826 -0.0010841417 -0.081413195
0.0116859935 0.062658325 -0.024977114 -0.08301162 0.013140234 -0.041751247 -0.04501031 -0.03348456
0.13674484 0.017976759 0.18364702 -0.17089744 -0.08590345 0.052933462 0.15230793 0.019766418
-0.029357405 -0.027562287 0.08454153 0.091138475 0.054924272 -0.068793 0.08343323 -0.06223271
0.13192886 0.04802443 -0.089445315 0.1116908 0.12602468 0.029295746 -0.0056032976 0.04898075
0.30505425 0.25552732 0.1976418 0.25963172 -0.07874609 0.03622455 -0.007903639 0.020766135
0.09793776 0.1457092 0.15998924 0.16548744 0.07077848 0.11936631 -0.07194243 0.16708955
0.15724379 -0.0021873848 0.05109237 -0.04698235 -0.015281852 0.00758398 0.12163981 0.17127176
-0.14540477 -0.15222582 0.1036649 0.12002247 0.06817417 -0.055473994 0.07717647 -0.109938696
0.15496457 -0.029345946 -0.09893951 -0.051787216 -0.12811106 0.11213793 0.120002985 0.05663622
00000000: 47c7 08bd 2b31 1b3d 2c4e 013e d000 fe3d
00000010: 35f9 08bc 8f15 c33d ad3c 66bc 67ed 1e3e
00000020: 066e 1a3e 7504 eb3d 649f 18be c9a4 c13d
00000030: b3ac da3c d409 9fbd ef4e b8bd aff1 88bb
00000040: 2e56 d33d 31cd 963e b5c7 683d d69b 343e
00000050: 4e53 af3d 95a7 af3d 385b 13bb 553a b03d
00000060: 9eb5 aa3d 7c7d c8bd f1a5 0abe 71b7 d5bd
00000070: 8515 0b3e 9c6f 9ebd c257 94bd d090 943e
00000080: d7a9 b13c 7cb1 4a3e ecd8 8c3d 0c85 a9bd
00000090: 2d31 873d 85ac 9abb 5749 4bbd db7d e43d
000000a0: 4745 f63d 1f4d 2b3e 53bb 483e eeca 0bbc
000000b0: d806 1cbd d1ef 00be d5af 75bd 2bf3 033e
000000c0: 3abb 7dbd c233 a13d bc2b 093e 87fd 27bd
000000d0: 633a 45bd 290f 023e 355a 46bd fee0 4d3e
000000e0: 6622 773e 240a 6c3e 3b47 ee3d 10d5 893c
000000f0: e437 07be 4b43 0bbe 004d 3ebe ec63 28bd
00000100: 8341 38be 6a8a 073e 8148 4b3e a5da e93d
00000110: 31de 553e 4109 773b 62d9 0f3e cd2b 1e3e
00000120: 6cf0 843e eae9 3a3e d9ae 073d 871a 0d3e
00000130: 8f03 c53c ceb8 1b3d ee54 d7bd 5899 e83d
00000140: 8ef6 0cbe 551b 39be 2333 0cbe f552 b3bd
00000150: 0aef d8bd 0908 073e 8bc9 dbbc dd17 143e
00000160: 7082 98bc 969c d1bd 89aa d33c 59f3 fe3d
00000170: f18c 813d 6d43 17bd fb22 6a3e beb8 48bd
00000180: 8a70 0b3e 583f 2b3b f3ef bc3d e27d 623e
00000190: 88a3 0e3e 9c4f 333d 7c03 0a3e 89dd 523e
000001a0: c27c 84bc 3b44 9c3c 3b84 4abc 7167 4ebd
000001b0: 9794 2b3e 6af0 1e3e f1ef 733d 8e69 733e
000001c0: 3607 c93d 406b 513e c7e9 0d3e 22a5 3c3e
000001d0: b355 813d 62c0 673e ff9c 4a3d 9ce4 2a3e
000001e0: 8605 d03d 2d7d 713d a025 473e c943 97bc
000001f0: 4bf9 943d 927d 44bd f284 623c 951d 89bc
00000200: 1355 9e3d 4de8 5e3e 77bb 4b3e 223c 83bc
00000210: cb0d 0a3e 2ca0 403e 7b25 933d ddcf 61bd
00000220: 93ee 9c3d 0c6d 543e 6a80 463e 2e57 243d
00000230: 4a6c dc3c 5d67 523c 89e7 38bd a4b0 a73d
00000240: 09a1 b53d 1f42 8e3b a915 593e 2fd4 ef3d
00000250: 691d 4a3e 51d8 963d aa02 12be 06a1 9f3a
00000260: e0e3 91bc 8657 863d 61b5 313d 66ef 853d
00000270: 981f db3d 79a4 913d 2f1e 873e 6739 b33d
00000280: fb7d 51bc 69ac 7d3d 6b92 293e 26ee 883d
00000290: e074 073e 7d92 f3bd 7fe5 d1bc 1041 123e
000002a0: f57b 433d b5d6 313e 01ea 8d3d c105 fd3d
000002b0: c213 333e 89f6 973d bb03 343e 2f27 233e
000002c0: 40c4 303d 391c 4fbd ce46 2f3e 0a1e 7fbc
000002d0: 89d1 973d 5994 da3d c219 8eba f6bb a6bd
000002e0: 9c76 3f3c 0253 803d ce9c ccbc ff01 aabd
000002f0: 234a 573c 5b03 2bbd bb5c 38bd 1b27 09bd
00000300: d706 0c3e ff43 933c f70d 3c3e bdff 2ebe
00000310: 26ee afbd c2d0 583d 9cf6 1b3e 2fed a13c
00000320: f17e f0bc 4eca e1bc 1c24 ad3d cfa6 ba3d
00000330: 46f8 603d 58e3 8cbd 0bdf aa3d bae7 7ebd
00000340: 5c18 073e 44b5 443d 1b2f b7bd 25be e43d
00000350: 9d0c 013e a2fd ef3c de9b b7bb 0aa0 483d
00000360: 1230 9c3e 7ad4 823e 9d62 4a3e 73ee 843e
00000370: a145 a1bd 3260 143d 447e 01bc be1d aa3c
00000380: 9893 c83d cb34 153e 38d4 233e 8a75 293e
00000390: 4ff4 903d 5376 f43d 8e56 93bd 8619 2b3e
000003a0: 8404 213e 3a5a 0fbb 3c46 513d 9170 40bd
000003b0: bc60 7abc 0983 f83b 4b1e f93d dd61 2f3e
000003c0: fde4 14be 16e1 1bbe 434e d43d 57ce f53d
000003d0: e69e 8b3d b338 63bd b20e 9e3d 8a27 e1bd
000003e0: 08af 1e3e e966 f0bc cca0 cabd d51e 54bd
000003f0: 8c2f 03be 92a8 e53d 20c4 f53d 62fb 673d

lstm.weight_hh_l0 f4 [192, 48]
0.053584885 -0.08073566 -0.13922402 0.09972364 0.0096773505 -0.06390257 0.09405114 0.12041609
0.24605876 -0.089623846 0.09314797 0.012180068 0.1213159 0.14034536 -0.039585084 -0.10556632
-0.14399964 -0.0030085917 -0.119338065 0.11022248 0.18580426 0.11842776 0.018768756 0.12779249
-0.11386718 -0.0053320504 0.0077345404 0.06322571 -0.049658548 -0.07695298 -0.09452961 0.022322113
-0.06516183 -0.09375149 0.027290158 -0.011114638 0.0066427104 -0.10086584 0.0496502 -0.008024002
-0.06845919 0.10021132 -0.059471868 0.03394739 0.08058841 -0.088020265 -0.119446054 -0.057830848
-0.13156734 -0.058958665 -0.029759305 0.03970793 -0.1007578 -0.08148198 -0.03327617 -0.057360183
-0.0077912407 0.13671519 -0.06316949 0.16288787 0.18503526 0.09424615 -0.15938267 0.09455207
0.24316557 -0.14735293 0.21132648 -0.036314882 0.10768666 0.0228077 -0.22816731 -0.022949219
-0.1414878 0.017534832 0.02635361 -0.109306365 -0.11806979 0.14933364 -0.032433197 0.11507663
0.2668252 -0.1946911 -0.1527903 -0.10370536 0.104492694 0.0024626588 -0.045386724 0.047615502
0.1677162 -0.06922993 -0.13577743 -0.1725673 0.04963819 -0.15751955 -0.03510936 0.15770113
0.019920984 -0.13402134 -0.07231561 0.08775715 0.07306112 -0.08553292 0.041932426 -0.057456423
0.20083708 -0.06639781 0.049876396 -0.025080448 0.11358748 0.05304628 -0.14234957 -0.071431726
-0.034546178 0.07987775 -0.026409041 -0.10656585 0.26057795 0.078639895 -0.057558723 0.01666961
0.14954309 -0.13673331 -0.069313295 0.045540404 0.06928412 0.051103633 -0.14213735 0.021711687
0.08080845 0.057585858 0.061415195 0.015954042 0.07754952 0.088012 0.019246375 -0.038388997
-0.085716955 -0.09513547 -0.0068905903 0.059688363 0.041122533 -0.09475958 -0.04538158 -0.09130557
-0.08533452 0.008815338 -0.14757264 0.14957596 -0.108048245 0.027375298 -0.17540753 -0.0071124625
0.08623045 -0.12987477 -0.068579294 0.018213328 0.55551165 0.028255869 -0.08214136 -0.009904507
-0.08971952 -0.100169495 -0.05015689 -0.22516531 0.33607057 -0.12560573 -0.048213962 -0.015258126
-0.055346332 -0.1862561 -0.06311704 -0.19467819 -0.10594608 0.093059905 -0.35459557 0.0762728
0.26968732 0.040760648 -0.017238893 0.08203418 0.19447467 0.02880456 0.21487795 0.07589831
0.16559473 -0.05770941 0.05230728 -0.254351 -0.1615998 0.19639163 -0.041426204 0.12724847
0.08580037 -0.07788267 0.10455583 0.15496105 0.044994872 -0.13808504 -0.14470829 0.04053146
-0.013605756 0.15853421 0.026276626 0.01544248 -0.03950712 -0.03757223 -0.0012636739 0.08306225
-0.13852629 0.104408756 -0.10228245 0.10776633 0.10716281 0.090598494 -0.12730931 -0.00033942144
0.041423585 0.10042863 0.0419762 0.054998234 0.009667929 0.10274242 -0.055023335 0.028292779
0.022018328 -0.101986535 0.06731421 0.084517196 0.04937914 -0.1484318 -0.08643987 0.1486045
0.011408215 0.030004205 -0.12445836 -0.06543979 -0.039844617 -0.05984152 0.11596913 -0.14151655
-0.080162965 -0.035877347 0.122696675 -0.09997305 0.16042869 -0.01675449 -0.003976366 0.17723823
0.057148 -0.18843234 -0.10532551 0.029062835 0.02086536 0.09948607 0.03446193 -0.10117423
00000000: d37b 5b3d bd58 a5bd be90 0ebe e83b cc3d
00000010: c08d 1e3c 5adf 82bd e29d c03d b69c f63d
00000020: d4f6 7b3e b58c b7bd 5dc4 be3d e88e 473c
00000030: 7874 f83d b2b6 0f3e f823 22bd 2833 d8bd
00000040: a474 13be cb2b 45bb 8467 f4bd 53bc e13d
00000050: 7943 3e3e 418a f23d efc0 993c 09dc 023e
00000060: 3233 e9bd 7bb8 aebb 0772 fd3b 7b7c 813d
00000070: c366 4bbd 8699 9dbd bd98 c1bd dddc b63c
00000080: 9173 85bd c800 c0bd 9c8f df3c 2c1a 36bc
00000090: 18ab d93b c092 cebd 025e 4b3d 1b77 03bc
000000a0: 5534 8cbd 983b cd3d c698 73bd 6b0c 0b3d
000000b0: 890b a53d f843 b4bd 22a0 f4bd 0ae0 6cbd
000000c0: 97b9 06be a47e 71bd c9c9 f3bc c8a4 223d
000000d0: 1b5a cebd 06e0 a6bd 984c 08bd 83f2 6abd
000000e0: aa4d ffbb 11ff 0b3e 015f 81bd 14cc 263e
000000f0: e279 3d3e 2004 c13d 3635 23be 84a4 c13d
00000100: 6500 793e b0e3 16be f865 583e eabe 14bd
00000110: d38a dc3d 37d7 ba3c b1a4 69be 0000 bcbc
00000120: 2ee2 10be 35a5 8f3c 87e3 d73c 04dc dfbd
00000130: 93ce f1bd ebea 183e acd8 04bd 4cad eb3d
00000140: 509d 883e 1b5d 47be 0f75 1cbe 7a63 d4bd
00000150: 4400 d63d 8f64 213b 6ee7 39bd 7908 433d
00000160: ccbd 2b3e 6cc8 8dbd 3d09 0bbe 7bb5 30be
00000170: 6a51 4b3d ce4c 21be d5ce 0fbd 687c 213e
00000180: 5531 a33c e43c 09be 351a 94bd 05ba b33d
00000190: 12a1 953d e22b afbd 56c1 2b3d 6d57 6bbd
000001a0: 3ca8 4d3e 93fb 87bd 314b 4c3d 8375 cdbc
000001b0: 8da0 e83d 0e47 593d 16c4 11be cc4a 92bd
000001c0: 4b80 0dbd f296 a33d c657 d8bc 323f dabd
000001d0: 796a 853e f40d a13d b2c2 6bbd b58e 883c
000001e0: d321 193e d103 0cbe 21f4 8dbd 9388 3a3d
000001f0: d5e4 8d3d 0b52 513d 748c 11be b5dc b13c
00000200: e77e a53d 26df 6b3d 808e 7b3d 0db2 823c
00000210: 48d2 9e3d a33f b43d 93aa 9d3c c83d 1dbd
00000220: 5f8c afbd 63d6 c2bd 76ca e1bb c97b 743d
00000230: 1a70 283d 5011 c2bd 09e2 39bd 6afe babd
00000240: ddc3 aebd 356e 103c 481d 17be 712a 193e
00000250: 6648 ddbd 2942 e03c 089e 33be a90f e9bb
00000260: 9799 b03d e4fd 04be 4d73 8cbd 1e34 953c
00000270: 0336 0e3f da78 e73c bb39 a8bd 8346 22bc
00000280: debe b7bd aa25 cdbd 5071 4dbd bc91 66be
00000290: 7111 ac3e ca9e 00be 017c 45bd 38fd 79bc
000002a0: d6b2 62bd ebb9 3ebe 8243 81bd b859 47be
000002b0: 42fa d8bd 3196 be3d 8d8d b5be ea34 9c3d
000002c0: 7514 8a3e a3f4 263d 9438 8dbc 8901 a83d
000002d0: 5e24 473e 8af7 eb3c f708 5c3e 9370 9b3d
000002e0: aa91 293e b460 6cbd 2940 563d 4b3a 82be
000002f0: 6b7a 25be e31a 493e 86ae 29bd 6c4d 023e
00000300: 1bb8 af3d f380 9fbd 5e21 d63d 1cae 1e3e
00000310: 8b4c 383d 2a66 0dbe 692e 14be 5104 263d
00000320: adea 5ebc cb56 223e 1442 d73c 7502 7d3c
00000330: 38d2 21bd 57e5 19bd dca1 a5ba 8a1c aa3d
00000340: d6d9 0dbe 42d4 d53d 7679 d1bd 98b4 dc3d
00000350: 2d78 db3d b48b b93d 5f5d 02be 60f4 b1b9
00000360: c7ab 293d 87ad cd3d 3cef 2b3d d445 613d
00000370: 3c66 1e3c 9e6a d23d 2660 61bd 42c6 e73c
00000380: c85f b43c 51de d0bd 08dc 893d 5a17 ad3d
00000390: c841 4a3d 81fe 17be 6307 b1bd c72b 183e
000003a0: 86e9 3a3c 61cb f53c 06e4 febd 4c05 86bd
000003b0: 1c34 23bd 621c 75bd 3981 ed3d b7e9 10be
000003c0: 7b2c a4bd 20f4 12bd 6548 fb3d acbe ccbd
000003d0: 6b47 243e b640 89bc 2d4c 82bb f07d 353e
000003e0: 0514 6a3d 68f4 40be e7b4 d7bd 2f15 ee3c
000003f0: d5ed aa3c 5abf cb3d f427 0d3d 6f34 cfbd

lstm.bias_ih_l0 f4 [192]
0.058026068 0.22845931 0.048668947 0.4109551 -0.07823772 0.045138422 0.12593222 0.19648139
0.12539959 0.07920457 0.14241838 0.073380895 0.26245633 0.018556898 -0.023327209 0.10522559
0.1684492 0.08321056 -0.045211166 0.0020274792 0.059280824 0.09464858 0.21141468 0.07811763
0.033256527 0.04527519 0.1604066 0.010488725 -0.09023014 -0.05790341 -0.036847953 0.14037722
0.2504312 -0.034161076 0.19575766 0.008931033 0.14221728 0.01950378 0.016149385 0.07531597
0.14056009 0.17570812 -0.056152366 0.15744825 0.07749777 -0.07929293 0.13796681 -0.047434863
-0.14857075 0.11851468 -0.1338947 0.042881235 -0.029585404 -0.13703208 -0.07038228 -0.10632735
-0.036564317 0.11517098 0.085218474 -0.05960755 -0.09483824 0.06427815 -0.0824223 -0.08808224
0.021005537 0.030923272 0.20258626 -0.049281485 0.045966864 -0.02256795 0.14073552 -0.046385072
0.038946275 0.13630377 0.011064931 -0.15375516 0.0032632945 -0.09663743 0.027451653 -0.016478896
0.03144785 0.017161373 -0.1403759 0.098237455 0.11372433 0.005186398 0.009556284 -0.077917255
0.12788482 -0.027844293 -0.015131728 0.10216893 -0.08590488 0.09530519 -0.031988405 0.0122995125
-0.12643363 0.08946679 0.07345681 -0.111126855 -0.03606332 0.030484648 -0.07630848 -0.0068102516
-0.12563324 -0.14253716 -0.101076275 -0.0671869 0.18509158 -0.08026813 -0.021145318 0.11629445
0.11033498 0.0151267955 -0.009062731 0.07732331 -0.016654575 -0.10471294 0.017444575 0.03420539
-0.028704723 -0.037586156 -0.01395525 0.10086498 -0.10466578 -0.084132604 0.0027771327 0.019924521
-0.03922761 -0.047746807 -0.017339153 0.09741364 0.10472799 -0.019621488 -0.008676099 0.07274123
0.02275973 -0.017539147 -0.0568835 0.08008086 -0.07444415 0.095777445 0.052130423 0.017534357
0.051111832 0.070191726 0.20791301 0.29989213 0.06955155 -0.013813795 -0.02493862 0.114982426
0.16927381 -0.06364963 0.046852034 0.16886187 0.18448454 0.04205025 0.121682175 -0.1260641
0.0051215556 0.14200574 -0.020575713 0.04041571 -0.0052866614 -0.13462642 0.36931625 0.11681992
-0.068656154 0.20184311 0.19135568 0.14742003 -0.009504128 0.15345314 0.07759936 0.23065116
0.1947745 -0.08431542 0.17624015 -0.086481124 0.0727832 0.016555311 0.032498114 0.124947354
-0.068382904 0.040321942 0.14768234 0.32504335 0.03186374 0.12352337 0.07625303 -0.037273612
00000000: beac 6d3d 3df1 693e 1759 473d b568 d23e
00000010: 193b a0bd 11e3 383d 60f4 003e 6b32 493e
00000020: c068 003e 0136 a23d 20d6 113e b948 963d
00000030: ad60 863e a304 983c b418 bfbc 8480 d73d
00000040: f27d 2c3e 4c6a aa3d 582f 39bd 75df 043b
00000050: 73d0 723d 1dd7 c13d 177d 583e 23fc 9f3d
00000060: ff37 083d 7a72 393d a141 243e e7d8 2b3c
00000070: 94ca b8bd 202c 6dbd e1ed 16bd 0cbf 0f3e
00000080: 8538 803e 7cec 0bbd b274 483e 7853 123c
00000090: 68a1 113e 64c6 9f3c b74b 843c 423f 9a3d
000000a0: fcee 0f3e d4ec 333e 0600 66bd 1d3a 213e
000000b0: 27b7 9e3d 5564 a2bd 2c47 0d3e 0f4b 42bd
000000c0: ee22 18be d3b7 f23d b11b 09be 3ca4 2f3d
000000d0: 175d f2bc 2352 0cbe 9624 90bd 27c2 d9bd
000000e0: 77c4 15bd c3de eb3d 0687 ae3d 0c27 74bd
000000f0: 8d3a c2bd 43a4 833d 06cd a8bd 7664 b4bd
00000100: ce13 ac3c cd52 fd3c c672 4f3e 62db 49bd
00000110: c047 3c3d 6ce0 b8bc f91c 103e 46fe 3dbd
00000120: 2186 1f3d 3793 0b3e af49 353c fe71 1dbe
00000130: ffdc 553b d8e9 c5bd 4ae2 e03c c0fe 86bc
00000140: 76cf 003d 0296 8c3c b3be 0fbe b830 c93d
00000150: 4de8 e83d a9f2 a93b f691 1c3c 1593 9fbd
00000160: 3df4 023e b719 e4bc 11eb 77bc f23d d13d
00000170: e6ee afbd 5e2f c33d 4606 03bd e583 493c
00000180: d177 01be 5d3a b73d 8670 963d 7a96 e3bd
00000190: 22b7 13bd f1ba f93c 9f47 9cbd 8828 dfbb
000001a0: 00a6 00be 43f5 11be 1401 cfbd 4999 89bd
000001b0: a688 3d3e 9e63 a4bd f238 adbc c92b ee3d
000001c0: 4ef7 e13d 61d6 773c d97b 14bc af5b 9e3d
000001d0: 2d6f 88bc bd73 d6bd ede7 8e3c f31a 0c3d
000001e0: 2b26 ebbc f1f3 19bd 90a4 64bc 4c92 ce3d
000001f0: 035b d6bd b74d acbd 8e00 363b c038 a33c
00000200: 21ad 20bd 2892 43bd d70a 8ebc cd80 c73d
00000210: a17b d63d 3ebd a0bc 3226 0ebc 5bf9 943d
00000220: 9d72 ba3c 42ae 8fbc acfe 68bd 6f01 a43d
00000230: 2d76 98bd f726 c43d b686 553d 36a4 8f3c
00000240: a45a 513d aec0 8f3d 26e7 543e 768b 993e
00000250: 0b71 8e3d 4153 62bc 144c ccbc e87b eb3d
00000260: 1d56 2d3e bd5a 82bd ebe7 3f3d 20ea 2c3e
00000270: 84e9 3c3e e23c 2c3d 8134 f93d f316 01be
00000280: b9d2 a73b f469 113e 668e a8bc f28a 253d
00000290: bb3b adbb 82db 09be 0517 bd3e 483f ef3d
000002a0: 999b 8cbd f6af 4e3e bef2 433e 47f5 163e
000002b0: 34b7 1bbc d222 1d3e 6aec 9e3d d12f 6c3e
000002c0: f772 473e 90ad acbd 4c78 343e 041d b1bd
000002d0: 5c0f 953d 019f 873c be1c 053d 66e4 ff3d
000002e0: 560c 8cbd 9f28 253d 0a3a 173e 156c a63e
000002f0: 8e83 023d d2f9 fc3d 8c2a 9c3d 37ac 18bd

lstm.bias_hh_l0 f4 [192]
0.11869553 0.038048863 0.034161497 0.30862096 0.09483225 -0.03176094 -0.031738292 0.1869456
0.15634917 0.20070261 0.11802145 0.0459501 0.17089559 0.1694977 0.07627243 -0.032543555
-0.04705685 -0.11899859 0.18589243 0.11170032 0.17857975 -0.10714524 0.35905704 0.1632962
-0.063026495 0.170811 0.054623965 0.017026968 0.19041453 -0.090535656 -0.066715844 0.21782827
0.120087095 0.14329898 0.2650934 0.028134491 -0.0053514987 0.016270738 -0.12885132 0.087517455
-0.008819919 0.08687774 0.13479473 0.3410386 -0.100952536 0.09453991 0.11506686 0.11334741
0.051027507 0.10820251 -0.0444997 -0.018668987 -0.12281702 -0.08947025 -0.07578224 0.11749576
-0.01978064 -0.007971769 0.16792193 0.01855179 -0.067342006 -0.0974038 0.037746836 -0.082261704
-0.020682743 -0.015641643 0.18376711 -0.030871177 0.08448436 0.103968054 0.12385491 0.14972918
0.12756671 -0.12190062 0.10717832 0.004526149 0.11329929 0.11841011 0.057714097 0.063888796
0.1048362 -0.08677548 -0.023384236 -0.024724253 0.07069687 0.014889445 -0.15450339 0.115257785
0.057448916 0.12864481 0.064795606 -0.17448911 -0.06925429 -0.10437403 -0.02294425 -0.05127321
0.052733105 -0.049471922 0.03921264 0.10154672 -0.08016384 -0.12287948 0.06364511 -0.003962301
0.07636183 -0.016596224 0.035037406 0.061053637 0.025070883 0.011546462 0.08979841 0.033398513
-0.0849939 -0.096188515 0.10010747 -0.06922722 0.038282767 -0.082131945 0.0058946754 -0.04410396
-0.08599009 0.015230753 -0.03840222 -0.06370382 -0.011941623 0.08456463 -0.12375958 -0.054681886
0.033906516 0.029752694 0.024639469 -0.08090117 -0.07018932 0.10680013 0.0128926905 -0.022462942
0.06850457 0.036147952 0.065445445 -0.030686716 -0.07290984 0.011402526 -0.040047083 -0.014018282
0.054587137 0.08757166 -0.06061975 0.27691764 -0.027505565 0.10939148 -0.0041626124 0.03466045
0.25182995 0.1489537 -0.055249907 0.13060884 0.07833744 -0.040183026 0.228224 -0.123550884
-0.04272206 0.010644151 -0.062232286 0.21746323 0.09495395 -0.069937006 0.21824777 0.14408883
0.18959434 0.1617566 -0.04086252 0.14097545 -0.0842606 0.036349826 -0.044638596 0.09583115
0.09910031 -0.10736903 0.3121086 0.09813096 0.114476055 -0.033791736 0.040325847 -0.021026038
-0.114531115 0.19662824 0.115779534 0.2697592 0.15158887 -0.038867515 0.08763079 -0.101487756
00000000: a416 f33d 20d9 1b3d edec 0b3d 9103 9e3e
00000010: 6937 c23d c217 02bd 0300 02bd ab6e 3f3e
00000020: ff19 203e fc84 4d3e 3bb5 f13d 2c36 3c3d
00000030: 41ff 2e3e ce90 2d3e b834 9c3d 644c 05bd
00000040: afbe 40bd 88b5 f3bd 965a 3e3e 23c3 e43d
00000050: 9cdd 363e f76e dbbd 53d6 b73e 1e37 273e
00000060: 0914 81bd 14e9 2e3e 61bd 5f3d 247c 8b3c
00000070: 07fc 423e c26a b9bd 51a2 88bd 600e 5f3e
00000080: 39f0 f53d f8bc 123e 52ba 873e 4e7a e63c
00000090: a05b afbb 364a 853c 9af1 03be 5a3c b33d
000000a0: 6c81 10bc f5ec b13d a107 0a3e 9d9c ae3e
000000b0: 34c0 cebd 249e c13d 2da8 eb3d b022 e83d
000000c0: 3802 513d 4799 dd3d 5145 36bd b4ef 98bc
000000d0: 7d87 fbbd 2e3c b7bd b833 9bbd 9ea1 f03d
000000e0: 020b a2bc 069c 02bc baf3 2b3e ecf9 973c
000000f0: 9bea 89bd a57b c7bd 6d9c 1a3d d378 a8bd
00000100: db6e a9bc e722 80bc 722d 3c3e 8de5 fcbc
00000110: 2306 ad3d 34ed d43d a5a7 fd3d 9b52 193e
00000120: d9a0 023e 08a7 f9bd 4f80 db3d 1750 943b
00000130: 7509 e83d 0081 f23d 9e65 6c3d 21d8 823d
00000140: 5db4 d63d 58b7 b1bd 4c90 bfbc 848a cabc
00000150: 85c9 903d dcf2 733c 2336 1ebe 460c ec3d
00000160: 8e4f 6b3d 77bb 033e 8fb3 843d 46ad 32be
00000170: 31d5 8dbd 0dc2 d5bd 94f5 bbbc dc03 52bd
00000180: abfe 573d 12a3 4abd 6f9d 203d baf7 cf3d
00000190: f02c a4bd 3da8 fbbd 5e58 823d 31d6 81bb
000001a0: 9763 9c3d cef4 87bc 6283 0f3d 6113 7a3d
000001b0: 7461 cd3c 5f2d 3d3c 3be8 b73d e1cc 083d
000001c0: 4811 aebd 7cfe c4bd 2505 cd3d 00c7 8dbd
000001d0: 64ce 1c3d cb34 a8bd 1f28 c13b 5ba6 34bd
000001e0: 931b b0bd 698a 793c a54b 1dbd 2677 82bd
000001f0: cca6 43bc 3930 ad3d aa75 fdbd 1dfa 5fbd
00000200: 8fe1 0a3d ecbb f33c b6d8 c93c 83af a5bd
00000210: 6bbf 8fbd 07ba da3d dd3b 533c 3404 b8bc
00000220: 204c 8c3d e00f 143d 4308 863d b562 fbbc
00000230: c151 95bd a9d1 3a3c 6908 24bd f0ac 65bc
00000240: c396 5f3d c558 b33d 6a4c 78bd 26c8 8d3e
00000250: 5a53 e1bc a408 e03d 8666 88bb 1ef8 0d3d
00000260: dbef 803e 5287 183e ba4d 62bd 53be 053e
00000270: 616f a03d f596 24bd 8db3 693e 3f08 fdbd
00000280: 54fd 2ebd ce64 2e3c 48e7 7ebd aeae 5e3e
00000290: 3777 c23d 223b 8fbd 587c 5f3e 068c 133e
000002a0: 0525 423e 86a3 253e 755f 27bd de5b 103e
000002b0: d290 acbd 8ee3 143d f6d6 36bd 1f43 c43d
000002c0: 1af5 ca3d 4be4 dbbd b3cc 9f3e e2f8 c83d
000002d0: 6c72 ea3d 3469 0abd b72c 253d cc3e acbc
000002e0: 4a8f eabd ea58 493e d21d ed3d e11d 8a3e
000002f0: 1d3a 1b3e 8b33 1fbd c677 b33d d0d8 cfbd

lstm.weight_ih_l1 f4 [192, 48]
-0.042278945 -0.07626129 0.124704316 0.11364449 -0.07098272 0.012782231 0.03209797 -0.031689145
-0.13489681 -0.23210351 -0.13859451 -0.090827554 0.2886932 -0.081479885 0.018873626 0.08984499
-0.018081073 -0.18845311 -0.0034010177 0.026701776 0.0075736754 -0.06152459 -0.0436511 -0.10067495
-0.06957443 0.09167313 -0.07687621 0.08030668 -0.086077906 -0.14824805 0.028728759 -0.065014504
-0.104597665 -0.049639646 0.10920534 0.06414194 0.06846838 0.046282526 -0.058588598 0.12599127
-0.11300787 0.10660905 0.08444177 -0.09461923 -0.0961164 0.12172452 0.13268556 -0.099590115
0.0075916736 -0.2378304 -0.03735228 0.17263141 0.05333934 -0.1836381 -0.10214806 -0.1862438
0.2653622 -0.0052202432 0.047931906 0.14773995 0.14097007 0.19889967 -0.19431631 -0.065531015
-0.016119078 -0.03488771 0.14287938 -0.17065135 0.19014196 -0.13765776 -0.24585474 0.09444582
-0.11451545 -0.18599118 0.12573513 -0.05851416 -0.04294293 0.05315185 -0.11934776 0.14568974
0.027383253 0.035647947 -0.15331142 -0.089917496 -0.019243015 -0.048853178 0.10903584 0.17880447
0.09952685 -0.17092548 0.0033439551 -0.28471074 0.056267567 0.06522393 0.16078077 0.04189889
0.001025333 -0.030757997 -0.004864981 0.07581733 0.09806033 0.056957744 -0.03790236 0.12755497
0.06510046 -0.023645401 0.016813276 0.05079751 0.1770362 0.12617068 -0.24654225 0.011566983
-0.09187682 -0.13060635 -0.13434814 -0.16522257 0.15994272 0.039957307 -0.0017582754 0.17336404
-0.023506537 -0.1469906 -0.098748505 -0.008894329 0.024994666 0.0654912 -0.08402936 -0.08586569
0.11578367 0.11350655 -0.18325806 0.037307814 -0.07731539 -0.13252337 0.10912815 0.2179826
0.029922772 -0.11293382 0.119921155 -0.32599464 0.109565645 0.09590026 0.15935571 0.1474642
-0.050057862 -0.16655537 0.028372988 -0.16105299 0.10017488 -0.028844591 0.02426759 0.10944256
0.19531085 0.17792194 0.025521219 -0.017930897 0.11665338 -0.012779597 -0.012316756 0.14438452
-0.0064614136 0.10787196 -0.06167002 0.09812848 -0.22275151 0.002893123 -0.0016517913 -0.05782249
-0.046288125 -0.016341664 0.12072117 0.07062349 -0.045410823 0.021295369 -0.10176791 0.04160005
-0.051415175 0.11257801 -0.18378396 -0.103176326 -0.0002967357 -0.004080565 0.10513998 0.0741905
0.15343529 -0.004629579 0.075735316 0.0039971885 -0.12739527 0.04288613 0.0073819337 0.08457247
-0.119583406 -0.15604769 -0.11377245 -0.051873714 0.027874893 0.08688795 0.079504825 -0.13010354
-0.036273863 -0.08053173 0.046445053 0.16824599 0.24470723 0.07287359 -0.0871268 0.03451778
-0.0039377464 -0.15338588 -0.020927876 0.06398257 0.16096143 -0.0042567234 -0.117039025 -0.0564091
-0.09859402 0.058771946 0.12567525 -0.024775326 -0.027125916 -0.08158178 -0.18599692 -0.03398421
0.10369745 0.10194392 -0.21415068 0.011448764 0.062174935 0.029108314 0.009261387 -0.011661069
0.045019075 0.055532638 -0.055610448 -0.1405032 0.10987623 0.038956713 0.11165657 0.027679786
-0.085414946 -0.018412305 0.0808315 0.050396852 0.05198622 0.056474723 -0.1547335 -0.16427855
0.016069686 -0.09008703 -0.059902508 0.11023628 0.1636807 0.21066321 -0.33875185 0.09551526
00000000: b02c 2dbd e12e 9cbd fa64 ff3d 71be e83d
00000010: 635f 91bd 906c 513c 2979 033d 7acc 01bd
00000020: 6422 0abe 8bac 6dbe b8eb 0dbe cc03 babd
00000030: 98cf 933e edde a6bd dd9c 9a3c a600 b83d
00000040: c21e 94bc daf9 40be 9ce3 5ebb afbd da3c
00000050: 982c f83b 3501 7cbd 7fcb 32bd ab2e cebd
00000060: 0a7d 8ebd 1fbf bb3d 4671 9dbd d477 a43d
00000070: 9d49 b0bd 56ce 17be 9358 eb3c 5326 85bd
00000080: 4d37 d6bd f152 4bbd 0da7 df3d d95c 833d
00000090: 2639 8c3d bf92 3d3d 99fa 6fbd db03 013e
000000a0: ac70 e7bd d855 da3d cfef ac3d bac7 c1bd
000000b0: add8 c4bd b54a f93d b9de 073e e7f5 cbbd
000000c0: 93c3 f83b d089 73be b4fe 18bd 4ac6 303e
000000d0: 5a7a 5a3d a00b 3cbe 0133 d1bd b2b6 3ebe
000000e0: 8edd 873e 930e abbb 3f54 443d 2449 173e
000000f0: 755a 103e 5bac 4b3e dbfa 46be 2035 86bd
00000100: 280c 84bc 6ae6 0ebd f94e 123e 3abf 2ebe
00000110: 93b4 423e 28f6 0cbe 58c1 7bbe cf6c c13d
00000120: 1487 eabd 7974 3ebe b6c0 003e 8bac 6fbd
00000130: ede4 2fbd c1b5 593d 996c f4bd b12f 153e
00000140: d852 e03c 9503 123d abfd 1cbe aa26 b8bd
00000150: 87a3 9dbc 451a 48bd 2f4e df3d 8518 373e
00000160: bcd4 cb3d 1707 2fbe 4226 5b3b 9bc5 91be
00000170: d278 663d 2094 853d b7a3 243e 2c9e 2b3d
00000180: 7764 863a 32f8 fbbc 6b6a 9fbb 1e46 9b3d
00000190: dbd3 c83d 864c 693d 813f 1bbd c59d 023e
000001a0: 6453 853d 00b4 c1bc ffbb 893c 0d11 503d
000001b0: fa48 353e e332 013e 9275 7cbe 7183 3d3c
000001c0: ea29 bcbd acbd 05be 8f92 09be 1b30 29be
000001d0: 06c8 233e 46aa 233d ef75 e6ba 5886 313e
000001e0: c890 c0bc b484 16be a83c cabd 85b9 11bc
000001f0: 9dc1 cc3c 4020 863d 9617 acbd 5ada afbd
00000200: fd1f ed3d 1f76 e83d 00a8 3bbe 14d0 183d
00000210: 8857 9ebd 35b4 07be 947e df3d d536 5f3e
00000220: 9a20 f53c d949 e7bd 3999 f53d c5e8 a6be
00000230: f463 e03d 5b67 c43d 252e 233e db00 173e
00000240: 7909 4dbd 7e8d 2abe 786e e83c 13eb 24be
00000250: 7d28 cd3d 7e4b ecbc d3cc c63c 6c23 e03d
00000260: 91ff 473e 2b31 363e e011 d13c d1e3 92bc
00000270: f8e7 ee3d 8461 51bc 38cc 49bc 89d9 133e
00000280: 44ba d3bb f9eb dc3d b499 7cbd 96f7 c83d
00000290: f918 64be 8d9a 3d3b eb80 d8ba 46d7 6cbd
000002a0: 9e98 3dbd f4de 85bc a93c f73d 0ca3 903d
000002b0: b300 3abd a073 ae3c b26b d0bd d064 2a3d
000002c0: b898 52bd 4d8f e63d dd31 3cbe 1c4e d3bd
000002d0: 3193 9bb9 43b6 85bb a153 d73d 30f1 973d
000002e0: 241e 1d3e b9b3 97bb 1e1b 9b3d d9fa 823b
000002f0: e873 02be 5ea9 2f3d 26e4 f13b 5534 ad3d
00000300: 25e8 f4bd f7ca 1fbe 8801 e9bd 8879 54bd
00000310: e359 e43c 4ff2 b13d 6dd3 a23d dd39 05be
00000320: e793 14bd d2ed a4bd 2b3d 3e3d ad48 2c3e
00000330: 8894 7a3e c03e 953d 896f b2bd 8462 0d3d
00000340: 3608 81bb 3011 1dbe f070 abbc 4b09 833d
00000350: 13d3 243e fc7b 8bbb 28b2 efbd 3a0d 67bd
00000360: a9eb c9bd daba 703d 03b1 003e a0f5 cabc
00000370: 2b37 debc 5914 a7bd fa75 3ebe 0733 0bbd
00000380: 545f d43d f9c7 d03d 514a 5bbe 9993 3b3c
00000390: 25ab 7e3d 8f74 ee3c 13bd 173c 110e 3fbc
000003a0: ec65 383d 3176 633d c8c7 63bd 12e0 0fbe
000003b0: ca06 e13d 1391 1f3d 33ac e43d b8c0 e23c
000003c0: 08ee aebd 67d5 96bc fc8a a53d ee6c 4e3d
000003d0: 81ef 543d 0a52 673d 7572 1ebe a338 28be
000003e0: 93a4 833c 8c7f b8bd 555c 75bd 8fc3 e13d
000003f0: ea9b 273e 19b8 573e e270 adbe 819d c33d

lstm.weight_hh_l1 f4 [192, 48]
-0.10393994 0.13421492 -0.14564574 -0.13381922 -0.12786007 0.07222247 0.11062398 -0.12910703
0.051254384 -0.03254171 0.08321117 0.07138504 0.07768599 -0.06456686 -0.07748344 0.083854474
0.031673074 0.047160625 0.0628716 0.2668615 0.08367072 0.090069555 -0.09000858 0.08805373
-0.08254002 0.19230536 -0.02605552 -0.11139092 0.06881006 0.05751839 -0.05067583 -0.059368614
0.07984202 0.045940135 -0.022641588 -0.0073445598 0.11726967 -0.18361299 0.1016418 -0.06659274
0.11899925 0.02043897 -0.064085454 0.1376764 0.12043391 -0.09883931 0.035735033 -0.0933899
-0.0012458742 -0.11508635 0.016798325 0.044972528 -0.08608817 0.15315239 0.0527588 -0.11446845
0.0024523288 0.099230655 0.09091473 0.032483563 0.023433493 -0.064194225 0.1068428 0.06964379
0.15070647 0.10502633 -0.13447815 0.1230748 0.015205412 0.11145121 0.017055536 0.08676258
0.016223175 -0.1789799 0.020647297 -0.12134376 0.09402941 0.10477266 -0.10000359 0.060535125
0.1014128 0.084532425 -0.08944884 -0.01506955 0.16106856 -0.009404494 -0.17500532 0.13928542
0.11822654 -0.15902221 0.098765984 -0.1457215 -0.01475528 0.06661998 -0.052385513 0.1524232
-0.24699928 -0.058923572 -0.089904204 0.11756051 -0.039068248 0.12457228 0.017494986 0.045664713
0.11238276 0.015617663 0.07413148 0.04816507 -0.025262438 0.0057940483 -0.099885695 -0.023490781
0.13374482 -0.08149385 -0.055468556 0.041166797 0.04594124 0.061725125 -0.011227607 -0.037689995
-0.12387744 -0.096675314 0.0021365876 0.023604466 0.08622731 -0.17133377 -0.0020109073 0.013582688
-0.045354363 -0.018956948 0.14416148 -0.050568983 -0.02020026 -0.13938402 -0.024411188 0.08212473
0.1258574 0.07004195 0.12996069 0.016969508 0.12510666 0.09528442 -0.102664426 0.016571894
-0.083467126 -0.09364028 -0.09768931 0.07785601 0.12323609 -0.01205726 -0.06564595 -0.07353956
0.08448166 -0.08087504 -0.12274572 0.046387855 -0.15069397 0.06999326 0.10537994 0.12727335
0.10229243 -0.04070003 -0.109270245 0.064929195 -0.026533699 0.02893482 -0.05559529 0.0026956284
-0.006964221 0.027652549 0.045794927 -0.04728242 -0.010401397 -0.1115064 0.039786074 -0.039455965
-0.053011797 0.111037746 -0.011835624 0.17004 0.13690609 0.0129505 -0.042014193 0.1507644
0.07821931 -0.11867326 0.012861025 -0.075533904 -0.043096285 -0.052828204 -0.01530283 -0.08237588
-0.10656073 -0.16156717 0.07637522 -0.10019116 -0.010947573 -0.06618149 -0.08121113 -0.11668233
0.080071785 0.13659719 -0.11736438 0.13027923 0.06599372 0.0122269895 -0.014865247 0.01359749
-0.078652516 0.056311905 0.029490663 -0.045925666 -0.07857976 -0.064931385 -0.024014952 0.11783997
-0.071746215 0.06779898 -0.00082758116 0.0939259 0.15396063 0.041246444 0.048355263 -0.15456372
-0.03587867 -0.027944963 -0.14009625 0.036843378 -0.10595668 -0.01804169 -0.14002436 0.0060689454
0.14187971 0.100736015 -0.11635354 0.07845773 0.118899934 -0.032331336 0.16405328 0.008393469
-0.07614774 -0.13531277 0.12332106 -0.021843908 0.06350702 -0.08807815 -0.007860883 0.027478846
-0.014396933 -0.08678425 0.0059786127 -0.057983033 0.015176651 0.057836525 -0.1144104 -0.04138974
00000000: 77de d4bd a36f 093e 2824 15be e807 09be
00000010: c0ed 02be 60e9 933d d38e e23d a234 04be
00000020: 1ef0 513d 754a 05bd 9e6a aa3d 5232 923d
00000030: d519 9f3d a13b 84bd a3af 9ebd e5bb ab3d
00000040: a0bb 013d 802b 413d d3c2 803d 12a2 883e
00000050: 8e5b ab3d 6376 b83d 6b56 b8bd 8455 b43d
00000060: be0a a9bd b2eb 443e 6372 d5bc ec20 e4bd
00000070: 4aec 8c3d 6798 6b3d 7691 4fbd 812c 73bd
00000080: 3784 a33d b92b 3c3d da7a b9bc a2aa f0bb
00000090: 152b f03d 0b05 3cbe 9329 d03d c661 88bd
000000a0: e1b5 f33d a06f a73c 3c3f 83bd 0bfb 0c3e
000000b0: 0ea6 f63d 446c cabd e65e 123d 3443 bfbd
000000c0: 9a4c a3ba 64b2 ebbd a49c 893c 1d35 383d
000000d0: ff4e b0bd fbd3 1c3e 9d19 583d 6f6e eabd
000000e0: 40b7 203b 7139 cb3d 8131 ba3d 7c0d 053d
000000f0: 99f7 bf3c 4378 83bd 66d0 da3d 67a1 8e3d
00000100: cc52 1a3e 0b18 d73d a4b4 09be a40e fc3d
00000110: 1f20 793c 8840 e43d 0db8 8b3c 94b0 b13d
00000120: 77e6 843c 8246 37be 8524 a93c 1483 f8bd
00000130: 7e92 c03d 0c93 d63d afce ccbd aef3 773d
00000140: 84b1 cf3d 561f ad3d f430 b7bd 46e6 76bc
00000150: 28ef 243e 4f15 1abc 9834 33be d6a0 0e3e
00000160: c220 f23d b8d6 22be d245 ca3d 0438 15be
00000170: 21c0 71bc 0e70 883d 3192 56bd d414 1c3e
00000180: 61ed 7cbe d859 71bd b21f b8bd 91c3 f03d
00000190: 0706 20bd c01f ff3d a551 8f3c ec0a 3b3d
000001a0: ef28 e63d 3ae1 7f3c 3fd2 973d bd48 453d
000001b0: 2cf3 cebc 00dc bd3b df90 ccbd bd6f c0bc
000001c0: 67f4 083e 3fe6 a6bd ff32 63bd 849e 283d
000001d0: e22c 3c3d 7cd3 7c3d fff3 37bc d360 1abd
000001e0: 75b3 fdbd b5fd c5bd fe05 0c3b 275e c13c
000001f0: f297 b03d 1f72 2fbe 6dc9 03bb ec89 5e3c
00000200: 7fc5 39bd 9a4b 9bbc 119f 133e 6c21 4fbd
00000210: 047b a5bc afba 0ebe f9f9 c7bc 0331 a83d
00000220: c3e0 003e 2772 8f3d 6a14 053e a303 8b3c
00000230: f61b 003e 7a24 c33d ba41 d2bd c8c1 873c
00000240: d0f0 aabd 7ac6 bfbd 5511 c8bd f972 9f3d
00000250: 3463 fc3d d08b 45bc 6271 86bd e99b 96bd
00000260: b804 ad3d d0a1 a5bd 1c62 fbbd 3101 3e3d
00000270: 854f 1abe a058 8f3d 70d1 d73d f253 023e
00000280: b27e d13d 13b5 26bd 14c9 dfbd 99f9 843d
00000290: 335d d9bc b708 ed3c e3b7 63bd 24a9 303b
000002a0: 1f34 e4bb 9987 e23c 7693 3b3d 36ab 41bd
000002b0: 9f6a 2abc 785d e4bd b9f6 223d 949c 21bd
000002c0: e622 59bd c267 e33d 35ea 41bc f71e 2e3e
000002d0: 1c31 0c3e 552e 543c 1317 2cbd fc61 1a3e
000002e0: 7231 a03d f70a f3bd 0cb7 523c 85b1 9abd
000002f0: bb85 30bd 6362 58bd b9b8 7abc afb4 a8bd
00000300: 833c dabd dd71 25be 9d6a 9c3d 0631 cdbd
00000310: 735d 33bc 298a 87bd 0552 a6bd 25f7 eebd
00000320: adfc a33d 22e0 0b3e bc5c f0bd eb67 053e
00000330: b727 873d b653 483c 5d8d 73bc 02c8 5e3c
00000340: 9214 a1bd 50a7 663d 6796 f13c 8d1c 3cbd
00000350: 6dee a0bd bffa 84bd 01bb c4bc 1556 f13d
00000360: aeef 92bd 31da 8a3d 08f2 58ba 395c c03d
00000370: dba7 1d3e 08f2 283d 2b10 463d f445 1ebe
00000380: 83f5 12bd d6ec e4bc 6475 0fbe 15e9 163d
00000390: d1ff d8bd 2bcc 93bc 8c62 0fbe 01de c63b
000003a0: ea48 113e af4e ce3d c44a eebd 72ae a03d
000003b0: cf81 f33d dd6d 04bd 95fd 273e c384 093c
000003c0: 59f3 9bbd 6e8f 0abe c08f fc3d fff1 b2bc
000003d0: f80f 823d 5162 b4bd efca 00bc 511b e13c
000003e0: 1de1 6bbc f1bb b1bd 3de8 c33b 9e7f 6dbd
000003f0: 7da7 783c fee5 6c3d 0050 eabd 4a88 29bd

lstm.bias_ih_l1 f4 [192]
-0.04974378 0.1551526 0.03366595 -0.07429574 -0.042292427 0.17865688 -0.021674989 -0.06786315
0.14449602 0.1593073 0.12932521 0.103019185 -0.06242922 -0.03545982 0.2064543 -0.0008687454
-0.0889297 0.10134129 0.15426318 0.11042845 0.20396793 -0.0006276519 -0.054650553 0.10666705
-0.043689754 0.15856594 -0.036382977 0.02086587 -0.08083374 0.05863409 -0.10971249 0.07325267
-0.11965675 -0.14432992 -0.061244503 0.13761212 0.13609517 0.037232384 -0.10283008 -0.08431152
0.096514724 0.051752854 0.06674739 -0.09680221 0.12420506 0.06537713 0.13005292 0.01432164
-0.07729085 -0.09348459 -0.12589431 -0.021151267 -0.079398096 0.0071957125 0.10345556 0.03176128
-0.12273038 0.02046204 -0.11200787 -0.11923235 0.07358894 -0.016267328 0.09452629 -0.082828164
-0.08907972 0.12390633 -0.035795826 -0.026641248 0.040026385 -0.14377165 -0.12045441 -0.14695084
-0.11529208 -0.013521767 0.070186205 -0.10037666 0.08577615 0.037280947 -0.1501646 -0.02429872
0.03834839 -0.08618698 -0.08701583 -0.013070315 0.10405951 -0.1743352 0.046955127 0.13497089
0.074304834 0.09015614 -0.10816256 -0.057829287 -0.056427784 -0.0373987 0.055599965 0.081103615
-0.06755253 0.015464356 -0.02895091 0.12747565 -0.04154444 0.067398265 -0.06028778 -0.027073655
0.114967614 -0.08616799 0.07582202 0.04318799 -0.030915828 -0.080973305 -0.004478022 -0.09747451
-0.0038032664 -0.008828721 -0.078471966 0.020529542 0.0870777 -0.15968621 0.10245531 -0.0029289643
-0.1251912 -0.03459479 -0.1026898 0.021684162 0.062719375 0.03147304 -0.051650714 0.034326248
-0.04413819 0.064487346 -0.010706026 0.03571069 0.06099812 -0.0038259411 -0.015865197 0.045905653
0.001063493 0.064395376 -0.07740819 -0.024266921 0.0086783795 -0.019062072 -0.021532075 -0.011514677
0.17248331 0.09043014 0.03136898 0.064823985 0.11416365 0.21511245 0.13416055 0.052705444
-0.09411197 0.16257177 0.18853603 0.14146869 -0.044173162 0.10235275 0.24052577 -0.00044854794
0.14900634 0.16324738 -0.06507851 -0.009297578 0.1074108 -0.004024224 0.027371932 0.045844667
-0.018199753 0.026008977 0.18544312 -0.024196487 -0.039269198 0.08477405 0.05685241 0.14165598
-0.089875065 0.046712276 -0.05411527 0.12958232 0.081722975 0.037956517 -0.061507855 0.12026749
0.0711503 0.13881056 -0.065440804 -0.098129936 0.079829104 0.1109543 0.23515607 0.22389543
00000000: 22c0 4bbd 53e0 1e3e 4fe5 093d 5d28 98bd
00000010: d33a 2dbd d4f1 363e bf8f b1bc d6fb 8abd
00000020: c4f6 133e 7421 233e d46d 043e b9fb d23d
00000030: c8b5 7fbd 513e 11bd c268 533e 84bc 63ba
00000040: c620 b6bd 068c cf3d 2bf7 1d3e 5028 e23d
00000050: f8dc 503e 0289 24ba 42d9 5fbd 4174 da3d
00000060: 07f4 32bd 1c5f 223e 5106 15bd e7ee aa3c
00000070: 298c a5bd 4d2a 703d f1b0 e0bd 7f05 963d
00000080: 990e f5bd 39cb 13be 84db 7abd 31ea 0c3e
00000090: 885c 0b3e fc80 183d 9498 d2bd 85ab acbd
000000a0: 83a9 c53d cdfa 533d dbb2 883d 3d40 c6bd
000000b0: 395f fe3d 72e4 853d 982c 053e 50a5 6a3c
000000c0: aa4a 9ebd d974 bfbd 70ea 00be 6c45 adbc
000000d0: 789b a2bd 03ca eb3b 82e0 d33d 1e18 023d
000000e0: 115a fbbd 02a0 a73c 6264 e5bd 1730 f4bd
000000f0: ccb5 963d 0f43 85bc 0097 c13d d0a1 a9bd
00000100: 6e6f b6bd 9ac2 fd3d a59e 12bd bf3e dabc
00000110: b5f2 233d e038 13be cdb0 f6bd 487a 16be
00000120: 411e ecbd 678a 5dbc c9bd 8f3d 4792 cdbd
00000130: 68ab af3d e8b3 183d c0c4 19be 1c0e c7bc
00000140: 3413 1d3d cd82 b0bd 5b35 b2bd e024 56bc
00000150: 271d d53d ed84 32be 0554 403d cf35 0a3e
00000160: 222d 983d c8a3 b83d 5584 ddbd 67de 6cbd
00000170: d220 67bd 612f 19bd cabc 633d a719 a63d
00000180: fb58 8abd 365e 7d3c 752a edbc fa88 023e
00000190: 812a 2abd 1a08 8a3d 52f0 76bd 92c9 ddbc
000001a0: 2474 eb3d d878 b0bd 9348 9b3d e4e5 303d
000001b0: 3143 fdbc 55d5 a5bd 5fbc 92bb b7a0 c7bd
000001c0: 3940 79bb 57a6 10bc e9b5 a0bd 922d a83c
000001d0: cb55 b23d c884 23be 17d4 d13d def3 3fbb
000001e0: 1f32 00be 44b3 0dbd 084f d2bd fca2 b13c
000001f0: 0473 803d e0e9 003d b38f 53bd ae99 0c3d
00000200: 3fca 34bd f111 843d 5468 2fbc 5f45 123d
00000210: 2ad9 793d a4bc 7abb bbf7 81bc 9107 3c3d
00000220: e764 8b3a b9e1 833d 2f88 9ebd 6ccb c6bc
00000230: c32f 0e3c 1028 9cbc 0964 b0bc 0ea8 3cbc
00000240: 779f 303e 7033 b93d c27c 003d 70c2 843d
00000250: a2ce e93d 7046 5c3e 6261 093e aae1 573d
00000260: c7bd c0bd 3779 263e 970f 413e 2bdd 103e
00000270: ebee 34bd 529e d13d 634c 763e 162b ebb9
00000280: 1e95 183e 522a 273e e247 85bd de54 18bc
00000290: 32fa db3d a3dd 83bb 1a3b e03c 9ec7 3b3d
000002a0: a617 95bc c710 d53c cde4 3d3e b637 c6bc
000002b0: bdd8 20bd 049e ad3d 13de 683d 440e 113e
000002c0: 6b10 b8bd 5f55 3f3d f9a7 5dbd 3ab1 043e
000002d0: 605e a73d 4b78 1b3d a9ef 7bbd cd4e f63d
000002e0: 40b7 913d 5b24 0e3e d405 86bd 59f8 c8bd
000002f0: 717d a33d 023c e33d c1cc 703e d844 653e

lstm.bias_hh_l1 f4 [192]
0.11422286 0.10001764 0.19865395 0.1651624 -0.0382899 0.12016047 0.10222367 0.103115514
0.18693018 -0.021144006 0.16751397 0.005525 0.042325653 -0.006437997 0.20932856 0.10709826
-0.07544425 0.044684757 0.14789028 0.25060084 -0.0077353055 -0.027629025 -0.037335213 0.05485872
-0.044690475 0.04555708 -0.005739017 0.0058821067 0.122363016 -0.006036755 -0.013756866 0.11724279
-0.13332099 -0.14308137 0.15046313 -0.097153306 0.024656003 0.020064708 -0.12940049 0.11799557
0.07115728 0.07586906 -0.07713677 0.06054183 0.01621665 -0.08209352 0.13009687 0.22599822
-0.012870536 -0.1204608 -0.10024864 0.002107944 -0.022352038 -0.110064074 0.01689571 -0.07643822
0.094083354 0.07480825 -0.13694514 0.008984547 -0.07716298 -0.08444648 -0.09799069 0.0026389726
0.09485176 -0.104304075 -0.06208964 0.06286703 0.040883258 0.100837246 -0.049009852 -0.047261473
-0.0011314244 0.071586385 0.08131968 -0.10622349 -0.02531409 -0.17878026 -0.023887286 0.06175575
-0.14495985 0.10022568 0.106268205 -0.032821663 -0.08338245 -0.018692726 -0.09874579 -0.025432149
0.013744954 0.0067112767 -0.120357625 0.1275844 0.07725212 -0.0027874778 0.05690365 0.039304208
-0.084643915 -0.08274232 -0.03194253 -0.12058734 -0.00057044177 -0.018556196 0.05203171 0.036955103
-0.0747564 0.026683532 -0.008035661 0.005625372 -0.023126317 0.07238919 0.02012546 0.06311751
0.030284746 0.0009624811 0.054946132 -0.013790249 -0.12308182 0.09571533 -0.14399962 0.020772703
-0.10968373 -0.057366684 0.10760575 -0.0135970395 -0.01208394 -0.11031427 0.10036563 0.050970845
0.06228917 0.026201889 -0.063756876 0.027178725 0.021806423 -0.05977518 -0.06611056 0.07222174
0.02036309 -0.038646366 -0.08815987 -0.05437144 0.033332873 0.09841444 0.06282163 0.04645689
0.048376027 0.12110853 0.18613082 -0.014028322 0.07129039 0.068331316 0.08706838 -0.04565174
0.16145508 0.14627561 0.1995346 0.084192544 0.0812165 -0.031337623 0.14569536 0.1197964
0.069008954 0.087659635 -0.06769874 0.17504546 0.082291454 -0.12052203 0.029731516 0.049480543
0.06011409 0.16776769 0.12725848 0.1928509 0.022174655 -0.013398834 0.03393099 0.046207327
-0.12376991 0.018956767 -0.044437047 0.0928206 0.052159123 -0.016613977 -0.14288048 0.025583725
-0.037723202 0.07125238 -0.037805803 -0.11783681 0.0838438 -0.10232517 0.09864031 0.18511628
00000000: aded e93d 0cd6 cc3d f16b 4b3e 5520 293e
00000010: dfd5 1cbd b116 f63d a55a d13d 3a2e d33d
00000020: a06a 3f3e 3236 adbc c888 2b3e 0f0b b53b
00000030: aa5d 2d3d d5f5 d2bb 3a5a 563e 5556 db3d
00000040: 8482 9abd 5d07 373d 8d70 173e c14e 803e
00000050: 7278 fdbb 4456 e2bc cfec 18bd 8ab3 603d
00000060: 5c0d 37bd 109a 3a3d 5d0e bcbb b0be c03b
00000070: 7699 fa3d f9cf c5bb 7a64 61bc fd1c f03d
00000080: 4c85 08be ec83 12be 0213 1a3e 50f8 c6bd
00000090: 63fb c93c be5e a43c 9081 04be a9a7 f13d
000000a0: e8ba 913d 3d61 9b3d e2f9 9dbd b6fa 773d
000000b0: c8d8 843c a620 a8bd 1d38 053e 146c 673e
000000c0: f1de 52bc 27b4 f6bd 294f cdbd 6f25 0a3b
000000d0: 9f1b b7bc 4669 e1bd df68 8a3c a48b 9cbd
000000e0: c6ae c03d 1135 993d 593b 0cbe ec33 133c
000000f0: a007 9ebd 47f2 acbd 58af c8bd 9df2 2c3b
00000100: a441 c23d 609d d5bd b551 7ebd 6ec0 803d
00000110: 3475 273d c283 ce3d 8ebe 48bd 3f95 41bd
00000120: 4e4c 94ba e29b 923d ef8a a63d b38b d9bd
00000130: 7f5f cfbc 2c12 37be 45af c3bc 99f3 7c3d
00000140: 5b70 14be 1f43 cd3d 25a3 d93d 0270 06bd
00000150: 6bc4 aabd 7d21 99bc 3c3b cabd 1557 d0bc
00000160: 8432 613c 45ea db3b 0f7e f6bd 7ca5 023e
00000170: 5c36 9e3d 1eae 36bb cd13 693d 73fd 203d
00000180: ca59 adbd ce74 a9bd 2cd6 02bd 7ff6 f6bd
00000190: b389 15ba 2a03 98bc 341f 553d 3c5e 173d
000001a0: e219 99bd 6c97 da3c 01a8 03bc 0a55 b83b
000001b0: 6773 bdbc c940 943d 26de a43c c143 813d
000001c0: b717 f83c 034f 7c3a 320f 613d 7ff0 61bc
000001d0: 5212 fcbd 6606 c43d a374 13be 842b aa3c
000001e0: dda1 e0bd 54f9 6abd 6760 dc3d 1ec6 5ebc
000001f0: b8fb 45bc 73ec e1bd 7f8c cd3d cec6 503d
00000200: ee22 7f3d 58a5 d63c f792 82bd eba5 de3c
00000210: 62a3 b23c d2d6 74bd f964 87bd fee8 933d
00000220: 7fd0 a63c a74b 1ebd 298d b4bd 96b4 5ebd
00000230: 0d88 083d 838d c93d a0a8 803d 9449 3e3d
00000240: f125 463d c007 f83d 1499 3e3e 0cd7 65bc
00000250: b200 923d 4af1 8b3d e850 b23d 52fd 3abd
00000260: 7b54 253e 46c9 153e cc52 4c3e 246d ac3d
00000270: d654 a63d e15b 00bd 2a31 153e d157 f53d
00000280: 9154 8d3d e586 b33d a3a5 8abd 1e3f 333e
00000290: 6c88 a83d 41d4 f6bd 828f f33c 1cac 4a3d
000002a0: 313a 763d 4bcb 2b3e 0c50 023e b57a 453e
000002b0: 9fa7 b53c c886 5bbc 39fb 0a3d e543 3d3d
000002c0: 147b fdbd 394b 9b3c 9f03 36bd ba18 be3d
000002d0: cea4 553d 091a 88bc 434f 12be f694 d13c
000002e0: a583 1abd c5ec 913d 42da 1abd 6d54 f1bd
000002f0: 4cb6 ab3d dc8f d1bd ee03 ca3d 1f8f 3d3e

lstm.weight_ih_l2 f4 [192, 48]
-0.08281294 -0.06468434 0.11930965 0.065144494 0.016776906 -0.06037854 -0.14196813 -0.13941786
0.0652223 0.10912992 -0.107614905 -0.088235244 0.10333055 0.062935546 -0.07965571 0.052283183
-0.055669695 -0.079878315 0.065943494 -0.13859841 0.048322678 -0.08194256 0.007446375 -0.1368606
0.0102371145 -0.09102451 -0.082978696 0.04997957 -0.022842351 -0.06106989 0.0037761657 -0.05684036
-0.09054302 0.14141089 0.047538593 0.14496079 0.16255857 0.0507463 0.061537374 0.14191216
-0.027528325 -0.16532184 -0.039063133 0.0936152 0.0011476962 -0.106595635 -0.09575969 -0.05793848
0.0034469226 -0.07272187 0.090208925 -0.10718289 0.068911776 0.034224767 -0.12454741 -0.07334221
0.035614673 0.15185699 0.035844274 0.11544411 0.044485476 0.016432784 -0.011593591 -0.08539814
-0.06474345 -0.014450173 0.0013509776 -0.14367516 0.018449226 -0.04225676 0.03497698 -0.053608105
-0.005325419 -0.16423574 0.18266945 0.16150087 -0.03778863 0.07002756 0.06347462 -0.1574528
0.1637263 0.060205694 -0.052485477 -0.052642163 0.049279645 0.04971254 -0.17948824 0.06580932
-0.060759075 -0.14496596 0.0889513 -0.10842472 -0.15470946 0.16642834 -0.05097524 -0.05848995
0.027633509 -0.16996984 0.045285456 -0.08692569 0.060120035 -0.0039651883 -0.16513282 -0.054569744
0.029703412 0.065236434 -0.1284308 0.1329333 -0.020609878 0.05160491 -0.13748342 0.09994106
-0.018545713 0.06549791 0.07852777 0.12049552 0.006651202 0.08890861 -0.02616719 0.09446358
-0.014884608 -0.13929161 -0.0008868617 0.22645192 -0.07797598 0.032867935 0.11646433 -0.24998216
-0.1242243 0.076583 0.11568965 0.17189814 0.0040673004 0.003924211 0.0068809725 -0.08125957
-0.10917387 0.03167937 -0.08791324 -0.12434458 0.09112826 -0.06791744 -0.09950846 -0.077223614
-0.09068471 0.00017357248 -0.043662615 0.082100935 0.03283968 -0.10791742 -0.11444428 -0.0042237416
0.21631385 0.09460664 0.1365237 -0.052504245 0.10316282 -0.08123591 0.08352859 0.009778311
-0.04899853 0.088290155 -0.07231146 0.27874961 -0.10855533 -0.047550846 -0.0675356 0.15919842
-0.04082313 -0.049288195 0.07677643 0.10648103 0.11461195 0.07565682 0.10973316 -0.18406828
0.10956537 0.010498839 -0.10760447 0.08928648 -0.14408682 0.0030057072 -0.18797994 -0.09106615
0.05703048 -0.092071734 -0.10014539 -0.14550583 -0.15995494 -0.01575931 0.0124462675 0.05196871
0.010711554 -0.006928345 0.03242376 -0.1426748 -0.069761224 -0.086036906 -0.1123749 0.023642786
-0.21078774 0.063759245 -0.12696429 0.12664784 0.08408365 -0.060715333 0.05449718 0.09894908
-0.08339211 -0.091052115 0.0011634298 -0.022268431 -0.08332254 0.016530707 0.0037984669 0.11757607
0.14076081 -0.037075266 -0.12392722 0.07583278 0.009234064 0.06318819 -0.042682815 -0.12933092
-0.113061205 -0.10717642 0.03679858 -0.019352738 -0.019648107 0.28969413 -0.0603504 0.07195092
0.11228182 -0.14940208 -0.105666906 0.00905257 -0.14756536 0.10641931 -0.032459967 0.11807207
0.09084838 -0.19122529 0.119339384 0.06003353 -0.050118104 0.043069094 -0.22482708 0.09379548
0.019316867 0.026896944 0.06551702 0.030666903 0.08672361 -0.07102182 0.004253044 0.14415444
00000000: d599 a9bd 3979 84bd 9e58 f43d 7a6a 853d
00000010: b96f 893c 7d4f 77bd 1860 11be 8ec3 0ebe
00000020: 4593 853d 827f df3d 3465 dcbd aeb4 b4bd
00000030: f89e d33d 5ae4 803d 8822 a3bd e426 563d
00000040: e805 64bd 3e97 a3bd 620d 873d beec 0dbe
00000050: 00ee 453d 80d1 a7bd b900 f43b 2f25 0cbe
00000060: 92b9 273c 0f6b babd bcf0 a9bd 61b7 4c3d
00000070: e21f bbbc 6c24 7abd 8c79 773b 70d1 68bd
00000080: 9e6e b9bd 04ce 103e d4b7 423d 9a70 143e
00000090: c175 263e 5adb 4f3d 9d0e 7c3d 6c51 113e
000000a0: 1583 e1bc 214a 29be aa00 20bd 53b9 bf3d
000000b0: 4b6e 963a d04e dabd a81d c4bd e650 6dbd
000000c0: c4e5 613b 34ef 94bd 75bf b83d b482 dbbd
000000d0: 9e21 8d3d 452f 0c3d b612 ffbd 7134 96bd
000000e0: b1e0 113d 6680 1b3e 72d1 123d f66d ec3d
000000f0: 6736 363d 0c9e 863c 0cf3 3dbc 38e5 aebd
00000100: 3798 84bd 6bc0 6cbc 4913 b13a 951f 13be
00000110: d522 973c 6d15 2dbd 0644 0f3d 2c94 5bbd
00000120: da80 aebb 6a2d 28be b30d 3b3e 7c60 253e
00000130: 40c8 1abd 9c6a 8f3d fbfe 813d 4f3b 21be
00000140: dea7 273e 3f9a 763d 03fb 56bd 4f9f 57bd
00000150: 74d9 493d 609f 4b3d c4cb 37be 09c7 863d
00000160: 82de 78bd f571 14be 192c b63d c80d debd
00000170: 286c 1ebe 316c 2a3e 6acb 50bd 2893 6fbd
00000180: ab5f e23c 930c 2ebe 3e7d 393d 1906 b2bd
00000190: 6d40 763d 69ee 81bb 9418 29be 8684 5fbd
000001a0: 9254 f33c ae9a 853d 5d83 03be ab1f 083e
000001b0: 0cd6 a8bc ac5f 533d 74c8 0cbe e6ad cc3d
000001c0: 2eed 97bc c523 863d 2bd3 a03d 5bc6 f63d
000001d0: 54f2 d93b b815 b63d 935c d6bc 1f76 c13d
000001e0: 92de 73bc 76a2 0ebe 487c 68ba 03e3 673e
000001f0: dfb1 9fbd 87a0 063d da84 ee3d 53fb 7fbe
00000200: 4f69 febd 8cd7 9c3d b2ee ec3d 1106 303e
00000210: fd46 853b ab96 803b c879 e13b 6b6b a6bd
00000220: 8d96 dfbd 3ac2 013d db0b b4bd 5fa8 febd
00000230: 74a1 ba3d 4c18 8bbd 17cb cbbd 6a27 9ebd
00000240: e8b8 b9bd 0201 3639 92d7 32bd 8924 a83d
00000250: e682 063d cf03 ddbd c361 eabd 5067 8abb
00000260: 6181 5d3e 20c1 c13d decc 0b3e b10e 57bd
00000270: 0747 d33d 035f a6bd 0a11 ab3d 3535 203c
00000280: afb2 48bd 78d1 b43d 0818 94bd 45b8 8e3e
00000290: 4252 debd adc4 42bd 1b50 8abd e904 233e
000002a0: 2836 27bd 6be2 49bd f63c 9d3d ba12 da3d
000002b0: acb9 ea3d f6f1 9a3d c7bb e03d 657c 3cbe
000002c0: cf63 e03d 5303 2c3c bb5f dcbd d4db b63d
000002d0: 7f8b 13be 66fb 443b d07d 40be e480 babd
000002e0: cb98 693d 1b90 bcbd 0719 cdbd 7bff 14be
000002f0: 3acb 23be ab19 81bc 6eeb 4b3c 24dd 543d
00000300: 847f 2f3c 2c07 e3bb c7ce 043d 5819 12be
00000310: f9de 8ebd 1e34 b0bd d024 e6bd 84ae c13c
00000320: bed8 57be 3594 823d ed02 02be f9af 013e
00000330: 0c34 ac3d a4b0 78bd 6f38 5f3d d1a5 ca3d
00000340: 7cc9 aabd 8879 babd 3a7e 983a 496c b6bc
00000350: 02a5 aabd 686b 873c b3ef 783b b9cb f03d
00000360: 9a23 103e 3cdc 17bd 8ecd fdbd 374e 9b3d
00000370: 794a 173c cf68 813d 2dd4 2ebd 536f 04be
00000380: a28c e7bd 507f dbbd 1cba 163d a289 9ebc
00000390: 11f5 a0bc ca52 943e fb31 77bd 015b 933d
000003a0: 03f4 e53d dcfc 18be e467 d8bd 3b51 143c
000003b0: 601b 17be 5ef2 d93d bef4 04bd c5cf f13d
000003c0: b70e ba3d 90d0 43be 3568 f43d b8e5 753d
000003d0: a448 4dbd 3869 303d 1239 66be d817 c03d
000003e0: 683e 9e3c fb56 dc3c ca2d 863d 2839 fb3c
000003f0: 269c b13d e373 91bd 1e5d 8b3b 399d 133e
