best_regression_model.pth (torch, 21268 bytes, 6 tensors)

fc.0.weight f4 [64, 4]
00000000: 9fbd 1e3e 731f b33e f861 06bf 4ac7 593d
00000010: 648d 4abd a8bd 3a3e b7b9 d9be 0af3 8e3e
00000020: c6fe d3bb 0b3f 2abf 8edb a6be 3ac2 12bf
00000030: e4a8 67be f281 f5be 587e ecbe 74bb 07be
00000040: d1a4 6cbe f6ea 093f 8a1f 053b b699 f53e
00000050: 1ed1 d33e cdca e43c b940 5a3a aad7 18be
00000060: 4a50 52be 275b 443e c469 213e 160f d63e
00000070: 0480 943e ae64 093f ad45 d1bc 5baf 8e3d
00000080: 7343 563c cef2 783e 2944 1f3e 8469 873e
00000090: fa28 4f3e c50f 103f 03fb 9c3e 0578 6bbe
000000a0: dafd e7be 1438 463e 8ec6 f1be 40cf 2dbe
000000b0: 8041 423e b58f 82bb b003 083f aa76 d03d
000000c0: 90e3 9abe 5613 cb3e 06b6 c6be 343e a0be
000000d0: 2c73 ecbe ed25 843e e916 6c3e 31c2 4b3d
000000e0: 2853 8ebd 7e06 95be cef2 86be 4894 60be
000000f0: 8daa 353e 3e0a 8ebd dd53 88be d02b f23d
00000100: dcf3 01bd ee40 d73c d114 c93e 1076 d63e
00000110: 36f1 913e 0398 eb3c ce8e ddbd fbe5 ec3c
00000120: fa1c 4ebe c254 33be 0c3d dd3e c3f1 ab3e
00000130: 0154 35be 3e8a 43be 06d2 163e 8ac0 f3bd
00000140: d15c 1dbf 7fb5 823e e7b0 663e 55e4 4c3e
00000150: 7727 553e 82be 083f 2d88 743d d1fa a0be
00000160: 1294 9c3e 03ce 46be 7c0b 8dbe 0cbd ad3e
00000170: 406f 6abd 80af f43d 20ad aabe 7063 7abd
00000180: 44f0 62be 31dd 17bd 1b3e 06bf bb00 6ebd
00000190: 11cf b93e d357 18bd 6907 bcbe 0d61 4fbe
000001a0: 44de 843e c681 adbd b11b f63e 8a26 f83e
000001b0: 318d b73e bb98 65be 017e 57be 6cf7 c23e
000001c0: 1e5f ee3e d0fe 57be ec26 563e 2892 98be
000001d0: 8839 99be 34e0 b63e f671 8e3e 80e1 b1be
000001e0: 6ad9 abbe 90bb 39be 9882 273e b08a 3dbd
000001f0: 9314 863d 5386 fdbc d531 a53e 6a6d a7be
00000200: ee3b f4be bc96 edbe c03e c23d e097 ea3d
00000210: c842 f4be 40e2 bdbe a222 fe3e 0401 d1be
00000220: 37d6 0a3e c64e 023f fd27 6a3e cbc4 323e
00000230: c01e 3e3c 9042 d03e 28b2 50be 487f f5be
00000240: 806e 1abd 341e bcbd db13 c63e 358f 4fbe
00000250: 5faf 553e 3b2c dbbe d664 3fbe 6a5d d63e
00000260: 90a5 e7be f093 a43d 20ab 4b3e eec7 a9be
00000270: fc27 19bd faf5 82be 1e54 db3d 537b c83e
00000280: 7e5b b8be 123f b53e aa0b e5be f19e fb3e
00000290: 1b53 073e 93e7 01bf 433e a13e 5693 e43e
000002a0: 880f d9be 6a84 d1be 64b7 bc3e 58f7 aa3e
000002b0: 3da2 b63d 0d93 033f 0b96 bdbe f3db 73be
000002c0: 4084 853e 3af8 febe 6ccf a93d 31d7 f3bd
000002d0: b204 40be c6ec 663e 9cc6 903e f542 ad3e
000002e0: be27 d93d 3950 823d a84b dabe ecb9 d6bd
000002f0: 8e1a 7dbe 87fb 87be 77e6 d73b 27d5 d23e
00000300: d0ab 28be 6ae4 a6be ca32 833e 3535 da3e
00000310: 7532 eb3e 1ecc c03e bde5 173c 0fa4 273e
00000320: 2c5d 82bd b7be 4dbe 0376 953e 5229 bd3d
00000330: 88ab 8abd 6899 9cbe 58bd b93e 14c9 ddbe
00000340: 4305 8dbe b7e2 aebe eaca e83d 20a7 ea3e
00000350: 602e 57be d18e dcbe 4a11 613e e26c 093e
00000360: 30a3 56be e0d5 ce3c e0df 643e f833 a83d
00000370: 9463 3c3d c7b8 ac3e f88f b8be 8495 1bbe
00000380: 4953 6cbe ad9f c53d 4e56 f23e 7fe9 1cbe
00000390: 0e5c 9a3e e9a7 0c3f 7361 033f e2ae ce3d
000003a0: 2e55 c33e 713e cdbe 3425 723e 0c57 c53e
000003b0: ac29 0dbe e0c7 a43d d480 60be 2c85 1d3e
000003c0: 33b5 6b3e ce95 86be 197c 6fbe 561b e8be
000003d0: 88b4 003e d048 6fbe 009c d2bb a695 a8be
000003e0: e888 9d3e 19eb 2bbe 7a39 abbe 06f8 df3e
000003f0: 14f2 3cbe 88e9 22bf 2d78 c7bd 4d26 1f3e
0.15502022 0.3498493 -0.5249324 0.053168572 -0.049451247 0.1823641 -0.42524502 0.279198
-0.0064695803 -0.66502446 -0.32589382 -0.57327616 -0.2262302 -0.47950703 -0.46190143 -0.13255101
-0.23109747 0.53874147 0.0020312988 0.47968835 0.4137048 0.027928734 0.00083256845 -0.1492602
-0.2053844 0.19175397 0.15763003 0.41808385 0.29003918 0.5366925 -0.02554592 0.0696704
0.013077605 0.24311373 0.15553345 0.2644769 0.20230475 0.5627406 0.30660257 -0.22995003
-0.4531086 0.1935733 -0.47221798 -0.16973591 0.18970299 -0.0039844164 0.53130627 0.101788834
-0.3025174 0.3966319 -0.38810748 -0.31297457 -0.4618162 0.25810185 0.23055615 0.049745742
-0.069494545 -0.29106516 -0.2635712 -0.21931565 0.17740841 -0.06935547 -0.26626483 0.11824763
-0.031726703 0.026276078 0.39273694 0.4188695 0.28504342 0.028759008 -0.108182535 0.028918257
-0.20128241 -0.17512801 0.43210638 0.33582887 -0.17707826 -0.19095704 0.14728555 -0.11901958
-0.6146975 0.25529096 0.2252842 0.20008977 0.20815836 0.5341569 0.05970018 -0.31441358
0.3058172 -0.19414525 -0.27547824 0.33933294 -0.057235003 0.119475365 -0.3333521 -0.061129987
-0.22161967 -0.03707618 -0.52438515 -0.058106165 0.36290792 -0.03719313 -0.36724404 -0.20251866
0.25950825 -0.08472018 0.48068002 0.48466903 0.35849908 -0.22421543 -0.2104416 0.38079393
0.46556944 -0.21093297 0.20913285 -0.29799008 -0.29926705 0.35717928 0.2782132 -0.34742355
-0.3356431 -0.18137956 0.16358411 -0.04627484 0.06546893 -0.03094784 0.3226458 -0.32700664
-0.47701973 -0.46404064 0.09484625 0.11454749 -0.477072 -0.37086678 0.49635798 -0.40821087
0.13558279 0.5090145 0.22866817 0.17457883 0.011604011 0.40675783 -0.20380461 -0.4794867
-0.037703037 -0.09185448 0.38687024 -0.20269473 0.2086768 -0.42807183 -0.1869081 0.41868144
-0.45243502 0.08036029 0.19889498 -0.33160347 -0.037391648 -0.2557829 0.107094035 0.3915659
-0.36007303 0.3539968 -0.4473546 0.491447 0.13215296 -0.5074398 0.31492814 0.44643658
-0.42394662 -0.40921336 0.36858666 0.33391833 0.08917663 0.51396257 -0.37028536 -0.23814373
0.2607746 -0.49798757 0.08291516 -0.11906279 -0.18751791 0.2255126 0.28276527 0.33840147
0.10603283 0.063629575 -0.42635846 -0.104846805 -0.24717161 -0.26559088 0.006588753 0.41178247
-0.16471791 -0.3259614 0.25624686 0.4261872 0.45936933 0.3765573 0.0092710825 0.16371177
-0.063654274 -0.20092283 0.29191598 0.09236397 -0.06770998 -0.3058579 0.3627727 -0.43317473
-0.27543077 -0.34157345 0.11366828 0.4583063 -0.21013784 -0.4307771 0.21979252 0.13420442
-0.20960689 0.025248468 0.22351027 0.08213037 0.045993403 0.33734724 -0.3604734 -0.15193754
-0.23078646 0.09649596 0.4733147 -0.15323447 0.30148357 0.5494371 0.5132057 0.1009195
0.38150924 -0.40086702 0.23647004 0.38542974 -0.13785428 0.08045936 -0.21924144 0.15382832
0.23018341 -0.26286167 -0.23387183 -0.45333356 0.12568867 -0.2336762 -0.006427288 -0.32926673
0.30768514 -0.16788901 -0.3344229 0.43743914 -0.1845172 -0.6363759 -0.097397186 0.15541954

fc.0.bias f4 [64]
00000000: 7cd0 3f3e c89f 89b8 1946 2d3d 801d 8ebe
00000010: 31b8 f93d 990e aabd 9b88 99be 790e 32be
00000020: 8152 263e 9068 4ebe a0e9 7fbe cabf 31be
00000030: 0efc 9bbe 479a d7be 721e a4be 096b aa3d
00000040: 17d4 9d3e 3191 443e 1a5f 46bd 2851 443e
00000050: 98e4 87be 5d5b 1b3e 4489 89bd 76fe 81be
00000060: d444 323e 7b93 aabd 1d74 b83d 865d 363d
00000070: 9ab0 edbe 2423 b4be 4aab 9bbe 3ba3 af3e
00000080: 5eb8 8abe 4a74 babe 0f1f 933e 407e eabe
00000090: c9a1 e1bd a7c2 4b3e 30b9 60be f4bb c23e
000000a0: 1886 183e 34b6 8f3e 4201 9fbe 0220 783e
000000b0: ebba dd3e 20f3 d1bd 8bb2 d33e b725 893e
000000c0: 4499 903e 8b66 9a3c 6e8b bc3e 4650 86be
000000d0: c20d ce3d 33df a93e 0a63 fcbe 3ff9 d43e
000000e0: 17f4 493e 099b f43d e411 0d3e 2022 42be
000000f0: 789f e53d 14df 94be a9bd 8d3d 8cc8 3a3e
0.18731874 -6.562431e-05 0.04230318 -0.27756882 0.12193335 -0.083035655 -0.29987034 -0.17388333
0.1624241 -0.20157075 -0.24991465 -0.17358318 -0.3046574 -0.42109892 -0.32054478 0.083211966
0.30825874 0.19196011 -0.04843054 0.19171584 -0.2654159 0.15171571 -0.067156345 -0.2538945
0.17409068 -0.08328911 0.09006522 0.044522785 -0.464238 -0.3518306 -0.3040412 0.34304222
-0.27093786 -0.36416847 0.28734633 -0.45799446 -0.11017186 0.19898473 -0.21945643 0.38034022
0.14894903 0.28068697 -0.31055647 0.2423096 0.4330667 -0.102514505 0.41347155 0.26786587
0.28241932 0.018847724 0.36825126 -0.2623312 0.10061218 0.331781 -0.4929431 0.4159641
0.19722019 0.11943633 0.13776356 -0.1895833 0.11212057 -0.29076445 0.069209404 0.18240565

fc.2.weight f4 [64, 64]
00000000: 5ce2 0e3c 1d57 d4bd d0d8 67bd a485 c3bd
00000010: 29ed 1b3d 5288 1b3d 45d4 80bc 3a39 303b
00000020: a375 febd b4a6 4fbd 0843 e9bc 4e81 44bd
00000030: e81b 563d 164a e43d 7640 b03d 98df ec3b
00000040: 5c35 9ebd fe9d 863b f2a8 963d 5d60 bf3d
00000050: 5d37 54bd 9cde d9bd b19e e8bd 4446 66bd
00000060: c904 d23d ab1d 693d 17c4 ec3d 152a 0a3d
00000070: 66b3 a03d b0e5 58bc 041d 053d 6f74 9c3b
00000080: cae4 c0bd c059 f93b 5023 633c c86a 9b3c
00000090: 82e3 93bd ec01 73bd e46a 3abd 6515 363d
000000a0: 9f61 7f3d 1564 163d b693 eebd 7d8f 1dba
000000b0: da7c a0bd 415f ffbd 4ec9 6539 6721 713d
000000c0: dd56 c6bc 49e0 9fbd bc46 01bc 0869 d13d
000000d0: 07c5 59bd e60b e13d 402b 5ebb 9fbe 753d
000000e0: 7146 d03d 77ac 04be 5261 d23d 40e8 70bb
000000f0: 47b0 bebd 1cd4 39bd aa51 b23d 3368 03be
00000100: 499b 9abc 25b0 f5bc 9e80 443e 30ed 88bd
00000110: 251a c5bd 72bc 913d f31e 64bd a043 9b3d
00000120: 105a f93a 3350 0cbd d6ac cebd d289 1a3d
00000130: 30e7 3c3c bb6d 143e ea65 b3bd d394 e63c
00000140: 7750 ba3d 4475 98bd f605 e8bd c398 febd
00000150: 2dc6 0d3d a85b 363c 0821 27bc 6ecf c53d
00000160: db6d be3d 1e70 0bbd 5386 28bc 9e06 d1bd
00000170: 6c9f f0bd 70c9 623d 9690 9e3d 8091 03be
00000180: 8057 6cbb 004f fbbc 7116 343d 58ca 95bc
00000190: d2f0 9ebc a99a d53d a498 e1bd 740e 483d
000001a0: 0c1f a13d f5de 353d d020 35bc fd15 353d
000001b0: d997 a53d b6ab 6a3d dffd 32bd ae5d e93d
000001c0: f2ca 803d 4283 393c 1cb0 873d 4849 44bd
000001d0: 8557 1abd 0b49 f5bd 9c9d 46bd b0ec 0e3b
000001e0: 3f3a b0bd 24e8 71bd 4d46 a33d b0e2 43bd
000001f0: 3b22 d03d 18a4 293d dcdb 043e 441e 523e
00000200: 6bc4 dbbc 52b3 f5bc fe2b d93d 9e9d c73d
00000210: b4d5 94bd 3bb6 7f3d e6b1 523e 28fb 17bd
00000220: 2b4f bfbd 7895 05bb d280 b7bd ce3c d73d
00000230: 9cbe 15bd 7de2 1dbd cc2c af3d e981 b13d
00000240: d956 b53d c2f8 8a3d 73f3 ad3d ee3f 0b3d
00000250: d56b a23c 2a62 9cbc ad1a f23c 98e9 963d
00000260: 8de7 393d 434a c43b d400 65bd d300 a63c
00000270: a037 adbd c829 d3bc e89f 30bd c39c 88bd
00000280: a86c e4bc 501b bb3c 5d3d f7bd b06b b3bd
00000290: d092 5a3c 7d94 db3d 5060 a43d c134 b33d
000002a0: 3308 ab3d 3812 47bd a8f8 fabd 8535 83bd
000002b0: 63b7 a33c 63a8 cabd 22ba 233d 79bd c33d
000002c0: 5134 09bc a393 9fbc ee16 a33d 6036 79bd
000002d0: 0470 3e3d 8fe0 a13d 3618 86bd 55cd f5bc
000002e0: 3cce 183d 22c2 92bd 7080 983d 58e1 b23c
000002f0: 38ff d93d 905c 5cbc 7e21 fe3d 4378 453e
00000300: f57e 8a3d 3ad2 cbbd 00a3 a73d 80b6 e8bd
00000310: 209b a4bd 4de0 563c 9875 493d 70ce 88bd
00000320: 92a8 0c3d 2511 3e3e 40ea d0bc 2766 57bd
00000330: 8091 68bc 33aa 8fbd 8263 d53d 7979 68bd
00000340: cbff 26bc b6c2 a23d 2b15 f23d 6daf 98bd
00000350: 2e9b 36bc 5bd4 9abd b548 743d 0020 df37
00000360: 364a a5bd c517 37bd 2253 1abb c95b f2bd
00000370: 501a a8bd 804a 9abc 243e 4a3d fcfb 68bd
00000380: c09c 75bb 14b4 133d d1b4 0e3e 20d5 2bbd
00000390: 5e05 be3b d4d6 c6bc f82f 713d fefd 8d3c
000003a0: 5872 69bd f840 b63d 5a4d eb3d 5111 673d
000003b0: 9b00 c9bd 5b33 f4bb 5cb7 94bd 57c8 ec3d
000003c0: b4fe 08bd 1b4c 0b3e f102 fe3d e0e1 d4bc
000003d0: 571c 513c af41 60bc aa95 bfbd a453 4bbc
000003e0: 202b 1d3e 9ef8 71bc a150 633b 2419 0ebd
000003f0: 71a5 dcbd c833 323d d967 cabd 1349 49be
0.0087209605 -0.10368178 -0.056603253 -0.09546974 0.03806797 0.037971802 -0.015726218 0.0026889578
-0.12424781 -0.05069609 -0.028474346 -0.047974877 0.052272707 0.11146943 0.08606045 0.007228803
-0.07725021 0.0041081896 0.073564425 0.09344552 -0.05181061 -0.106381625 -0.11358393 -0.056219354
0.10254819 0.05691306 0.11560839 0.03373154 0.078467175 -0.0132383555 0.032498375 0.004774622
-0.09418638 0.007609576 0.0138634 0.018971816 -0.07221128 -0.059328005 -0.045512095 0.044453997
0.062348958 0.03671654 -0.116492674 -0.0006010456 -0.078363135 -0.1246934 0.00021914134 0.058869746
-0.024211342 -0.07806451 -0.0078904 0.10225111 -0.053166416 0.109885976 -0.003390029 0.059996244
0.10169686 -0.12956415 0.102724686 -0.0036759526 -0.09310966 -0.0453683 0.087069824 -0.12832718
-0.018872874 -0.029991219 0.19189689 -0.06685865 -0.09624127 0.07116021 -0.055693578 0.07581258
0.0019024033 -0.03425617 -0.100915596 0.037729092 0.011529729 0.14494984 -0.08759673 0.028147137
0.09097379 -0.07444242 -0.11329262 -0.12431481 0.034612823 0.011130251 -0.010200746 0.09658705
0.09298297 -0.03404247 -0.010285932 -0.1020634 -0.11749157 0.055367887 0.07742421 -0.12848473
-0.0036062896 -0.030677319 0.043966714 -0.018284962 -0.019401941 0.1042989 -0.11015442 0.04884191
0.0786725 0.04440208 -0.011055186 0.044210423 0.08085603 0.057292663 -0.04369914 0.11394821
0.06288709 0.011322798 0.06625387 -0.04792145 -0.03768112 -0.119768225 -0.04849015 0.0021808557
-0.086048596 -0.059059277 0.07972393 -0.047823608 0.10162779 0.041416258 0.12974495 0.20519358
-0.026827058 -0.029992733 0.10604094 0.0974686 -0.07267323 0.062429648 0.20575675 -0.037104756
-0.09341272 -0.002038328 -0.089601174 0.105096444 -0.036558732 -0.038546074 0.08553466 0.086673565
0.088544555 0.06785728 0.084937 0.033996515 0.019826809 -0.019089777 0.029553736 0.07368773
0.04538684 0.005990298 -0.055908993 0.020264065 -0.08457875 -0.025776759 -0.04312125 -0.06670525
-0.027883843 0.022840172 -0.12072251 -0.08760774 0.013340667 0.10721681 0.08026183 0.087502964
0.08351173 -0.04860136 -0.12254459 -0.064066924 0.019984907 -0.098953985 0.039972432 0.095576234
-0.00837429 -0.019479578 0.07963358 -0.06084287 0.046493545 0.07904159 -0.065475866 -0.030005137
0.037306055 -0.07165934 0.074463725 0.021835968 0.10644382 -0.013449803 0.12408732 0.19284157
0.067624964 -0.09952207 0.08185387 -0.11362934 -0.080374 0.013115001 0.04918441 -0.0668
0.03434045 0.18561228 -0.025502324 -0.052587654 -0.014194846 -0.07014885 0.1041937 -0.05675647
-0.010192822 0.079472944 0.11820444 -0.07455335 -0.011145396 -0.07560035 0.05963965 2.6598573e-05
-0.08070795 -0.044700403 -0.0023548086 -0.11833913 -0.08208144 -0.018834352 0.04937567 -0.056880936
-0.0037477463 0.036060408 0.13936163 -0.0419513 0.0057989797 -0.02427236 0.058883637 0.017333027
-0.056993812 0.088991106 0.11489363 0.056413 -0.098145686 -0.007452411 -0.072615355 0.11561649
-0.03344603 0.1360325 0.12402905 -0.025986612 0.012763104 -0.013687535 -0.09354718 -0.012410078
0.15348482 -0.014768748 0.003468551 -0.034691945 -0.10773743 0.043506414 -0.098830886 -0.19656782

fc.2.bias f4 [64]
00000000: bebd eabd 6a70 b9bd f817 fb3d 7634 463b
00000010: 81a0 aabd 7a9c 04bd 7ab4 923d 0565 e53d
00000020: 8e12 73bd 9718 9cbd c4e6 c03d cfef 0f3e
00000030: 8c43 3b3d 8832 92bd b355 7b3d 0435 783b
00000040: c02d 2bbd 6450 453d 8937 69bd 02fd f03d
00000050: 9c1f 7c3d 8cc4 a53d 4d98 a53d 2846 f5bc
00000060: e0df c8bb 6e81 253c 3a74 9b3d 4bfb bf3d
00000070: c6aa f53c eec9 9f3d 9921 463d 4b8d 10bd
00000080: 5851 c83c c077 1abd d160 223e 40d0 2f3d
00000090: a1ef 8bbd 096b be3d eee9 61bd 1f10 76bd
000000a0: b313 8bbd f6a7 823d 5a7b 36bd accc 3cbd
000000b0: c64a fabd be6a e83d a221 ebbc 5d7a b93d
000000c0: 1fe1 afbc 61e1 923d 2d95 a2bc 3894 e93d
000000d0: 0202 d03d 7e10 7bbd f493 893d 74ee 0dbe
000000e0: 4e7b 3bbb 18b3 dfbd ed7e 633d 9007 023d
000000f0: 65ee ac3d 5cf0 863d 4fc1 2fbc 6a4f e3bd
-0.11461972 -0.090546444 0.12260431 0.0030243671 -0.08331395 -0.03237579 0.071633294 0.112009086
-0.059343867 -0.07621878 0.09419015 0.14056323 0.045718715 -0.07138544 0.061361026 0.0037873397
-0.041791677 0.04817237 -0.056937728 0.117670074 0.061553583 0.08094129 0.0808569 -0.02994068
-0.0061302036 0.010101659 0.07590528 0.09374102 0.029988658 0.07802187 0.048371885 -0.035290997
0.02445285 -0.03771186 0.15857245 0.042923212 -0.06832815 0.09297759 -0.055154733 -0.060073968
-0.06790867 0.06379692 -0.04455123 -0.046093628 -0.12221293 0.113484845 -0.02870256 0.09056542
-0.02146965 0.07171894 -0.019846523 0.114052236 0.10156633 -0.061295025 0.06717673 -0.13860494
-0.002860743 -0.10922831 0.055540968 0.031745493 0.08443908 0.06588814 -0.010727241 -0.110991314

fc.4.weight f4 [2, 64]
00000000: 8357 e2bd 2a06 8ebc b918 17be ed6d b43d
00000010: 8417 2abd b1d3 c4bd 9121 623d e62b 893d
00000020: f3d0 b33d 8f6d c73d 9126 0d3b dfd6 1abe
00000030: 3f2b 033e 186e 7fbd a1c4 343d f275 093e
00000040: 36a4 a7bd 9f56 75bd a13e 943c 0d05 bd3d
00000050: e9ea 9bbd 5809 0bbd da50 f7bc b27b e5bd
00000060: b2c7 8cbd dae6 2a3d 82c9 e93a ce85 e43c
00000070: a3c4 8bbd 7f31 6dbd 5e9a c8bd 2774 ec3d
00000080: 2190 52bc 2ae1 8e3d 42b8 353c 401f d63c
00000090: 7d19 f53d b9c8 083e f684 313d ea61 a23c
000000a0: cbcf 063d 3b14 8b3b 0262 b7bb d7be 003e
000000b0: 709b d63c acf6 d2bd d383 693c 55b8 3f3c
000000c0: 3242 7a3d e5c2 883c 1b43 993c ae79 e03d
000000d0: fb62 34bd cb47 ecbb 9b81 a63d 33fe da3c
000000e0: e97a 933d 6822 4abd b065 83bc 30ec b73d
000000f0: 8758 cd3b e89f 57bd aea7 0f3d 4027 f4bb
00000100: 59da 2a3d caaa e73b 9f2f 4cbd f48c 923d
00000110: 3882 e43d 2491 6dbd 9f39 833d 04da 72bd
00000120: 376d 7a3d b040 3f3d 0699 babc 0ef4 8ebd
00000130: a941 543d 58c7 073d 2016 49bd d394 833d
00000140: 3aae 22bd 7fa7 e53d 9761 cd3d 10d1 fc3d
00000150: 9822 38bd fcd1 a33d 004c 073d 604c 4cbd
00000160: 200d f9bc 6481 9c3c f35a b23d 3083 21bd
00000170: ba9e f33d c557 b63d 9cdd f63c 6a7a c63d
00000180: 8aab 793b 9443 2bbd ec1c e3bd 5329 3bbc
00000190: 22b3 9dbd 7aa2 b3bd 62cf 6d3c 7550 1c3d
000001a0: a871 47bd 5ace 85bd e752 a73d 88ad adbb
000001b0: 6c18 fa3d e413 00bd ac18 62bb 98ce 18bd
000001c0: efa5 e33c 0f79 b4bc 9373 443d a6b9 a0bd
000001d0: c13b 583c bc09 c83c 7da0 613d 2217 22bd
000001e0: 48c1 b2bd 4024 f93b 5502 f7bc de7c 1b3e
000001f0: 41e8 833d 6d1f a8bc 36a1 0b3d dc89 823d
-0.11051848 -0.017336924 -0.14755525 0.08810029 -0.041526332 -0.096106894 0.055207793 0.06697826
0.08780088 0.097376935 0.002153788 -0.1512103 0.12809466 -0.062360853 0.044132832 0.13423899
-0.081856176 -0.05989706 0.01809627 0.09229479 -0.07613165 -0.033944458 -0.03018992 -0.11205234
-0.06874026 0.041724063 0.0017836543 0.027895834 -0.06824615 -0.05790853 -0.09795068 0.11545592
-0.012851746 0.069765404 0.011091294 0.026137948 0.11967752 0.1335782 0.043339692 0.01982208
0.03291301 0.004244355 -0.0055964002 0.125728 0.026197165 -0.10300955 0.014252621 0.011701663
0.061098285 0.016694495 0.018708756 0.109607086 -0.044039708 -0.007210707 0.08130189 0.02673254
0.072011776 -0.04934922 -0.0160397 0.08980596 0.006266657 -0.052642733 0.03507202 -0.007450968
0.04171214 0.00706992 -0.049850103 0.07155791 0.1115765 -0.057999745 0.06407475 -0.059289947
0.06113931 0.04669255 -0.022778045 -0.069801435 0.05182043 0.033149093 -0.049093366 0.0642487
-0.039716937 0.11213588 0.100283794 0.12344563 -0.044954866 0.07999036 0.033031464 -0.049877524
-0.030401766 0.019104667 0.087087534 -0.03943175 0.11895509 0.089034595 0.030134968 0.096913174
0.003809663 -0.041812494 -0.11089501 -0.011423427 -0.077001825 -0.08771224 0.014514776 0.038162667
-0.048692375 -0.06533499 0.08170109 -0.0053002276 0.12211689 -0.03126897 -0.003449957 -0.0373064
0.027789084 -0.022030381 0.047961783 -0.0784791 0.01319784 0.024418704 0.055084694 -0.039572842
-0.08728272 0.0076031983 -0.03015248 0.15184352 0.06440783 -0.020522797 0.03408929 0.06373951

fc.4.bias f4 [2]
00000000: f3d5 a6bb cacd fa3d
-0.0050914227 0.122462824
