best_model.pth (torch, 272162 bytes, 18 tensors)

lstm.weight_ih_l0 f4 [192, 2]
0	0xbe0366f4	-0.12832242
1	0x3e6cc21b	0.2312092
2	0x3cee7ab3	0.029111242
3	0x3e733337	0.23750006
4	0xbc6ad385	-0.014332657
5	0x3dd454d9	0.10367746
6	0x3cc80873	0.024418091
7	0x3e7cf778	0.24703777
8	0xbc705c7b	-0.014670487
9	0xbc68730e	-0.014187587
10	0x3d94934d	0.07254658
11	0x3cdf6b14	0.027272739
12	0xbe2549fe	-0.16141507
13	0x3db2449d	0.08704493
14	0xbda4bea4	-0.08044174
15	0xbd880f5c	-0.066435546
16	0xbd43e9c6	-0.047830366
17	0xbd3a3049	-0.045456205
18	0xbe65fb51	-0.22459151
19	0xbd670b51	-0.056407277
20	0xbd31df8f	-0.043426093
21	0x3dc5495b	0.09633132
22	0xbd30c6e2	-0.04315842
23	0xbd98257c	-0.074290246
24	0x3de0be8a	0.109738424
25	0x3e7109d7	0.2353891
26	0xbd819d17	-0.06328791
27	0xbc57f75f	-0.013181536
28	0xbc92e5ab	-0.01793178
29	0x3cc470cd	0.023979569
30	0x3cf768ab	0.030201277
31	0x3e0d7702	0.13814929
32	0x3dcac0d4	0.0990006
33	0x3d932ea7	0.071866326
34	0x3e1adcd2	0.15123299
35	0x3cc90469	0.024538236
36	0xbdf88785	-0.12135223
37	0x3dbf2aaf	0.09334313
38	0xbe0c5bec	-0.1370694
39	0x3c86c7bf	0.016452668
40	0x3d9732a5	0.073827066
41	0x3e86c62b	0.26323065
42	0x3cbf7e21	0.023375573
43	0xbd438fde	-0.047744624
44	0x3e6ce879	0.23135556
45	0x3e147ace	0.14499971
46	0xbb22e54a	-0.0024855905
47	0x3e587308	0.21137631
48	0x3d4f97ac	0.050681755
49	0x3c8a2d91	0.01686743
50	0xbc9e6a5d	-0.019337827
51	0xbd9432ec	-0.07236275
52	0xbd6ae999	-0.057351682
53	0x3eb8d2fe	0.36098474
54	0xbd44ace6	-0.04801645
55	0x3f3278eb	0.69715756
56	0x3dec30fd	0.11532781
57	0x3e0d3ddc	0.13793129
58	0x3c341c51	0.010993079
59	0x3e9d5a0a	0.30732757
60	0x3dd6782c	0.1047214
61	0x3e45137f	0.19245718
62	0x3e10b4dc	0.14131492
63	0xbc5f321b	-0.013622786
64	0x3e21997d	0.15781207
65	0x3e2c71cb	0.16840284
66	0xbe0d538a	-0.13801399
67	0xb8d223b0	-0.00010020228
68	0x3e91825f	0.28419778
69	0x3d0d85b2	0.03455133
70	0x3e3fe186	0.18738374
71	0x3ddbed9a	0.10738678
72	0xbe270de4	-0.16313893
73	0x3e4a2c9c	0.1974358
74	0x392ed052	0.00016671538
75	0x3e2363a7	0.15955983
76	0x3e3b7b88	0.18308842
77	0x3e4bfc68	0.19920504
78	0x3e236a70	0.15958571
79	0x3e41a6f6	0.18911347
80	0x3e8d416a	0.2758897
81	0x3e1ed497	0.15510784
82	0xbc5629bb	-0.013071473
83	0x3e52d4fe	0.20589063
84	0xbdf78075	-0.12085048
85	0x3eac0209	0.33595303
86	0x3d55df1b	0.052214723
87	0x3e211eaf	0.15734361
88	0xbcf94925	-0.030430386
89	0x3af93e1f	0.0019015706
90	0x3e092a4d	0.13395043
91	0x3ea8b560	0.32950878
92	0x3d905299	0.07047004
93	0x3e7079f1	0.23484017
94	0x3c9358d6	0.017986696
95	0xbdad2b98	-0.084555805
96	0x3d717baa	0.058955826
97	0x3e3b77e5	0.18307455
98	0x3d3ee486	0.046604656
99	0x3d9472b8	0.07248443
100	0x3e0f86f0	0.14016318
101	0x3e1d7d28	0.15379775
102	0xbd97e933	-0.07417526
103	0x3cd725cb	0.026263138
104	0xbcb7f064	-0.022453494
105	0xbd88f4e2	-0.06687333
106	0x3e0783a7	0.13233815
107	0x3d73cfe7	0.059524443
108	0x3daaa5b5	0.08332387
109	0xbe0037c3	-0.12521271
110	0xbd9d2cc2	-0.076745525
111	0xbe1e6c94	-0.15471107
112	0x3cfb8c93	0.03070668
113	0xbd84bdfd	-0.0648155
114	0xbe446499	-0.19179
115	0xbde6d614	-0.11271301
116	0x3df86297	0.121281795
117	0x3dd29b3a	0.10283513
118	0xbde66896	-0.11250417
119	0x3dcd3a2d	0.10020862
120	0xbdf8e545	-0.12153105
121	0x3e05b88f	0.13058685
122	0xbd3c8d54	-0.04603322
123	0x3e1fa61e	0.15590712
124	0xbcf3c596	-0.029757302
125	0xbb8ddb80	-0.004329145
126	0xbe2f0c07	-0.17094432
127	0x3e0f1234	0.13971788
128	0xbda5f2a1	-0.081029184
129	0xbdaf2e3f	-0.085537426
130	0x3e0f7b8c	0.14011973
131	0x3e5c3375	0.21504004
132	0x3da3e88d	0.0800334
133	0xbdef4b1b	-0.11684247
134	0xbe15f014	-0.14642364
135	0xbd444ea4	-0.04792656
136	0x3dcd5b7b	0.10027214
137	0xbd2b38b2	-0.041802116
138	0xbe21421c	-0.15747875
139	0x3cb92c94	0.022604264
140	0x3e9e3c57	0.3090541
141	0xbc3b4016	-0.0114288535
142	0xbdf24e1e	-0.11831306
143	0x3dfb1956	0.12260692
144	0x3cdaf89f	0.02672988
145	0xbd6ad28a	-0.057329692
146	0xbd9a1823	-0.07524135
147	0x3c54e649	0.012994357
148	0x3cab068e	0.020877149
149	0x3e565acf	0.20933078
150	0xbe36ebaf	-0.17863344
151	0x3e38c992	0.18045643
152	0x3cace56e	0.021105494
153	0x3d8cbfe1	0.068725355
154	0x3e2adce1	0.16685821
155	0x3de08257	0.1096236
156	0x3d3afd77	0.04565188
157	0x3e474f2b	0.19463794
158	0x3e6f88e4	0.23392063
159	0x3e580ad5	0.21097882
160	0x3dd64e4b	0.10464152
161	0x3e2a9179	0.16657056
162	0x3d765ead	0.060148884
163	0x3e56276c	0.20913476
164	0x3e808a3c	0.25105464
165	0x3db1e880	0.08686924
166	0x3e01266e	0.12612316
167	0x3d3498b8	0.044090956
168	0x3cf35dcb	0.02970781
169	0x3df433af	0.1192392
170	0x3dbf9d70	0.09356201
171	0x3da5ba74	0.08092204
172	0x3dfaf209	0.12253196
173	0x3d6a6fc1	0.057235483
174	0xbe060d59	-0.13091029
175	0xbab58abc	-0.001385055
176	0x3e2572b1	0.16157033
177	0x3dd61071	0.10452355
178	0x3b959019	0.004564297
179	0x3e4a9fce	0.19787523
180	0xbde609e4	-0.11232355
181	0x3d0a3a73	0.033747148
182	0xbd83a8d0	-0.06428683
183	0xbddb2514	-0.107004315
184	0x3badd427	0.0053048315
185	0x3ddf315f	0.10898089
186	0x3dcd3c3d	0.10021255
187	0x3e0d8102	0.13818744
188	0x3d96d663	0.0736511
189	0x3e68f1a3	0.22748427
190	0xbcd5d63d	-0.026103133
191	0x3d6b06db	0.057379585
192	0xbe522554	-0.20522052
193	0x3e8808c9	0.26569203
194	0x3d307443	0.043079626
195	0xbe77d255	-0.24201329
196	0xbb991c01	-0.004672528
197	0xbe2af445	-0.16694744
198	0x3d29246d	0.041294504
199	0xbe80631f	-0.25075623
200	0xbdbf9067	-0.093537144
201	0xbddfa5eb	-0.10920318
202	0x3e09d28f	0.13459228
203	0xbd223aac	-0.039606735
204	0xbd435ee5	-0.04769792
205	0xbdc99413	-0.09842696
206	0x3dadb8ac	0.08482489
207	0x3e68a3b4	0.22718698
208	0xbe133a4c	-0.14377707
209	0x3cba295a	0.022724796
210	0x3e0c0a84	0.13675886
211	0x3e41a669	0.18911137
212	0xbb912b31	-0.0044301976
213	0x3cca16ae	0.024669018
214	0xbd882ec4	-0.06649545
215	0xbd729452	-0.05922348
216	0xbe19ea4e	-0.15030786
217	0x3e074f54	0.13213855
218	0xbdd805a3	-0.1054795
219	0xbd3fe747	-0.046851423
220	0xbc416c25	-0.011805569
221	0x3e585844	0.2112742
222	0x3e697763	0.22799449
223	0xbe266ab9	-0.16251649
224	0x3a1ec4e2	0.00060565595
225	0xbe52267e	-0.20522496
226	0x3c084064	0.008316133
227	0x3e066c94	0.13127357
228	0xbd8709da	-0.06593676
229	0xbdded94d	-0.108812906
230	0x3d14004c	0.036133096
231	0xbe817131	-0.2528167
232	0xbdff691e	-0.124712214
233	0x3e409184	0.1880551
234	0x3dcba683	0.09943869
235	0xbd9fe04d	-0.07806454
236	0xbc796c7d	-0.0152236195
237	0xbe6c4531	-0.2307327
238	0x3e05e173	0.13074283
239	0xbe8f5daa	-0.28001148
240	0x3d978ce3	0.07399919
241	0x3de20870	0.110367656
242	0xbca6e550	-0.020373017
243	0xbd5c8990	-0.053842127
244	0x3ded8a8d	0.11598692
245	0xbe8c04c3	-0.27347383
246	0xbd8e09e9	-0.06935484
247	0x3e72f7c4	0.23727328
248	0x3dc571a6	0.09640817
249	0xbe83f4bf	-0.25772664
250	0xbbbcedcb	-0.005765652
251	0xbe7cb578	-0.246786
252	0x3d51ebc3	0.05125023
253	0x3e545e53	0.20739107
254	0xbe411d33	-0.18858795
255	0xbd289f83	-0.041167747

lstm.weight_hh_l0 f4 [192, 48]
0	0x3e7c7813	0.2465518
1	0x3ce6fd3f	0.028196929
2	0x3b6ece78	0.0036438983
3	0xbd1ada92	-0.0378061
4	0x3e5bf925	0.2148176
5	0x3d9e27f8	0.07722467
6	0xbeaabcb5	-0.33347097
7	0xbe2093ce	-0.15681383
8	0x3dad0257	0.08447712
9	0xbe00d973	-0.1258295
10	0x3dfa862b	0.12232622
11	0xbe1df041	-0.15423681
12	0x3e3ae17d	0.1825008
13	0xbe4e712f	-0.20160364
14	0xbdea1709	-0.11430175
15	0xbd801041	-0.062531
16	0xbe663bd4	-0.2248376
17	0x3dd3a5ad	0.103343345
18	0x3db6e916	0.08931176
19	0xbceb49ef	-0.028721778
20	0x3e81fffe	0.2539062
21	0x3d6eb801	0.05828095
22	0x3dfacaab	0.12245687
23	0xbd782f9d	-0.060592283
24	0xbc976b9a	-0.018483926
25	0xbe87838c	-0.2646755
26	0xbe7ad9f4	-0.24497205
27	0x3eb3caa7	0.3511555
28	0xbe434eee	-0.19073078
29	0xbe51810e	-0.20459387
30	0xbbb4924e	-0.005510605
31	0xbe6cfa46	-0.23142347
32	0x3d6b686e	0.05747264
33	0x3e60a022	0.21936086
34	0x3e391fc7	0.18078528
35	0x3d83dfd1	0.06439174
36	0xbe648f30	-0.22320247
37	0x3dc6ea5e	0.09712671
38	0x3c2f78fa	0.010709995
39	0xbe11034b	-0.14161412
40	0x3e4e4107	0.20141993
41	0x3e4c74d9	0.19966449
42	0x3d9aadfd	0.07552717
43	0xbe731355	-0.23737843
44	0xbe1b4ed8	-0.15166795
45	0x3e629328	0.22126448
46	0xbd671b26	-0.056422375
47	0x3ddb04de	0.10694288
48	0x3e389b9f	0.18028115
49	0x3ccbc801	0.024875643
50	0x3c7e4c05	0.015521054
51	0xbb891c83	-0.004184307
52	0x3e9477f0	0.28997755
53	0x3e2800e9	0.16406597
54	0xbdffcfc1	-0.12490798
55	0xbeb3d85a	-0.35126
56	0x3e2fcfc6	0.17169103
57	0x3a4426c0	0.0007482581
58	0x3e35b2ee	0.17744038
59	0xbddb2a76	-0.10701458
60	0x3e5bd4de	0.21467921
61	0xbe7d0db1	-0.24712254
62	0xbd4fae21	-0.05070317
63	0x3cf30a6d	0.029668057
64	0x3d9b3231	0.075779326
65	0x3e9e7930	0.30951834
66	0x3e8127b5	0.25225607
67	0xbe57d7f6	-0.21078476
68	0x3ea5682f	0.32306048
69	0x3e2423df	0.16029309
70	0x3e41c8ff	0.1892433
71	0x3d314154	0.043275192
72	0x3cfd4781	0.030917885
73	0xbec37527	-0.38175318
74	0xbcfd4806	-0.030918133
75	0x3e1b361e	0.15157363
76	0xbe682667	-0.226709
77	0xbea1e283	-0.31618127
78	0x3e1be44d	0.15223809
79	0xbeafdafa	-0.34346753
80	0xbc8471d6	-0.016167562
81	0x3eba3ed5	0.36376062
82	0x3daf3734	0.08555451
83	0xbcc2c926	-0.023777556
84	0xbca4b879	-0.020107495
85	0xbc91e195	-0.017807761
86	0x3e6e51ff	0.23273467
87	0xbda41bd6	-0.08013122
88	0x3e3f73cb	0.18696515
89	0x3e0965be	0.13417718
90	0x3d4750dc	0.048661098
91	0xbe05f46d	-0.13081522
92	0xbde86d50	-0.11348975
93	0x3e193ada	0.14963856
94	0x3b4e76e6	0.0031503974
95	0xbe675a0e	-0.22592947
96	0x3ccc8bd3	0.024969017
97	0xbe2abf38	-0.16674507
98	0x3d9c5a0e	0.07634364
99	0x3d2d2db1	0.042279903
100	0x3dd19425	0.102333345
101	0x3dce2b91	0.100669034
102	0x3d5a045d	0.053226817
103	0xbdc9a0b9	-0.098451085
104	0xbd840bda	-0.06447573
105	0xbc3d350c	-0.011548292
106	0x3de66a1b	0.11250707
107	0xbe11acaa	-0.14226022
108	0x3d77db83	0.060512077
109	0x3d0272b8	0.031847686
110	0x3dc288a5	0.09498719
111	0x3d8c71ab	0.06857618
112	0xbe1b4433	-0.15162735
113	0x3da56f00	0.08077812
114	0x3e071025	0.13189752
115	0x3ca12026	0.01966865
116	0x3c2e9b72	0.010657178
117	0x3b74161a	0.003724462
118	0x3d831673	0.06400766
119	0xbe3055dc	-0.17220253
120	0xbd19af60	-0.037520766
121	0xbdb23dfd	-0.087032296
122	0x3d4c50b1	0.04988164
123	0x3e745e88	0.23864186
124	0xbe4066d4	-0.18789226
125	0xbe4ab873	-0.19796924
126	0x3dbb5a29	0.09148056
127	0xbe32e947	-0.174718
128	0x3d4ff24f	0.050768193
129	0x3dc2a4d4	0.09504095
130	0x3c3be2d7	0.011467657
131	0xbd52949b	-0.051411252
132	0x3c264e28	0.01015047
133	0x3d340a2a	0.043955006
134	0x3e2ea219	0.17054023
135	0xbd2ec042	-0.04266382
136	0x3e10ed36	0.14152989
137	0x3e2f6c76	0.17131218
138	0x3e28495c	0.16434234
139	0xbde5d43f	-0.11222123
140	0x3c7f8b67	0.015597201
141	0x3e07ddef	0.13268255
142	0xbe2b3188	-0.16718113
143	0xbd94fb74	-0.072745234
144	0x3ebaf1b3	0.36512527
145	0x3d163a92	0.03667695
146	0xbdffde4e	-0.12493573
147	0x3d8f1332	0.06986083
148	0x3e0ff40c	0.1405794
149	0x3ddeefee	0.10885607
150	0xbe0b82b3	-0.13624077
151	0xbdb81a0c	-0.08989343
152	0x3e97e850	0.29669428
153	0xbea89104	-0.32923138
154	0x3e7c2fb9	0.2462758
155	0x3c2eb123	0.01066235
156	0xbcdaa8d7	-0.026691837
157	0xbe336d00	-0.17522049
158	0x3d36ea9e	0.044657342
159	0x3dedfd3e	0.11620568
160	0xbe2a9ea5	-0.1666208
161	0x3dd51bd3	0.10405698
162	0xbcd936f3	-0.02651546
163	0xbe0daf04	-0.13836294
164	0x3e10ec55	0.14152654
165	0x3e419d88	0.1890775
166	0x3c81a909	0.015827673
167	0xbe15382c	-0.14572209
168	0xb9990056	-0.00029182684
169	0xbe25b850	-0.16183591
170	0xbcba25cf	-0.022723107
171	0x3e12e010	0.14343286
172	0x3c5c1637	0.013433031
173	0xbe09fba7	-0.13474904
174	0xbcd0f452	-0.025507126
175	0xbda6acb9	-0.08138413
176	0x3d3ddb1d	0.04635154
177	0x3c8c0ec8	0.017096892
178	0x3de1474f	0.10999929
179	0x3e2a5a41	0.16635992
180	0xbdb77757	-0.08958309
181	0x3e3bda9c	0.18345112
182	0x3e0af65d	0.13570543
183	0xbe12835a	-0.14307919
184	0x3ca40e15	0.020026246
185	0xbbc48b63	-0.0059980615
186	0x3d5ce0c8	0.053925306
187	0xbd1140c1	-0.035462145
188	0xbd9f6854	-0.07783571
189	0x3d86f6c4	0.065900356
190	0xbde44cfe	-0.111474976
191	0xbbbabf6f	-0.00569909
192	0x3e147bfe	0.14500424
193	0x3e37357c	0.17891496
194	0xbcf03389	-0.029321449
195	0xbcfeb9b6	-0.031094413
196	0x3d9b20ec	0.07574639
197	0x3c4ef206	0.012630945
198	0x3d36644e	0.04452925
199	0xbdedeff5	-0.11618034
200	0xbda1f956	-0.07908885
201	0x3c0bfce6	0.008544182
202	0x3b9c9cd3	0.004779437
203	0x3d003e4e	0.03130942
204	0x3e00718d	0.12543316
205	0xbc594339	-0.013260656
206	0x3dccab81	0.09993649
207	0xbe00458d	-0.12526532
208	0xbdd5e29c	-0.10443613
209	0x3dadfcc2	0.08495475
210	0x3df12b49	0.11775834
211	0x3d9e5732	0.07731475
212	0xbca92d6a	-0.020651538
213	0x3bff7d9e	0.007796957
214	0x3d986412	0.07440962
215	0xbd19072f	-0.037360366
216	0x3d64481b	0.055732828
217	0xbdd5d54f	-0.10441076
218	0xbdc2b84f	-0.0950781
219	0x3e336a21	0.17520954
220	0xbd853373	-0.06503954
221	0x3c902be5	0.017599056
222	0x3caa9fb9	0.020828115
223	0xbe27b465	-0.16377409
224	0xbc039006	-0.008029943
225	0x3e04a19c	0.12952274
226	0xbcbe56ed	-0.023234809
227	0x3e05b24d	0.13056298
228	0x3d1ebb30	0.038752735
229	0x3dd5009f	0.10400509
230	0xbe0abd55	-0.13548787
231	0xbe205bb8	-0.15659988
232	0x3db6e20c	0.08929834
233	0x3e18b7ed	0.14913912
234	0x3e08fee7	0.13378488
235	0xbdcd2c8d	-0.10018263
236	0xbe0cae72	-0.1373842
237	0x3dbe97dd	0.09306309
238	0x3e09bdea	0.13451353
239	0xbdcee022	-0.10101344
240	0xbcc9f75f	-0.024654089
241	0xbe4108e0	-0.18851042
242	0xbe0424cd	-0.12904663
243	0xbda46b5a	-0.08028288
244	0xbcab63a8	-0.020921543
245	0xbc5f15fc	-0.013616081
246	0x3b41dc90	0.0029580928
247	0xbcea4cab	-0.028601011
248	0xbe0efb0f	-0.13962959
249	0xbd111d45	-0.035428304
250	0x3d7fad06	0.062420867
251	0x3d502305	0.050814647
252	0x3e06bb4c	0.13157386
253	0x3c21a11c	0.009865072
254	0xbd648abd	-0.055796374
255	0x3b6fd91a	0.0036597908

lstm.bias_ih_l0 f4 [192]
0	0x3ed25f13	0.4108816
1	0x3e39141c	0.18074077
2	0x3e037702	0.12838367
3	0x3e7c81ab	0.2465884
4	0xbd8b38bc	-0.067979306
5	0x3dbc490b	0.09193619
6	0xbc6ebae3	-0.014570924
7	0xbdbf178d	-0.09330664
8	0xbe2aa31a	-0.16663781
9	0x3e63f8b6	0.22262844
10	0x3c8da550	0.017290741
11	0x3d256568	0.04037991
12	0x3c55720a	0.013027677
13	0x3d8210ee	0.06350885
14	0x3e7faf3f	0.24969195
15	0x3e259bf3	0.16172771
16	0x3e040637	0.12892996
17	0x3d72dc8d	0.059292365
18	0xbdcb54f0	-0.0992831
19	0x3cc8bb6e	0.024503436
20	0x3e874309	0.2641833
21	0xbdec1410	-0.11527264
22	0xbbb9caf4	-0.005669946
23	0x3eba7df7	0.3642423
24	0xbdbf5631	-0.093426116
25	0x3e18a2a6	0.14905795
26	0x3e6eccaa	0.2332026
27	0x3f1d778b	0.61510533
28	0x3e09047d	0.13380618
29	0x3e82e10e	0.25562328
30	0xbd0bceb1	-0.034132663
31	0x3e46af89	0.19402899
32	0xbd21c6cd	-0.03949623
33	0x3b39020b	0.0028229977
34	0x3dbda4e6	0.092599675
35	0x3e56d7a1	0.20980693
36	0x3cce063d	0.025149459
37	0x3d40eed7	0.047102775
38	0x3da63c37	0.08116954
39	0x3e48c6c2	0.1960707
40	0x3d051d23	0.03249849
41	0x3d8b47e9	0.06800825
42	0x3e7699b1	0.24082066
43	0x3d5fe5fc	0.05466269
44	0x3d1283ea	0.035770334
45	0x3f0d8b97	0.5529112
46	0x3e156471	0.14589097
47	0x3de87fd8	0.11352509
48	0x3dc17191	0.09445489
49	0x3d0df83b	0.03466056
50	0xbcb38533	-0.0219141
51	0xbcf096c4	-0.029368766
52	0x3d9e89cf	0.07741129
53	0x3cf95d0b	0.030439874
54	0x3d25a0a6	0.04043641
55	0x3dcb3b67	0.099234395
56	0xbe0ade41	-0.13561346
57	0xbcd59d74	-0.026076056
58	0x3c3c0809	0.011476525
59	0x3e09ec0a	0.13468948
60	0x3cfb7ac1	0.030698182
61	0xbd88b674	-0.06675425
62	0x3d4a4b25	0.04938807
63	0x3e22e417	0.15907322
64	0x3a90e922	0.0011055807
65	0x3c6a20b7	0.014290026
66	0x3dd742ec	0.10510811
67	0x3d84f45d	0.06491921
68	0xbe4d2bdc	-0.20036262
69	0xbdefbe2a	-0.11706193
70	0x3e020f8f	0.12701248
71	0x3c8ec4de	0.017427858
72	0xbd30178c	-0.042991206
73	0x3e289651	0.16463591
74	0xbda4b8bb	-0.08043047
75	0xbb461f7c	-0.0030231168
76	0x3d91b7c4	0.07115129
77	0x3dce603e	0.100769505
78	0x3d6f8b57	0.058482494
79	0x3d97d7b5	0.0741419
80	0x3e1155f8	0.1419295
81	0x3e4452ea	0.19172254
82	0x3cf9d1ab	0.030495485
83	0xbd941bbb	-0.07231852
84	0x3e2b9bf4	0.1675871
85	0x3dc2364a	0.09483011
86	0xbcd8bfa7	-0.026458574
87	0x3dac79ac	0.084216446
88	0x3db6f921	0.08934236
89	0xbe116f53	-0.14202623
90	0xbd0fb1c3	-0.035081636
91	0x3d296389	0.04135469
92	0xbcd8fd95	-0.026488105
93	0xba273f64	-0.00063799904
94	0x3db6ad9c	0.08919832
95	0xbbaa30c3	-0.005193801
96	0xbd951be5	-0.07280711
97	0x3d510ace	0.051035695
98	0x3d889fb0	0.06671083
99	0x3bb086e8	0.005387176
100	0x3e19a288	0.15003407
101	0x3db1fa98	0.08690375
102	0xbd4f5918	-0.050622076
103	0xbe0e3e36	-0.13890919
104	0x3d9447cf	0.07240259
105	0xbd9add23	-0.0756171
106	0x3d4ff91c	0.05077468
107	0x3c1eb9b2	0.009687828
108	0xbd6055c6	-0.0547693
109	0x3d84d8a3	0.06486633
110	0x3d88e04f	0.066834085
111	0xbd4c03aa	-0.04980818
112	0xbc1fe8e1	-0.0097601125
113	0x3ce41208	0.02784063
114	0x3d114200	0.035463333
115	0xbd8c2071	-0.06842125
116	0x3b26dde8	0.0025461856
117	0x3dbb52a0	0.09146619
118	0xbcfdc4b8	-0.030977592
119	0xbc515ba3	-0.012778196
120	0x3c35fabc	0.011107143
121	0x3ddf9985	0.109179534
122	0xbcaf5219	-0.021401452
123	0x3be065ce	0.0068480736
124	0x3afcec8e	0.0019296573
125	0xbd8e62b2	-0.069524184
126	0x3c17baf4	0.009260882
127	0x3e06810a	0.13135162
128	0xbd4ea28f	-0.050447997
129	0xbd833803	-0.06407168
130	0xbdcf99ab	-0.10136732
131	0x3da36d78	0.07979864
132	0xbdd4e80e	-0.103958234
133	0x3bb220df	0.0054360474
134	0x3c9c9777	0.019115193
135	0x3d457034	0.04820271
136	0xbd675d76	-0.056485616
137	0xbda1685f	-0.07881235
138	0x3d5f14f5	0.054463346
139	0xbda5c172	-0.080935374
140	0xbd62bf01	-0.055357937
141	0x3d4bcfa1	0.049758557
142	0x3d8ff823	0.0702975
143	0x3b3a0749	0.002838569
144	0x3e9098c2	0.28241545
145	0x3e958a50	0.29207087
146	0xbd63a3dc	-0.05557619
147	0x3ea1c363	0.3159438
148	0x3dfa429f	0.12219738
149	0xbda405ae	-0.08008896
150	0x3dd69aaf	0.10478722
151	0xbdaa6299	-0.08319587
152	0xbe14520f	-0.14484428
153	0x3e9b2622	0.3030253
154	0xbd8e86fb	-0.06959339
155	0xbdf2d0e1	-0.11856247
156	0x3de04181	0.10949994
157	0xbdeb2869	-0.11482317
158	0x3dd9c93a	0.10634084
159	0x3dc1e340	0.094671726
160	0xbd2b6bf3	-0.041850995
161	0x3db50a36	0.08839838
162	0x3d1724d2	0.03690035
163	0x3d60a2c9	0.054842744
164	0x3de233fa	0.1104507
165	0xbd11688f	-0.035500105
166	0x3e2e2148	0.17004883
167	0x3e87b196	0.26502675
168	0x3e110d95	0.14165337
169	0x3c9b1ef8	0.018935665
170	0x3e101e36	0.14074025
171	0x3ed45450	0.41470575
172	0x3e17a966	0.14810714
173	0x3dfbabab	0.122886024
174	0x3e357a4c	0.17722434
175	0xbd549186	-0.051896594
176	0x3e0994d5	0.13435681
177	0x3d9c7213	0.076389454
178	0xbdac23a3	-0.08405235
179	0x3e63c2bf	0.22242258
180	0x3e203ddf	0.15648602
181	0xbd3d7a6c	-0.04625933
182	0x3c51b9be	0.012800632
183	0x3e706d0b	0.23479097
184	0x3cf2ead3	0.029652989
185	0xbc07e2e0	-0.008293837
186	0x3e5a5aa6	0.21323642
187	0x3c81fe8c	0.015868448
188	0xbd5acdda	-0.05341897
189	0x3ecad228	0.39613461
190	0x3e0939f2	0.1340101
191	0x3e6d913b	0.23199932

lstm.bias_hh_l0 f4 [192]
0	0x3eef33ba	0.46719152
1	0x3cccfbb1	0.02502236
2	0x3d9923ed	0.074775554
3	0x3e164f65	0.14678724
4	0xbdac40ac	-0.08410773
5	0xbc23c47b	-0.009995575
6	0x3df94632	0.12171592
7	0x3d5e5d17	0.054287996
8	0xbdd5e7af	-0.10444581
9	0x3cee741f	0.029108105
10	0x3dfa5567	0.122233205
11	0xbba97102	-0.0051709423
12	0x3b4b04a9	0.003097812
13	0x3d52c361	0.05145586
14	0x3dd3f6d1	0.10349811
15	0x3d88fb4b	0.06688555
16	0x3dce2cca	0.100671366
17	0xbd171fff	-0.03689575
18	0xbdfbabc5	-0.12288622
19	0x3e828d97	0.2549865
20	0x3e939c7a	0.2883032
21	0x3d13e598	0.03610763
22	0x3e834c8a	0.25644332
23	0x3e77a967	0.24185716
24	0x3c4bf075	0.012447466
25	0x3dfe5ac2	0.124196544
26	0x3e8bdb7e	0.27315897
27	0x3ef36e5e	0.4754514
28	0x3e109749	0.1412021
29	0x3e58889a	0.2114586
30	0xbcad5db2	-0.021162841
31	0x3cb25783	0.021770244
32	0xbd1d4719	-0.038397882
33	0x3e2e3614	0.17012817
34	0x3e3a4e49	0.18193926
35	0x3e07db49	0.13267244
36	0xbd5d1077	-0.05397078
37	0x3d91befc	0.071165055
38	0x3e37d331	0.17951657
39	0x3eb6353c	0.3558749
40	0xbd9533a3	-0.072852395
41	0xbb1c5443	-0.0023853935
42	0x3ec696c1	0.3878689
43	0xbd065b78	-0.032802075
44	0x3d826852	0.06367554
45	0x3eb3dc9a	0.35129243
46	0x3d106cc4	0.035259977
47	0x3e7f3445	0.24922283
48	0xbd7abc90	-0.061214983
49	0xbd00cacd	-0.031443406
50	0xbd1f8f03	-0.038954746
51	0xbc8f4d33	-0.017492866
52	0x3def7a8f	0.11693298
53	0xbd894ca0	-0.06704068
54	0x3d9032be	0.07040928
55	0x3c867a3e	0.016415711
56	0x3dc8bc74	0.098015696
57	0x3da04f7c	0.078276604
58	0x3c1b3245	0.009472434
59	0x3df1ee7d	0.11813066
60	0x3e091548	0.13387024
61	0x3db1490c	0.08656511
62	0xbdd00d58	-0.10158795
63	0x3d97d1e1	0.07413078
64	0x3dbc3901	0.0919056
65	0xbdf14b5c	-0.11781952
66	0xbd920960	-0.071306944
67	0xbe14a545	-0.1451617
68	0xbd6e450a	-0.05817131
69	0xbb054637	-0.002033604
70	0x3d55c84a	0.052192964
71	0xbe099dc3	-0.13439088
72	0xbc99c33b	-0.018769851
73	0x3e3ec8b1	0.18631245
74	0xbc18ff55	-0.00933822
75	0x3a520b55	0.0008012553
76	0xbd03483f	-0.03205132
77	0xbdd81078	-0.10550016
78	0xbde7aa15	-0.113117374
79	0x3ce67eba	0.0281366
80	0xbdfc03ba	-0.12305398
81	0xbd8b4f94	-0.06802288
82	0x3d333fa7	0.043761875
83	0xbe4314a5	-0.19050844
84	0x3da43b23	0.08019092
85	0x3c44805c	0.011993494
86	0xbd8d7495	-0.06907002
87	0xbceea174	-0.029129721
88	0xbe1219de	-0.1426768
89	0x3cf87204	0.030327804
90	0xbcc7d072	-0.024391387
91	0x3e039d14	0.1285289
92	0xbd9b5b22	-0.075857416
93	0xbe26e7c8	-0.16299355
94	0xbdbda1e2	-0.09259392
95	0x3d1b165e	0.037863128
96	0x3d6cd298	0.057818025
97	0x3c8bbad1	0.017056854
98	0xbd9dc30a	-0.077032164
99	0xbb877b7c	-0.0041345935
100	0x3dbda735	0.09260408
101	0x3da91c98	0.08257407
102	0x3de85f7a	0.11346336
103	0x3d0da508	0.034581214
104	0x3dd1317b	0.10214516
105	0xbd521d00	-0.051297188
106	0x3d834bf1	0.06410969
107	0xbd736b06	-0.059428237
108	0x3d9f7e97	0.07787817
109	0xbd48ed7a	-0.0490546
110	0xbdb31c37	-0.08745616
111	0x3d041cd0	0.03225404
112	0xbcf7f5fe	-0.030268665
113	0xbd85fb81	-0.06542111
114	0x3db8ebf7	0.09029382
115	0x3d56cdfb	0.052442532
116	0xbba03082	-0.004888595
117	0xbd8e9a0b	-0.06962975
118	0x3d2495fa	0.04018209
119	0xbd478bf9	-0.048717473
120	0x3cfaed0b	0.030630609
121	0xbe0e2b37	-0.13883673
122	0xbba61fb0	-0.0050696954
123	0x3c9492d3	0.018136417
124	0x3c33fd72	0.010985719
125	0x3e058898	0.13040388
126	0x3c73a047	0.014869756
127	0xbdec9374	-0.11551562
128	0x3d8030d9	0.06259317
129	0x3c8e6612	0.017382655
130	0xbd45ecec	-0.04832165
131	0xbce479eb	-0.027890166
132	0xbe17aeec	-0.14812821
133	0x3c4ed2f2	0.0126235355
134	0xbc4245f1	-0.011857496
135	0xbd698d5c	-0.057019576
136	0xba7051d9	-0.00091674697
137	0x3dda1544	0.10648587
138	0xbd7bb37d	-0.06145047
139	0x3dd6c5bc	0.104869336
140	0xbd041da3	-0.032254826
141	0xbd8f69cf	-0.07002603
142	0xbdb245f5	-0.087047495
143	0xbb98ade8	-0.004659403
144	0x3e827e90	0.25487185
145	0x3d397715	0.04527958
146	0xbd03cd7f	-0.0321784
147	0x3e7f9181	0.24957849
148	0x3de9aae1	0.11409546
149	0x3d19ef11	0.037581507
150	0x3e317705	0.17330559
151	0x3d8ab3b7	0.06772559
152	0x3d8ac810	0.0677644
153	0x3e04f948	0.12985718
154	0xbd8630c5	-0.06552271
155	0xbde441d9	-0.11145372
156	0xbc959ce6	-0.018263292
157	0xbcd199f4	-0.025586106
158	0x3e5847b3	0.21121101
159	0x3e1559ce	0.14585039
160	0x3ca64e32	0.020300958
161	0xbdddf6f4	-0.10838118
162	0x3caec880	0.02133584
163	0x3dc52ece	0.09628068
164	0x3e09fe05	0.13475807
165	0xbda5e599	-0.08100433
166	0x3dfd8273	0.12378397
167	0x3e96825f	0.2939634
168	0xbd485202	-0.048906334
169	0x3dffa94f	0.12483465
170	0x3ec31a4c	0.38106
171	0x3f1f514f	0.6223344
172	0x3e633c5a	0.22190991
173	0x3e036dd2	0.12834862
174	0xbda20a17	-0.07912081
175	0x3bb31996	0.0054656966
176	0xbdf4d86e	-0.11955343
177	0x3e112a78	0.14176357
178	0xbcc9c68a	-0.024630804
179	0x3e9f0ae4	0.31062996
180	0xbdd80ab7	-0.10548919
181	0x3d605bb6	0.054774962
182	0x3e3ffd49	0.18748964
183	0x3e619a6e	0.22031567
184	0xbd0f37a6	-0.03496518
185	0xbd95ac30	-0.07308233
186	0x3eaa909f	0.33313462
187	0x3dbca78c	0.092116445
188	0xbd238fd2	-0.03993208
189	0x3f0a1885	0.53943664
190	0x3d9f0333	0.07764282
191	0x3e68d399	0.22736968

lstm.weight_ih_l1 f4 [192, 48]
0	0x3eddc667	0.4331543
1	0xbe16e55b	-0.1473593
2	0xbd44ef14	-0.048079565
3	0xbe98e64f	-0.29863212
4	0xbda573ce	-0.080787286
5	0x3cb36391	0.021898063
6	0x3dfeb5e7	0.12437039
7	0x3d0ec0f6	0.03485199
8	0x3ce52f3f	0.02797663
9	0x3c9cf9a1	0.019162001
10	0x3de6e0b8	0.112733305
11	0x3dec15b0	0.11527574
12	0x3e8f4699	0.2798355
13	0xbd81a5e0	-0.06330466
14	0x3e901707	0.28142568
15	0xbc8732e9	-0.016503768
16	0xbe8b1b4b	-0.2716926
17	0xbe0cf58b	-0.13765542
18	0xbdcba214	-0.09943023
19	0xbcea87cd	-0.028629208
20	0x3e11b996	0.14230952
21	0xbd44ca0d	-0.048044253
22	0xbdbbbb4e	-0.09166585
23	0xbe6a312a	-0.22870317
24	0xbd77f1f8	-0.060533494
25	0xbdbbc764	-0.0916889
26	0xbecf44ae	-0.40482086
27	0x3e6a2501	0.22865678
28	0xbd09d9d6	-0.03365501
29	0xbe08d60a	-0.133629
30	0xbce18733	-0.027530288
31	0x3e0afd52	0.13573197
32	0x3dd5d7a6	0.10441522
33	0xbe09010e	-0.13379309
34	0x3d4b5699	0.049643133
35	0xbdc073cd	-0.09397087
36	0x3cb0ebb1	0.021596761
37	0xbbefb7d0	-0.0073156133
38	0x3dde4525	0.10853032
39	0xbe9cb64c	-0.3060783
40	0x3ddcef50	0.10787833
41	0x3e0f4f17	0.13995014
42	0x3eea01f5	0.45704618
43	0xbdc69dc2	-0.09698059
44	0xbc359c14	-0.011084575
45	0x3e905ba8	0.28194928
46	0xbd066715	-0.03281315
47	0x3e9eb91c	0.31000602
48	0x3dc17b61	0.09447361
49	0xbdb207fa	-0.08692928
50	0xbd80bdbd	-0.0628619
51	0xbe302dd1	-0.17204978
52	0xbd7f7e1c	-0.062376127
53	0x3bc75bcc	0.006083941
54	0x3df8876e	0.12135206
55	0x3ced85f5	0.02899454
56	0x3db4a6a0	0.08820844
57	0xbe31bf5f	-0.17358159
58	0x3dd5eb82	0.1044531
59	0xbd9eb6c1	-0.07749701
60	0xbcf3109c	-0.029671006
61	0x3da5f174	0.08102694
62	0xbc8d8180	-0.017273664
63	0x3e077653	0.13228731
64	0x3d48356e	0.04887908
65	0xbcff0772	-0.03113148
66	0xbd909e33	-0.07061424
67	0xbd930b87	-0.07179933
68	0x3e2c2457	0.16810738
69	0xbe12ce57	-0.14336525
70	0x3cd26e22	0.025687281
71	0x3c805518	0.015665576
72	0xbcd6f1ca	-0.02623834
73	0x3d626620	0.055273175
74	0xbe3a55d0	-0.18196797
75	0x3e98400f	0.29736373
76	0xbd91ed4c	-0.07125339
77	0xbd4f0cf6	-0.05054947
78	0x3df4d18d	0.11954031
79	0xbd85e97f	-0.065386765
80	0xbdb25132	-0.08706893
81	0xbcab0027	-0.020874096
82	0x3d20d490	0.039265215
83	0x3dcfd583	0.10148146
84	0x3e0d2830	0.13784862
85	0xbda18973	-0.078875445
86	0x3d2f118e	0.04274135
87	0xbe268798	-0.16262662
88	0x3d18384b	0.03716306
89	0xbb911ede	-0.0044287285
90	0x3d9ec756	0.07752864
91	0x3d04887e	0.03235673
92	0x3db816a1	0.08988691
93	0x3da3095c	0.079607695
94	0xbd2875a2	-0.04112781
95	0xbab7394e	-0.001397887
96	0xbddd1a59	-0.10796041
97	0x3dca8796	0.09889142
98	0xbe02f4dc	-0.12788719
99	0xbe7b6015	-0.24548371
100	0x3e6ee845	0.23330791
101	0x3bb1d814	0.00542737
102	0xbddd9f32	-0.1082138
103	0xbdabdbd6	-0.0839154
104	0x3ce264d7	0.027635975
105	0xbcbd406c	-0.023102008
106	0x3e072990	0.13199449
107	0xbe3ea4d5	-0.18617566
108	0x3eb16654	0.34648383
109	0xbd8b6048	-0.068054736
110	0x3e1069dc	0.14102882
111	0xbdb4304e	-0.08798276
112	0xbd75db56	-0.06002363
113	0x3d321fbe	0.043487303
114	0x3d85760e	0.06516658
115	0xbe2e9060	-0.17047262
116	0x3e4f851a	0.20265618
117	0x3e43bd94	0.19115287
118	0x3e3b6776	0.18301186
119	0xbea35287	-0.318989
120	0x3e736205	0.2376786
121	0xbe268ac4	-0.16263872
122	0xbea0167e	-0.3126716
123	0x3e4489fb	0.1919326
124	0xbd7efddd	-0.06225382
125	0xbdc6c643	-0.09705784
126	0x3e2e355e	0.17012545
127	0x3cea3d4f	0.028593687
128	0xbb707b11	-0.0036694447
129	0x3d6b9736	0.057517253
130	0xbe0ecb8e	-0.13944837
131	0x3e49af58	0.19695795
132	0xbe1ae54a	-0.1512653
133	0x3de12f6f	0.10995375
134	0x3e02f772	0.12789705
135	0xbd246733	-0.04013748
136	0xbe0c4efa	-0.13702002
137	0x3e6bc12d	0.2302291
138	0x3e857e94	0.26073134
139	0xbc98e06e	-0.018661704
140	0xbd59ab48	-0.053141862
141	0x3e5e372e	0.21700737
142	0xbe1e33f6	-0.15449509
143	0x3bf34665	0.007424163
144	0x3e4229db	0.18961279
145	0xbd8e39b0	-0.06944597
146	0xbe8658ac	-0.26239526
147	0xbdd61d12	-0.104547635
148	0xbd858ab6	-0.06520598
149	0xbd89ab5c	-0.06722137
150	0xbe34d57c	-0.17659563
151	0xbc60bc37	-0.013716749
152	0x3e26929a	0.16266862
153	0x3db068a2	0.08613707
154	0x3de7174b	0.1128374
155	0xbe57a477	-0.21058832
156	0xbc011f58	-0.007881008
157	0xbd9298c4	-0.07158044
158	0x3e5d0a17	0.2158588
159	0xbd90c191	-0.0706817
160	0xbed28820	-0.4111948
161	0x3d8b9412	0.068153515
162	0x3de19e84	0.110165626
163	0xbe897c2e	-0.26852554
164	0x3da78e52	0.08181442
165	0x3e310893	0.17288427
166	0xbd682620	-0.056676984
167	0xbde0026c	-0.10937962
168	0x3e605f14	0.2191127
169	0xbd7b64b6	-0.061375342
170	0xbe01cbbf	-0.12675379
171	0x3e5e24f6	0.21693787
172	0x3ccc15e6	0.024912786
173	0xbe5c2da7	-0.2150179
174	0x3e8ba1ab	0.2727178
175	0xbe91dfa8	-0.2849095
176	0x3e8ff800	0.28118896
177	0x3e28a72a	0.16470018
178	0x3c0a0b92	0.00842561
179	0xbe89acf4	-0.26889765
180	0xbe1f80e7	-0.15576516
181	0x3e88e333	0.2673584
182	0x3ddc99c9	0.1077152
183	0xbe80f22b	-0.2518476
184	0xbdf1260d	-0.11774836
185	0x3e85611a	0.26050645
186	0x3d686040	0.056732416
187	0xbe2ee96e	-0.17081234
188	0xbdd2f039	-0.10299725
189	0x3e153e61	0.14574577
190	0xbe5ce087	-0.21570025
191	0xbebb884f	-0.36627433
192	0x3ebe1018	0.37121654
193	0xbddfacb0	-0.109216094
194	0xbd93aaea	-0.07210334
195	0xbec103ce	-0.37698215
196	0xbd19c35c	-0.037539825
197	0x3cc865ed	0.024462664
198	0x3d176fc4	0.036971822
199	0x3d68b51a	0.056813337
200	0x3ea30fa4	0.3184787
201	0xbe1f51aa	-0.15558496
202	0x3da0f5ce	0.078593835
203	0xbdf79254	-0.12088457
204	0x3ed191df	0.40931603
205	0x3d0b90e7	0.034073737
206	0x3e83447c	0.25638187
207	0xbe4f9948	-0.20273316
208	0xbe935448	-0.2877524
209	0x3da26eb9	0.07931275
210	0x3e20aa55	0.15689977
211	0x3ab40623	0.0013734739
212	0x3dcbf584	0.09958938
213	0xbe0e1ebb	-0.1387891
214	0xbe314df0	-0.17314887
215	0xbf045de9	-0.51705796
216	0x3e05a26e	0.13050243
217	0xbdc847ec	-0.09779343
218	0xbf6473f3	-0.89239424
219	0x3f3093ab	0.68975323
220	0xbdb9bf06	-0.09069638
221	0xbd77bd76	-0.06048342
222	0x3e208f0c	0.15679568
223	0x3e76830f	0.24073432
224	0x3d139245	0.036028165
225	0x3e22659b	0.15859072
226	0x3d294698	0.04132709
227	0x3def9205	0.11697773
228	0x3dacf82a	0.08445771
229	0x3e659c38	0.22422874
230	0x3e2ea673	0.17055683
231	0xbe9c8e8d	-0.30577508
232	0xbb0fcba5	-0.002194145
233	0x3e54cc6e	0.20781109
234	0x3f0f4fe4	0.5598128
235	0x3d052401	0.03250504
236	0xbe08f354	-0.13374072
237	0x3ed3de30	0.41380453
238	0xbd09ab71	-0.033610765
239	0x3e90ab4d	0.28255692
240	0x3e6ba92b	0.23013751
241	0xbe0c3461	-0.13691856
242	0xbdb0ddbe	-0.08636044
243	0xbd9bf226	-0.076145455
244	0x3cea37e0	0.028591096
245	0xbe1a5bf3	-0.15074138
246	0x3a124eb1	0.0005581184
247	0x3d4e3f8e	0.05035358
248	0x3d847b10	0.06468785
249	0xbe9c1a7a	-0.3048895
250	0x3d3ad509	0.045613322
251	0x3e054321	0.13013889
252	0x3e8b2b6e	0.27181572
253	0xbde99586	-0.114054725
254	0xbe36f415	-0.17866547
255	0xbd64d205	-0.055864353

lstm.weight_hh_l1 f4 [192, 48]
0	0x3d1c73c7	0.03819635
1	0xbd8a71da	-0.06759997
2	0xbbc86276	-0.006115253
3	0xbd541565	-0.051778216
4	0x3de22c88	0.1104365
5	0xbdfb5c55	-0.1227347
6	0xbce0026a	-0.027344901
7	0xbe15fc7c	-0.14647096
8	0xbc8f58dd	-0.017498428
9	0x3d8c436f	0.068487994
10	0xbe0739df	-0.1320567
11	0x3d236e7a	0.03990028
12	0x3d26b295	0.040697653
13	0xbd54ee8f	-0.05198532
14	0x3e155155	0.14581807
15	0xbdb3243c	-0.087471455
16	0xbd5b41be	-0.053529494
17	0xbcde924c	-0.02716937
18	0xbdc7a3d8	-0.097480476
19	0xbd0ea193	-0.034822058
20	0x3d915eeb	0.07098182
21	0x3cfede11	0.031111749
22	0xbda707a5	-0.08155755
23	0x3d9fc675	0.078015245
24	0x3cdccc0c	0.026952766
25	0x3d767407	0.060169246
26	0xbd6f40e8	-0.05841151
27	0x3e59c47c	0.21266359
28	0x3dc7b78f	0.09751808
29	0xbd58b0a8	-0.052902848
30	0xbdeb220e	-0.11481105
31	0x3caaf000	0.020866394
32	0x3d99d57e	0.075114235
33	0xbcccd500	-0.02500391
34	0x3c764f40	0.015033543
35	0x3d9dd320	0.077062845
36	0x3da0ef09	0.07858092
37	0x3d2feb70	0.04294914
38	0xbdea03e2	-0.11426522
39	0x3cd26f66	0.025687885
40	0x3dee7152	0.11642708
41	0xbd17fe2c	-0.03710763
42	0x3dd9c4cd	0.1063324
43	0xbdca893e	-0.09889458
44	0x3c617afc	0.013762232
45	0xbb2f3ef5	-0.0026740406
46	0xbca2df55	-0.019881884
47	0xbdb8b46f	-0.0901879
48	0xbe16176b	-0.14657371
49	0x3c6d6bec	0.014491063
50	0x3d3243ae	0.043521576
51	0x3e02b9d2	0.12766197
52	0x3db4a667	0.08820801
53	0xbda0bfb1	-0.07849062
54	0xbdcd2822	-0.1001742
55	0xbdb73954	-0.08946481
56	0xbdcf549a	-0.10123558
57	0xbd1dd4e4	-0.038533106
58	0xbda91af8	-0.08257097
59	0x3d412a16	0.047159277
60	0x3bf51005	0.0074787163
61	0xbde50480	-0.11182499
62	0x3de9aa5b	0.11409446
63	0x3d8c2336	0.068426535
64	0x39f515a8	0.00046746177
65	0x3e110b8f	0.14164566
66	0x3e10e699	0.14150466
67	0x3bfa69ac	0.0076419916
68	0x3da6b256	0.08139484
69	0x3df51bb5	0.11968175
70	0x3e3438cb	0.1759979
71	0x3d97715a	0.07394667
72	0x3d8a3f22	0.06750323
73	0xbd894328	-0.06702262
74	0xbe12da80	-0.14341164
75	0x3daba426	0.08380918
76	0x3dfa0c82	0.12209417
77	0xbc884664	-0.016635127
78	0xbdfc65a1	-0.12324072
79	0xbdb8feee	-0.09032999
80	0x3e090ddf	0.13384198
81	0x3e3785ee	0.17922184
82	0x3cd2198b	0.025646945
83	0xbd215ae4	-0.03939332
84	0xbd961c53	-0.07329621
85	0xbe2b1f10	-0.16711068
86	0xbdcadf6b	-0.09905895
87	0xbd4f97da	-0.050681926
88	0xbc3adffa	-0.011405939
89	0x3e06ab22	0.1315122
90	0xbd94a8fc	-0.07258794
91	0x3d5992a3	0.05311836
92	0x3dcb885f	0.0993812
93	0x3d68debb	0.056853037
94	0xbcf1296e	-0.0294387
95	0x3d23fc55	0.040035564
96	0xbe472bdc	-0.19450325
97	0xbd564c62	-0.052318938
98	0xbcbb330f	-0.022851495
99	0xbdd1ad55	-0.102381386
100	0x3d9ce799	0.07661361
101	0x3bba590a	0.005686884
102	0x3db9cc54	0.090721756
103	0x3d96efb2	0.07369937
104	0xbcb8cd6d	-0.022558892
105	0x3c863f8a	0.01638772
106	0xbcae2c3e	-0.02126133
107	0xbd21e763	-0.03952731
108	0xbd48d1f4	-0.049028352
109	0xbe2b0e81	-0.16704752
110	0xbe1fbf1f	-0.1560025
111	0x3e2deaab	0.1698405
112	0xbe42196a	-0.18955007
113	0x3e258395	0.16163476
114	0xbc31fc65	-0.010863398
115	0xbde15136	-0.11001818
116	0x3e47a0f6	0.19494995
117	0x3de96a89	0.11397273
118	0xbd2b9c83	-0.041897308
119	0x3d121144	0.035660997
120	0x3dc8d13d	0.09805534
121	0x3d2de419	0.04245386
122	0x3db8e56f	0.09028136
123	0x3e04105d	0.12896867
124	0x3d3bd4b2	0.04585714
125	0xbe132a0a	-0.14371505
126	0x3e4d5e2e	0.20055458
127	0x3d07034a	0.03296212
128	0xbc48220e	-0.0122151505
129	0x3cc4d69c	0.024028115
130	0x3ca08dd5	0.01959888
131	0x3dfbd907	0.12297254
132	0xbe07e591	-0.13271166
133	0x3c596dd8	0.013270818
134	0x3dcacda8	0.09902507
135	0xbd157414	-0.036487654
136	0xbe046916	-0.12930712
137	0xbcf9c12a	-0.030487616
138	0xbc11af76	-0.008891931
139	0x3c272eeb	0.010204057
140	0xbcdb5deb	-0.026778182
141	0x3d35bdfc	0.044370636
142	0xbe1ea0cc	-0.15491027
143	0x3d1213a8	0.035663277
144	0xbb91d00a	-0.004449849
145	0xbde17afa	-0.11009784
146	0xbd6f25b6	-0.058385573
147	0xbdea7e6e	-0.11449896
148	0x3bd1ca9e	0.0064023277
149	0x3dd51937	0.104052
150	0xbc343eb5	-0.011001279
151	0x3dc49097	0.09597891
152	0x3d8398de	0.064256415
153	0x3caf5064	0.021400638
154	0xbe14d5e0	-0.14534712
155	0x3da98d61	0.08278919
156	0xbcd0fc64	-0.025510974
157	0xbe25645d	-0.16151567
158	0xbd222079	-0.03958175
159	0x3e1374d2	0.14400032
160	0x3cece183	0.028916126
161	0xbb35fa17	-0.0027767473
162	0xbdc48e14	-0.09597412
163	0xbccbb456	-0.024866264
164	0x3d1ab6c6	0.037771963
165	0xbdc30f70	-0.09524429
166	0xbecee447	-0.40408537
167	0x3d024e70	0.031813085
168	0xbe06cb0d	-0.13163395
169	0x3e17af8d	0.14813061
170	0x3c285fa3	0.010276708
171	0x3e0dfe85	0.13866623
172	0xbdfe2d4f	-0.12410986
173	0x3d861782	0.065474525
174	0x3d35c38d	0.044375945
175	0xbddcb9d3	-0.10777631
176	0x3df840c6	0.121217296
177	0xbe13ce6a	-0.1443421
178	0x3b8a1f50	0.0042151585
179	0x3e424387	0.18971072
180	0xbdd04a09	-0.10170371
181	0xbd36f6af	-0.04466885
182	0x3b9fa2f1	0.004871719
183	0x3cee8211	0.029114755
184	0x3d8639dd	0.06554005
185	0xbe09b5c8	-0.1344825
186	0xbd4469a1	-0.047952298
187	0x3d1cdb87	0.038295295
188	0xbc6f73a2	-0.014614971
189	0xbd6d5af2	-0.05794806
190	0xbc866c14	-0.016408958
191	0xbd0d8580	-0.034551144
192	0xbd8120d3	-0.06305089
193	0x3dd19c0a	0.1023484
194	0xbc56d617	-0.013112566
195	0x3e0bf5d7	0.13667999
196	0xbde6485f	-0.112442724
197	0xbd0924a9	-0.033482227
198	0x3d8d2bb0	0.06893098
199	0xbe4ee4b2	-0.20204428
200	0xbda82ee8	-0.08212072
201	0x3e125224	0.14289147
202	0x3d9da414	0.07697311
203	0x3cbe24b6	0.023210865
204	0xbdc6376f	-0.09678542
205	0x3cb8f270	0.02257654
206	0xbdb7d27c	-0.089756936
207	0x3e84c080	0.25928116
208	0x3dd039f0	0.10167301
209	0x3e44abca	0.19206157
210	0xbc5558ee	-0.013021691
211	0x3de678df	0.11253523
212	0xba75d788	-0.0009378125
213	0x3e21c69a	0.15798417
214	0xbe8997f8	-0.26873755
215	0x3e2a75ac	0.16646451
216	0xbd932564	-0.07184866
217	0x3d8a1afd	0.06743429
218	0xbd5fe8cc	-0.05466537
219	0xbc3b60d9	-0.0114366645
220	0xbc2f5c09	-0.010703095
221	0xbb77fb63	-0.0037839047
222	0x3c51a407	0.012795455
223	0xbd3709a4	-0.04468693
224	0xbdabc534	-0.08387223
225	0xbdae2e94	-0.08504978
226	0xbd79c37d	-0.060977448
227	0x3e3257b9	0.17416276
228	0x3d2c943b	0.04213355
229	0xbe785334	-0.2425049
230	0x3d80cab8	0.062886655
231	0x3cbb5d66	0.022871684
232	0x3e3ac152	0.18237808
233	0xbdd43863	-0.103623174
234	0xbe00d6c4	-0.12581927
235	0x3dd11eca	0.10210951
236	0xbd651910	-0.055932105
237	0xbdd03328	-0.10166007
238	0xbe24d387	-0.16096316
239	0xbdaa7fe0	-0.083251715
240	0xbdc63360	-0.09677768
241	0x3dd54b24	0.104147226
242	0xbdedf904	-0.116197616
243	0x3dfe2c76	0.12410824
244	0x3d8cf16c	0.06881985
245	0xbc057044	-0.008144442
246	0x3e55f76b	0.20895164
247	0x3d00e635	0.031469543
248	0xbd350916	-0.04419812
249	0x3db7d6f2	0.089765444
250	0x3e002e7f	0.12517737
251	0xbd6ddf6e	-0.058074407
252	0xbba7f35f	-0.0051254476
253	0xbe37fe2c	-0.17968053
254	0x3df2b79d	0.11851428
255	0xbd1962e4	-0.037447825

lstm.bias_ih_l1 f4 [192]
0	0x3de30e13	0.11086669
1	0xbdbb8066	-0.091553494
2	0x3e7f2c7b	0.24919312
3	0x3e0f20a0	0.13977289
4	0x3e66d9bf	0.22544001
5	0xbd21bbb6	-0.039485656
6	0xbd9b5041	-0.075836666
7	0x3ced27b5	0.028949598
8	0xbd92f243	-0.07175114
9	0x3e2d026d	0.16895457
10	0x3d58e829	0.05295578
11	0xbd59246d	-0.053013254
12	0xbdcf1412	-0.1011125
13	0xbd5b3319	-0.053515527
14	0xbd572cef	-0.052533086
15	0x3cdfec65	0.027334401
16	0xbd9522b5	-0.072820105
17	0xbcaffa8f	-0.02148178
18	0xbd48c9a8	-0.04902044
19	0x3e0da8ce	0.13833925
20	0x3e10965b	0.14119856
21	0x3e215984	0.15756804
22	0x3e6b15fc	0.22957605
23	0xbc985428	-0.018594816
24	0x3e00306b	0.1251847
25	0xbd29f8fd	-0.04149722
26	0x3e046dcf	0.12932514
27	0x3d0987f6	0.033576928
28	0x3e1a23b5	0.15052684
29	0x3d5f756f	0.054555353
30	0x3e1e0212	0.15430477
31	0x3d4b0af6	0.049571
32	0x3de07cc2	0.10961296
33	0xbd918daa	-0.071070984
34	0x3e020f3e	0.12701127
35	0x3e21657a	0.15761366
36	0xbd6afbd8	-0.057369083
37	0x3e3b6de4	0.18303639
38	0xbd83d695	-0.06437413
39	0x3e37144e	0.1787884
40	0x3c27ddaa	0.01024572
41	0xbd3c74ec	-0.046009943
42	0x3de5e79d	0.11225817
43	0x3d7b2dac	0.061322853
44	0x3d4fd1d4	0.050737217
45	0x3e76775c	0.2406897
46	0xba8f5c27	-0.0010937498
47	0x3d85ef9e	0.06539844
48	0xbe1a8ad7	-0.15092026
49	0xbda001b1	-0.078128226
50	0x3e620250	0.22071195
51	0x3d0c50c1	0.0342567
52	0xbe742a32	-0.23844221
53	0xbd8c3040	-0.068451405
54	0x3c137101	0.00899911
55	0xbdeab3ce	-0.11460076
56	0xbd1d199c	-0.0383545
57	0x3d3ac581	0.04559851
58	0xbd249714	-0.04018314
59	0x3db48a8e	0.0881549
60	0xbdd06360	-0.10175204
61	0xbd477528	-0.048695713
62	0xbd81e4a8	-0.06342441
63	0x3dd52859	0.10408086
64	0xbda9883d	-0.082779385
65	0x3cbdc59a	0.023165513
66	0xbdd09dd8	-0.10186356
67	0x3d162668	0.03665772
68	0xbd8de9cd	-0.069293596
69	0xbd8926ec	-0.06696877
70	0x3e65a493	0.22426061
71	0xbe12afc5	-0.14324863
72	0xbd18e7cf	-0.037330445
73	0x3cf706ab	0.030154547
74	0x3c0c6862	0.008569809
75	0xbc7ace24	-0.015307937
76	0xbda9a2d8	-0.08283013
77	0xbe09e9fd	-0.13468166
78	0xbbbf93da	-0.0058464827
79	0xbe100c34	-0.14067155
80	0x3ca0180d	0.019542718
81	0xbda2be82	-0.07946493
82	0xbde0790d	-0.109605886
83	0xbd15a06d	-0.036529947
84	0xbdcc52ed	-0.09976754
85	0xbe33eaa9	-0.17569984
86	0x3df5b6a5	0.11997727
87	0xbdc199a0	-0.0945313
88	0x3d38b7ba	0.04509709
89	0xbe168b24	-0.14701515
90	0x3dbeebe8	0.09322339
91	0xbdcfc3af	-0.101447456
92	0x3b63b440	0.0034744889
93	0xbdd5797b	-0.10423561
94	0xbdcf243f	-0.10114335
95	0xbe07a691	-0.13247134
96	0x3d272659	0.040808056
97	0xbd15564a	-0.036459245
98	0x3deb2878	0.11482328
99	0xbe04402a	-0.12915102
100	0x3cbcb3a0	0.02303487
101	0x3d47f78a	0.048820056
102	0xbdbc7430	-0.092018485
103	0x3dae878a	0.08521946
104	0xbc55671f	-0.013025074
105	0x3c6300a8	0.013855137
106	0x3d382278	0.044954747
107	0xbdfe460d	-0.12415705
108	0xbc6931ba	-0.014233047
109	0x3d33364c	0.043752953
110	0x3cb70790	0.022342473
111	0x3d388116	0.04504498
112	0xbd2f771e	-0.04283821
113	0x3d782e3f	0.06059098
114	0x3b6206d4	0.0034488933
115	0x3d08c2a2	0.03338874
116	0xbd7db135	-0.061936576
117	0x3d90816d	0.07055936
118	0x3d2ff2f9	0.042956326
119	0x3d338873	0.0438313
120	0x3d21116b	0.03932325
121	0xbdd18a91	-0.102315076
122	0xbc2d80dd	-0.010589805
123	0xbdac0c1c	-0.08400747
124	0x3dd96e2c	0.10616717
125	0xbd563d45	-0.052304525
126	0xbdd13f27	-0.102171235
127	0x3cbafeb5	0.022826532
128	0x3ca1e098	0.019760415
129	0x3d0a0f7d	0.033706177
130	0xbd0ccd0d	-0.03437524
131	0xbca64c8c	-0.020300172
132	0x3ad6a790	0.0016376842
133	0xbdb01f01	-0.085996635
134	0x3bd72240	0.006565362
135	0x3d9e0c54	0.07717195
136	0xbd61357e	-0.054982655
137	0xbd930e4b	-0.071804605
138	0x3d9fc4a5	0.07801179
139	0x3dce95aa	0.1008714
140	0x3d213541	0.039357428
141	0x3de0f5a5	0.10984353
142	0xbd8a0979	-0.06740088
143	0x3dd34778	0.10316366
144	0x3d1897d8	0.037254184
145	0xbdd75e46	-0.10516028
146	0x3cd30718	0.025760219
147	0xbbc5663d	-0.0060241506
148	0x3e89e486	0.26932162
149	0xbda9d08a	-0.08291729
150	0x3b65e4c3	0.003507898
151	0xbdc1118d	-0.09427176
152	0xbdb3ff3d	-0.08788917
153	0x3de3b707	0.11118894
154	0xbd4b1238	-0.04957792
155	0xbd989e8d	-0.07452116
156	0x3d6bfd22	0.057614453
157	0x3d23729c	0.039904222
158	0xbd749d00	-0.05972004
159	0x3deb4af3	0.11488905
160	0x3d45f1f2	0.04832644
161	0x3b447f71	0.0029983188
162	0x3d8c518f	0.068514936
163	0xbd829e3c	-0.06377837
164	0x3d41fae6	0.047358416
165	0x3d707ce7	0.058712866
166	0x3d7b6ca7	0.061382916
167	0x3dbdc826	0.09266691
168	0x3e7bc43d	0.24586578
169	0x3d26cfaa	0.040725388
170	0x3d075e34	0.033048823
171	0xbd3fc73a	-0.046820857
172	0xbc893c72	-0.016752455
173	0x3e29523c	0.16535276
174	0x3dbf7fca	0.09350546
175	0x3dad3ad7	0.084584884
176	0xbd34dd6b	-0.044156473
177	0x3ddf0c6a	0.1089104
178	0x3e895876	0.26825303
179	0xbd2f5b4b	-0.042811673
180	0x3dc5e5b8	0.09662956
181	0x3e432c92	0.19059971
182	0x3de862af	0.113469474
183	0x3e21da5c	0.15805954
184	0x3d7eabfa	0.06217573
185	0xbdf134e7	-0.117776684
186	0xbdeeae98	-0.11654395
187	0xbe0b23e2	-0.13587907
188	0x3e2e42ea	0.17017713
189	0x3e41cbed	0.18925448
190	0x3df05417	0.11734789
191	0x3cf46f99	0.02983837

lstm.bias_hh_l1 f4 [192]
0	0x3d126ccb	0.035748284
1	0xbd91bba8	-0.07115871
2	0x3ea5e8a9	0.32404068
3	0x3d87d519	0.06632442
4	0x3dcee492	0.1010219
5	0x3e0c10ab	0.13678233
6	0x3d0500f9	0.03247163
7	0xbd89e2d4	-0.06732717
8	0xbcd7e878	-0.026355967
9	0xbcb5ec2e	-0.022207346
10	0xbd6f41c5	-0.058412332
11	0x3c30b195	0.010784526
12	0xbb81d3e8	-0.003962029
13	0x3e53965f	0.20662831
14	0xbb4f81a5	-0.0031662968
15	0x3dc3b86a	0.095566586
16	0x3dd8465f	0.10560297
17	0x3cdc2915	0.026875058
18	0xbd43e796	-0.04782828
19	0x3cc16fa7	0.02361281
20	0xbb9c4d5b	-0.0047699637
21	0x3d994665	0.0748413
22	0x3e613812	0.21994045
23	0x3d953b40	0.07286692
24	0x3df0a316	0.11749856
25	0x3e35e3c8	0.17762673
26	0x3e11b4ed	0.14229174
27	0x3d7c2d08	0.061566383
28	0x3c944470	0.01809904
29	0x3c7a25b1	0.015267775
30	0x3df26e99	0.11837501
31	0x3ddbcf4c	0.10732898
32	0x3e2e2ba1	0.1700883
33	0x3db690e1	0.08914352
34	0x3eb34aa1	0.35017875
35	0x3e31fa00	0.17380524
36	0x3e1ee52a	0.15517107
37	0x3e8b621e	0.27223295
38	0x3d9367cc	0.07197532
39	0x3e6a52ec	0.22883195
40	0xbd3d01b7	-0.046144214
41	0xbd1a7084	-0.03770496
42	0x3c459ab1	0.012060807
43	0xbd8c64ac	-0.06855139
44	0xbb5c3e53	-0.0033606484
45	0x3ed2540f	0.41079757
46	0x3d962281	0.073308
47	0xbd5ee8d4	-0.05442126
48	0xbb24fd26	-0.0025175302
49	0x3dbaddab	0.09124311
50	0x3e84dbb8	0.25948882
51	0x3ddcc30a	0.10779388
52	0xbe02c15d	-0.12769075
53	0xbe1d2d05	-0.15349205
54	0x3c64b4e3	0.013959142
55	0x3daf8144	0.08569577
56	0x3ddcd64d	0.10783062
57	0xbdb046bf	-0.08607244
58	0x3d1518ea	0.036400713
59	0xbdea14ce	-0.114297494
60	0xbe0c5e6f	-0.13707899
61	0xbd1c39d8	-0.0381411
62	0x3e132826	0.14370784
63	0xbd06a945	-0.03287627
64	0x3decd61f	0.11564278
65	0x3d025ac0	0.031824827
66	0xbd6c1486	-0.05763676
67	0x3d9a093f	0.07521295
68	0xbd82c3b1	-0.063849814
69	0x3ddc4944	0.10756162
70	0x3e32895b	0.1743521
71	0x3e00f551	0.12593581
72	0xbd86b7f0	-0.06578052
73	0xbe042080	-0.12903023
74	0xbdf5b24b	-0.11996897
75	0x3cd8f211	0.026482614
76	0x3d97db80	0.07414913
77	0x3dc08125	0.09399632
78	0xbe434647	-0.19069777
79	0xbd69fc04	-0.057125106
80	0xbe1de627	-0.15419827
81	0xbda41d58	-0.080134094
82	0xbe3b63f1	-0.18299843
83	0x3dc96ce2	0.09835221
84	0xbcf58ea0	-0.029975235
85	0xbe3f1a01	-0.18662263
86	0x3e032eb9	0.12810792
87	0xbe558286	-0.20850572
88	0xbd5ac6ae	-0.053412132
89	0xbd1013cc	-0.03517513
90	0xbdda166c	-0.10648808
91	0x3e132087	0.14367877
92	0xbb053308	-0.0020324606
93	0xbe15eb3b	-0.14640515
94	0x3d8f14d3	0.06986394
95	0xbd43ae2d	-0.04777353
96	0xbd885f63	-0.066588186
97	0x3d577fe0	0.052612185
98	0xbbd80fc3	-0.006593676
99	0x3d621f96	0.055205904
100	0x3ccbcb38	0.024877176
101	0x3d8d713d	0.06906364
102	0x3d713db0	0.05889672
103	0x3dbb745e	0.09153055
104	0x3d9c429f	0.076298945
105	0xbc3c03f8	-0.011475556
106	0x3c0ca2cb	0.008583735
107	0x3d9c41f1	0.07629765
108	0xbc6a67f4	-0.014307011
109	0x3d56d0a6	0.052445076
110	0xbd0973e1	-0.033557776
111	0xbd278542	-0.04089857
112	0xbb6254dd	-0.0034535446
113	0x3c17a2d2	0.009255128
114	0x3c7b4ddd	0.015338388
115	0xbcab9cd6	-0.020948809
116	0x3dbabd4c	0.09118137
117	0xbd880e83	-0.06643393
118	0x3d05a1bf	0.032624956
119	0xbbecb48b	-0.007223671
120	0xbd4dd397	-0.050250616
121	0x3dc0c737	0.09412997
122	0xb9c9c330	-0.00038483134
123	0x3df4dbc0	0.119559765
124	0xbd89a9f6	-0.067218706
125	0xbda68ba5	-0.08132104
126	0x3da47bf7	0.08031457
127	0x3d089313	0.033343386
128	0xbd3e89e3	-0.046518218
129	0xbd1bb447	-0.038013723
130	0xba8f7eac	-0.0010947785
131	0x3da83454	0.08213106
132	0x3cf06dad	0.029349172
133	0xbc25bb37	-0.010115436
134	0x3b16d68c	0.0023016063
135	0xbdac281a	-0.08406086
136	0x3d849c72	0.06475152
137	0x3defea43	0.11714604
138	0x3def96b5	0.11698667
139	0x3d995090	0.07486069
140	0xbdbb01a6	-0.09131174
141	0xbe0965c9	-0.13417734
142	0x3c907963	0.017636007
143	0x3dbcfe76	0.09228222
144	0x3b599fa9	0.0033206737
145	0x3da27002	0.0793152
146	0xbb75ff09	-0.0037536046
147	0x3bed06bc	0.007233469
148	0x3da8033a	0.082037404
149	0xbb1a3096	-0.0023527495
150	0x3e449c37	0.19200216
151	0xbe1e29bd	-0.1544561
152	0x3dd97f8f	0.10620033
153	0x3e050b66	0.1299263
154	0xbdbd3fd8	-0.09240693
155	0x3d98b17b	0.07455727
156	0x3dffa0eb	0.124818645
157	0xb9df0edf	-0.00042544954
158	0xbd93ffc6	-0.07226519
159	0x3dda23ff	0.10651397
160	0xbc5eb7de	-0.013593642
161	0x3d9f3a25	0.07774762
162	0x3df696af	0.12040459
163	0xbd46af82	-0.04850722
164	0x3dc91bba	0.098197415
165	0x3e61b7ea	0.22042814
166	0x3de6dfa5	0.112731256
167	0xbd8e2556	-0.06940715
168	0x3e3cf243	0.1845179
169	0x3e4991cf	0.19684528
170	0x3e1fd535	0.15608676
171	0x3dca2574	0.09870425
172	0x3c942640	0.018084645
173	0xbd06957c	-0.032857403
174	0x3dc7d27c	0.097569436
175	0x3dfaee59	0.122524925
176	0x3dc143e5	0.09436778
177	0x3d8e62d6	0.06952445
178	0x3eab0531	0.33402398
179	0x3e18e72d	0.14931937
180	0xbd994c86	-0.07485299
181	0x3e166cec	0.14689988
182	0x3df26c8d	0.11837111
183	0x3ea25a55	0.31709543
184	0x3e71857c	0.23586076
185	0x3ceac4b6	0.028658252
186	0xbdefc9b4	-0.11708394
187	0xbd4d4e60	-0.050123572
188	0x3e0a296a	0.1349236
189	0x3ed81010	0.42199755
190	0x3e1bfae2	0.15232423
191	0x3a36d333	0.000697422
